complete_verifier/models/sdp/cifar_cnn_a_mix.model (torch, 862519 bytes, 8 tensors)

0.weight f4 [16, 3, 4, 4]
0.008228281 -0.12941265 -0.017822359 0.14595123 0.11544794 -0.0040274775 -0.11601436 -0.011526723
0.016350703 0.14140342 -0.0022740676 -0.13137752 -0.13217878 0.018706542 0.11524324 0.00042939853
0.0030079351 -0.09190035 -0.010643962 0.09829871 0.0798368 -0.0027252252 -0.087427214 -0.010221065
0.0088633 0.09595785 -0.0005721904 -0.09116966 -0.10217612 0.012595499 0.07657124 -0.0012191363
0.00479623 -0.10811158 -0.011593336 0.112600304 0.08793378 -0.0035883402 -0.09655672 -0.012764057
0.013477565 0.11633198 0.00086875784 -0.10300219 -0.098702796 0.017284058 0.08647097 0.001065058
-0.006018941 -0.018561834 -0.0057396814 -0.012339026 -0.020011434 -0.0081359185 -0.02724267 -0.0060617
-0.00778259 -0.03376003 -0.012435568 -0.02476766 -0.01765237 -0.008188956 -0.024705116 -0.005724769
-0.004044897 -0.013538912 -0.0036484606 -0.009364657 -0.014990131 -0.00619877 -0.019854128 -0.0047011706
-0.004227927 -0.020999514 -0.0063811843 -0.014776367 -0.011029488 -0.0055250074 -0.015748126 -0.0040760576
-0.003833418 -0.013670431 -0.003318886 -0.009072094 -0.016543286 -0.0068547036 -0.021097006 -0.0048193517
-0.00510496 -0.02707629 -0.007934399 -0.01894567 -0.013539413 -0.007085727 -0.019744786 -0.005173909
-0.015589266 0.072604895 0.0128672775 -0.07040399 -0.07975683 0.039843027 0.08988018 -0.04250634
-0.051141884 0.077792116 0.04928559 -0.075281076 -0.07563024 0.00523462 0.07855375 -0.01177723
-0.009595407 0.050707724 0.006984006 -0.055427954 -0.059115097 0.032817442 0.07152903 -0.033401724
-0.027555231 0.06003631 0.029089345 -0.052526355 -0.054834828 0.0049546855 0.057622604 -0.010268548
-0.0107634105 0.060822472 0.008855749 -0.061577354 -0.06542151 0.037011173 0.077020906 -0.039063774
-0.0331353 0.064245224 0.032986008 -0.06741966 -0.061322268 0.0034000236 0.05848312 -0.013019166
0.0030132143 -0.0414787 0.008278245 0.036793258 -0.05148345 -0.03514053 0.058298968 0.03752663
-0.028172899 -0.1282473 0.024694705 0.13406268 -0.0304408 -0.018702764 0.033431455 0.02018609
-0.00071401737 -0.039214637 0.0040135016 0.031278186 -0.044804323 -0.03129441 0.042941853 0.0315123
-0.017643321 -0.099785775 0.012946239 0.09673109 -0.028491635 -0.017873142 0.019910289 0.01582235
-0.0006272481 -0.042605314 0.0048841215 0.0360901 -0.048996918 -0.034783337 0.048105694 0.037422054
-0.02014339 -0.11662183 0.017251711 0.11937418 -0.028649826 -0.019218521 0.02648592 0.020392826
0.021318728 0.09031816 0.039038807 0.07146415 -0.04348692 -0.021712894 -0.047377534 -0.0065910392
-0.01853749 -0.10987479 -0.04453877 -0.07295673 0.040310517 0.01931956 0.06570046 0.01341974
0.009754374 0.05895674 0.02053509 0.04510583 -0.03265042 -0.015607518 -0.030859549 -0.004397702
-0.009025799 -0.06720533 -0.022459617 -0.0454644 0.031652432 0.016844386 0.051630754 0.010856031
0.010813778 0.06263839 0.022442834 0.047532726 -0.035783436 -0.017997127 -0.036229927 -0.0065984
-0.0109287165 -0.07712717 -0.026111195 -0.056895457 0.030622173 0.018322494 0.05319423 0.01135429
0.0092851855 0.03787931 0.013716421 0.037013285 0.0414733 0.017153706 0.05688893 0.013126088
0.013045113 0.056727767 0.018457547 0.03756617 0.02769624 0.011618449 0.038988512 0.008434054
00000000: e9cf 063c c084 04be 3200 92bc 3d74 153e
00000010: f86f ec3d eef8 83bb f098 edbd 95da 3cbc
00000020: e9f1 853c 0fcc 103e 8608 15bb d487 06be
00000030: e059 07be 763e 993c a604 ec3d e520 e139
00000040: c720 453b 4036 bcbd 0364 2ebc d650 c93d
00000050: 7a81 a33d b199 32bb 0a0d b3bd 4176 27bc
00000060: 6037 113c 8d85 c43d 0cff 15ba 29b7 babd
00000070: b741 d1bd 5a5d 4e3c 62d1 9c3d 6dcb 9fba
00000080: b129 9d3b 9b69 ddbd faf1 3dbc fd9a e63d
00000090: a016 b43d 5c2a 6bbb 88bf c5bd 5620 51bc
000000a0: 01d1 5c3c 763f ee3d 5abd 633a d0f2 d2bd
000000b0: b124 cabd 4c97 8d3c b117 b13d 6b99 8b3a
000000c0: 893a c5bb fd0e 98bc f013 bcbb a029 4abc
000000d0: 05ef a3bc 844c 05bc 052c dfbc 3aa1 c6bb
000000e0: 1905 ffbb f547 0abd 8dbe 4bbc 8ce5 cabc
000000f0: b49b 90bc f92a 06bc 6262 cabc d896 bbbb
00000100: 0e8b 84bb 50d2 5dbc 031b 6fbb 386e 19bc
00000110: 2b99 75bc 0d1f cbbb 20a5 a2bc 470c 9abb
00000120: 6c8a 8abb 2c07 acbc 4119 d1bb 9318 72bc
00000130: 07b5 34bc 1f0b b5bb 3702 81bc 7390 85bb
00000140: 153a 7bbb f2f9 5fbc ab81 59bb 1fa3 14bc
00000150: c985 87bc 6c9d e0bb a1d3 acbc a7eb 9dbb
00000160: 8247 a7bb 19cf ddbc 48ff 01bc f333 9bbc
00000170: 6ad4 5dbc 632f e8bb d1bf a1bc e589 a9bb
00000180: 1f6a 7fbc e0b1 943d 46d1 523c f82f 90bd
00000190: 8d57 a3bd 7132 233d 1a13 b83d 211b 2ebd
000001a0: 277a 51bd 7951 9f3d b0df 493d f72c 9abd
000001b0: 07e4 9abd 2d87 ab3b cae0 a03d 48f5 40bc
000001c0: 0e36 1dbc e7b2 4f3d 17da e43b 6c08 63bd
000001d0: ac22 72bd 956b 063d d07d 923d 3fd0 08bd
000001e0: 82bb e1bc a2e8 753d c74c ee3c e025 57bd
000001f0: 7c9a 60bd ea5a a23b ae05 6c3d 693d 28bc
00000200: 0459 30bc fc20 793d b417 113c 8938 7cbd
00000210: b6fb 85bd 0799 173d 23bd 9d3d 5601 20bd
00000220: e1b8 07bd 0093 833d 561c 073d 5213 8abd
00000230: 0f2d 7bbd eed2 5e3b ff8b 6f3d 574e 55bc
00000240: 5979 453b 92e5 29bd 7aa1 073c 87b4 163d
00000250: 4fe0 52bd 84ef 0fbd e6ca 6e3d 86b5 193d
00000260: daca e6bc 4353 03be 8d4c ca3c ba47 093e
00000270: fc5e f9bc 8a36 99bc 6cef 083d 4d5d a53c
00000280: e52c 3bba 879f 20bd b183 833b 8e1d 003d
00000290: bd84 37bd 912e 00bd cce3 2f3d 0b13 013d
000002a0: ba88 90bc 7c5c ccbd 761c 543c f31a c63d
000002b0: 4a67 e9bc b26a 92bc e71a a33c df9d 813c
000002c0: e86d 24ba e982 2ebd fb0a a03b 36d3 133d
000002d0: feb0 48bd f978 0ebd 7a0a 453d de47 193d
000002e0: c003 a5bc 6dd7 eebd 7653 8d3c 737a f43d
000002f0: 0ab3 eabc 2970 9dbc 00f9 d83c db0e a73c
00000300: 9da4 ae3c baf8 b83d 28e7 1f3d cc5b 923d
00000310: 571f 32bd 3ddf b1bc f20e 42bd a5f9 d7bb
00000320: efdb 97bc 0906 e1bd 496e 36bd 576a 95bd
00000330: a41c 253d 0e44 9e3c f68d 863d 78de 5b3c
00000340: cfd0 1f3c 9f7c 713d 3439 a83c e4c0 383d
00000350: 72bc 05bd adb6 7fbc 2acd fcbc 991a 90bb
00000360: f2e0 13bc f3a2 89bd 3bfd b7bc e138 3abd
00000370: fba5 013d 3dfd 893c c57a 533d 7fdd 313c
00000380: 462c 313c 8e48 803d 09da b73c adb1 423d
00000390: a791 12bd b66e 93bc d565 14bd 6437 d8bb
000003a0: 5c0e 33bc daf4 9dbd 25e7 d5bc 360b 69bd
000003b0: 5adb fa3c 0e19 963c 31e2 593d 5807 3a3c
000003c0: e420 183c 5627 1b3d d7ba 603c 3e9b 173d
000003d0: e8df 293d ee85 8c3c 5e04 693d ce0e 573c
000003e0: 2bbb 553c 605b 683d 4834 973c fcde 193d
000003f0: 3ae3 e23c 4f5b 3e3c 6bb2 1f3d fd2e 0a3c

0.bias f4 [16]
-0.03670969 -0.21773262 -0.023444014 -0.036812313 -0.04350748 0.029413909 0.0035453455 -0.14184676
-0.09433313 -0.018158365 -0.05489977 -0.13817656 -0.087806515 0.17728975 0.053985935 -0.046849284
00000000: e65c 16bd 4df5 5ebe a90d c0bc 82c8 16bd
00000010: e634 32bd 70f5 f03c 0759 683b 4740 11be
00000020: ba31 c1bd dac0 94bc 95de 60bd 287e 0dbe
00000030: e7d3 b3bd 728b 353e 5b20 5d3d 09e5 3fbd

2.weight f4 [32, 16, 4, 4]
0.048307005 0.04622183 0.018163368 0.019721132 0.0819743 0.07551008 0.046123423 0.02427885
0.06362016 0.05558135 0.052461483 0.042823955 0.0243878 0.027290855 0.051746197 0.052101847
-0.030608404 0.016463608 -0.014244894 0.08596445 -0.07988558 -0.024434749 -0.06414693 0.009208025
0.030987415 -0.04421895 -0.115027845 -0.09009128 0.05888708 0.13657278 0.013584003 -0.21008769
0.041992027 0.031940714 0.0019945905 0.02825113 0.0121193 0.021970281 -0.0012781293 0.017777719
-0.015999801 -0.017102186 -0.01753448 -0.0036613944 -0.012225976 -0.006486282 0.012259651 0.008228388
0.004547229 -0.06258318 -0.0797879 0.0078730695 -0.004299851 -0.056724813 -0.05826882 0.0046996833
-0.030141901 -0.07711824 -0.0265367 0.0036309513 -0.009580021 -0.060934458 -0.02027077 0.03776147
0.042303864 0.028619176 0.019127522 0.0087271165 0.021713682 -0.0063838894 -0.0035286867 -0.021840611
0.0005269235 -0.020390166 -0.001824223 0.0068014623 0.0058252183 -0.0047291266 0.000294798 0.011272162
0.040011607 -0.069074504 -0.09243253 -0.040567555 0.07084222 0.0018805697 -0.040322445 -0.044416636
0.04472279 -0.033181306 -0.0062046703 0.07345082 -0.033145823 -0.17959495 -0.14468725 0.06698371
-0.005912196 0.12199232 0.11154896 -0.016428355 0.12032629 0.24956791 0.24690948 0.10689806
0.13758712 0.2856707 0.28892258 0.14177264 -0.0027649906 0.13155001 0.13001767 0.010268464
-0.02222549 -0.029288076 -0.041197874 -0.05803391 -0.029235037 -0.07013802 -0.04831804 -0.04788259
0.009267237 -0.02964614 0.008334436 0.05010143 0.010636686 -0.00517992 0.016518887 0.017143106
-0.024404367 -0.0063581835 0.027424015 0.024038864 -0.009806563 0.010271512 0.028446618 0.0160687
0.021694714 0.023048477 0.013615789 0.012255875 0.04147612 0.04801843 0.020131579 0.020184873
0.00817324 0.027151149 0.0481306 0.026785184 0.028913658 0.07361668 0.08853777 0.047519546
0.049479384 0.060495295 0.06938109 0.052197307 0.036235884 0.032697972 0.03689869 0.047105774
-0.008662374 -0.040824246 -0.021246089 0.025451615 0.014465853 -0.015883876 -0.023325138 0.027767662
0.033197355 -0.03907698 -0.0701358 0.012253743 0.020576686 -0.054727346 -0.049147483 0.033869818
-0.0021684405 -0.025876641 -0.056957036 -0.038506858 -0.020785492 -0.052005224 -0.08688913 -0.059396178
-0.014919897 -0.044942893 -0.053323265 -0.024792824 -0.013140904 -0.036678243 -0.03392112 -0.012973754
-0.024382966 -0.010503421 0.017085794 -0.012481979 -0.032419752 -0.029609345 -0.040913396 -0.07943717
-0.018282173 -0.023778101 -0.07501134 -0.06727881 0.01692213 -0.0003590956 -0.04254155 -0.03021443
0.09127113 0.072046176 0.044769853 -0.13150501 -0.020649256 -0.21936917 -0.07535436 -0.0560197
0.077138245 -0.23942421 -0.083338454 0.18684512 0.1358579 -0.15727742 -0.053010438 0.2512837
0.049128674 -0.040182944 -0.06982883 0.015508894 -0.0044977106 -0.08408926 -0.105094366 -0.017175544
-0.08204506 -0.15840839 -0.14386436 -0.013319976 -0.08648837 -0.13381651 -0.118845016 -0.037308235
0.0393928 0.026459284 -0.019644443 -0.036901254 0.020000152 -0.0035815923 -0.038402587 -0.05231378
-0.05400719 -0.055106394 -0.018392952 -0.022273162 -0.041059934 -0.05529844 0.0029313054 0.015020982
00000000: 91dd 453d 1a53 3d3d 58cb 943c 368e a13c
00000010: 24e2 a73d 07a5 9a3d eaeb 3c3d 70e4 c63c
00000020: 494b 823d 45a9 633d dae1 563d 2c68 2f3d
00000030: ecc8 c73c 1291 df3c d2f3 533d bf68 553d
00000040: 7abe fabc b0de 863c 6a63 69bc 210e b03d
00000050: 0d9b a3bd 622b c8bc 775f 83bd 42dd 163c
00000060: 52d9 fd3c ee1e 35bd b893 ebbd c781 b8bd
00000070: 9433 713d bcd9 0b3e 708f 5e3c 3a21 57be
00000080: d5ff 2b3d 44d4 023d adb7 023b ea6e e73c
00000090: 0790 463c 05fb b33c e786 a7ba 94a2 913c
000000a0: 0412 83bc e219 8cbc 78a4 8fbc 01f4 6fbb
000000b0: 764f 48bc e18a d4bb b4dc 483c 5cd0 063c
000000c0: ec00 953b 9c2b 80bd d767 a3bd 0cfe 003c
000000d0: c4e5 8cbb 4758 68bd 49ab 6ebd cdff 993b
000000e0: 26ec f6bc 2bf0 9dbd 7e63 d9bc 41f5 6d3b
000000f0: 85f5 1cbc 6996 79bd e30e a6bc c5ab 1a3d
00000100: d146 2d3d c372 ea3c 52b1 9c3c 2efc 0e3c
00000110: e4e0 b13c f22f d1bb 8a41 67bb 15eb b2bc
00000120: 3d21 0a3a 4709 a7bc c41a efba cdde de3b
00000130: 79e1 be3b caf6 9abb 1e8f 9a39 e0ae 383c
00000140: 36e3 233d ef76 8dbd 444d bdbd 2a2a 26bd
00000150: ba15 913d 737d f63a 2629 25bd 38ee 35bd
00000160: 3f2f 373d 1fe9 07bd 8c50 cbbb 626d 963d
00000170: eac3 07bd bde7 37be e528 14be c12e 893d
00000180: 18bb c1bb 1cd7 f93d c873 e43d c294 86bc
00000190: a16d f63d bb8e 7f3e d7d5 7c3e 5fed da3d
000001a0: a3e3 0c3e 6e43 923e a9ed 933e d92c 113e
000001b0: d834 35bb 0cb5 063e 5a23 053e 0f3d 283c
000001c0: 3b12 b6bc 8ced efbc 1abf 28bd f7b4 6dbd
000001d0: 517e efbc 86a4 8fbd 23e9 45bd 8920 44bd
000001e0: 9cd5 173c 76dc f2bc 298d 083c 2837 4d3d
000001f0: 7f45 2e3c 51bc a9bb 9e52 873c b36f 8c3c
00000200: abeb c7bc 4f58 d0bb 54a8 e03c 27ed c43c
00000210: b5ab 20bc d849 283c e208 e93c 82a2 833c
00000220: 1db9 b13c 29d0 bc3c c214 5f3c decc 483c
00000230: dde2 293d f9ae 443d fbea a43c bf5a a53c
00000240: 0ee9 053c 166c de3c 9824 453d 9a6c db3c
00000250: 56dc ec3c 58c4 963d 4a53 b53d dba3 423d
00000260: e5aa 4a3d eac9 773d ac17 8e3d d8cc 553d
00000270: 146c 143d 4fee 053d 1523 173d fcf1 403d
00000280: a1ec 0dbc 5337 27bd 470c aebc e87f d03c
00000290: 2f02 6d3c e71e 82bc 5c14 bfbc 0279 e33c
000002a0: f3f9 073d 2f0f 20bd 5ca3 8fbd ecc3 483c
000002b0: 7090 a83c c829 60bd df4e 49bd 14bb 0a3d
000002c0: 651c 0ebb 40fb d3bc c84b 69bd 5eb9 1dbd
000002d0: 5646 aabc 6e03 55bd eef2 b1bd 6849 73bd
000002e0: 9572 74bc 0a16 38bd 7f69 5abd 521a cbbc
000002f0: f24c 57bc ed3b 16bd dff0 0abd de8f 54bc
00000300: c9be c7bc 8a16 2cbc 82f7 8b3c 3781 4cbc
00000310: 93ca 04bd 4c8f f2bc ce94 27bd f4af a2bd
00000320: 7fc4 95bc 4bca c2bc 8c9f 99bd 79c9 89bd
00000330: 47a0 8a3c ff44 bcb9 0c40 2ebd 4184 f7bc
00000340: 5cec ba3d f28c 933d 9860 373d 40a9 06be
00000350: a128 a9bc 50a2 60be 6353 9abd ea74 65bd
00000360: a8fa 9d3d 9f2b 75be 5aad aabd 5454 3f3e
00000370: 551e 0b3e 550d 21be 7921 59bd 42a8 803e
00000380: 263b 493d df96 24bd 6b02 8fbd 0419 7e3c
00000390: 8861 93bb fd36 acbd b73b d7bd bab3 8cbc
000003a0: 3e07 a8bd cf35 22be 2e51 13be 073c 5abc
000003b0: d120 b1bd 3207 09be 0465 f3bd 85d0 18bd
000003c0: 585a 213d 24c1 d83c 62ed a0bc c525 17bd
000003d0: 5cd7 a33c 26b9 6abb 084c 1dbd f946 56bd
000003e0: a536 5dbd 3eb7 61bd d1ac 96bc 3576 b6bc
000003f0: 762e 28bd 9e80 62bd 251b 403b 911a 763c

2.bias f4 [32]
0.3159071 -0.50271124 -0.20773906 -0.6848598 0.24954796 -0.08339917 0.5410613 -0.04328077
-0.17669953 0.78877604 0.023457443 0.055455744 0.77181274 -0.023958908 -0.027766902 -0.018410427
-0.07942929 -0.066360146 -0.13684972 0.36078483 -0.17512015 0.053865172 -0.3395394 -0.13165888
-0.09382496 0.82790446 -0.5649504 0.6236367 0.40331447 -0.04418025 -0.0024894085 -0.207201
00000000: 93be a13e afb1 00bf 8cb9 54be f952 2fbf
00000010: 8089 7f3e 2fcd aabd fe82 0a3f 2d47 31bd
00000020: b9f0 34be 3aed 493f d329 c03c 9025 633d
00000030: 8595 453f 7945 c4bc 6a77 e3bc 77d1 96bc
00000040: d3ab a2bd d4e7 87bd 5522 0cbe cab8 b83e
00000050: b252 33be baa1 5c3d 1cd8 adbe 96d1 06be
00000060: 4d27 c0bd 8cf1 533f 97a0 10bf a8a6 1f3f
00000070: 3c7f ce3e 5af6 34bd 5825 23bb 802c 54be

5.weight f4 [100, 2048]
-0.3952524 -0.005615172 -0.034153473 0.14645794 0.026995808 0.025340676 -0.078912124 0.040559676
-0.31177485 -0.07309303 -0.21913877 -0.26178554 -0.17422535 -0.284269 -0.36977348 -0.081267335
-0.0981147 0.09950936 -0.41069642 0.028376577 -0.12787865 -0.3660841 -0.15020438 0.50548714
0.8860759 0.9220009 0.5844512 0.9642081 0.80386704 0.4642634 0.5294465 1.13691
0.4633577 0.46963096 0.021104012 -0.010853359 0.030299414 0.013300802 -0.08262747 0.13289195
-0.12384205 -0.039637625 -0.15142861 -0.4615535 -0.53038585 -0.46318424 -0.65407765 -0.6904755
-0.12022673 -0.30158523 -0.3831674 -0.7538466 -0.9397716 -0.7389991 -0.82389224 -0.9611029
-0.7546456 -0.28057396 -0.58850384 -0.5959722 -0.72166574 -0.6322192 -0.4117668 -0.628865
0.09739979 -0.60222614 -0.1525187 -0.2250686 0.07180016 -0.15691751 -0.19381894 -0.46565092
0.15007065 -0.17617927 -0.23343371 -0.20161165 0.3285485 -0.14999975 -0.12925518 0.05014523
0.34202838 -0.92470515 -1.3639889 -0.97127193 -0.12096691 -0.9114997 -1.0196537 0.047246654
0.258907 -0.30791628 -0.9518743 -0.6952468 0.098507166 -0.7233206 -1.0828121 0.06805145
0.31150386 -0.075039245 -0.6601599 -0.7159897 -0.3357927 -0.63637215 -0.86192256 0.24133626
0.073056765 -0.2665443 -0.29646927 -0.28289944 -0.625911 -0.6020692 -0.19610453 0.40380818
-0.8450215 -0.23376493 -0.520295 -0.15681331 -0.50050336 -0.8852048 -0.22011073 0.16156141
0.18710746 0.017240355 -0.5763692 -0.34408635 -0.022127392 -0.08965712 0.437004 0.35689288
-0.13285296 -0.22108825 -0.44509384 -0.4677466 -0.40973002 -0.16783276 -0.33467537 -0.06701356
-0.18106526 -0.27477667 -1.1265445 -1.3197237 -1.0196056 -1.1712619 -0.44443724 -1.4976739
0.22517602 -0.43708935 -0.39877242 -0.49850568 -0.6421905 -0.59177804 0.014032736 -0.37311897
0.076338455 -0.37766317 -0.023065466 -0.31224722 -0.4386906 -0.42982048 0.2733803 0.13370214
0.005056729 -0.42106408 -0.089698546 -0.6600533 -0.5129797 -0.018643541 0.33149198 0.25425914
-0.13108395 -0.35353863 0.02440456 -0.11777377 -0.19672804 0.19217621 0.23708726 0.08313982
-0.4257308 -0.57991683 -1.037939 -0.55895334 -0.47303507 -0.55076957 -0.31277794 -0.22998114
0.21733958 -1.0992022 -2.3006327 -1.6009889 -1.3653994 -1.6904613 -0.5926169 0.35317123
0.1261753 -2.2855048 1.544889 2.2386012 2.5306242 2.913449 0.579475 -1.0109932
-0.9446592 -0.56726587 1.3809743 1.6238868 2.1420822 2.0199344 1.6278383 -0.45205185
-0.57629764 -0.0637733 0.45264617 0.42737952 0.49922097 0.8009966 0.8767038 0.3157507
0.00521259 -0.036981788 -0.036199126 -0.031859014 0.35421872 0.37582546 0.13397399 0.43172884
0.7141003 0.38270926 -0.2686156 -0.03855091 0.39356333 0.5003577 -0.07090607 0.6162846
1.2850977 0.8414606 0.6510193 0.41404593 0.714543 0.8143891 0.86499935 0.63860685
0.4071108 0.37998566 -0.031909473 0.42474654 0.44044057 0.085426286 0.2042886 0.08222386
-1.200746 -0.33975267 -0.24678591 0.13496943 0.29534212 -0.093372 -0.8969999 -1.0302955
00000000: 865e cabe 7aff b7bb 83e4 0bbd 12f9 153e
00000010: 5026 dd3c 4097 cf3c ae9c a1bd e721 263d
00000020: f4a0 9fbe ccb1 95bd ea65 60be c108 86be
00000030: 2168 32be b58b 91be f352 bdbe 7d6f a6bd
00000040: 5cf0 c8bd 90cb cb3d cd46 d2be ff75 e83c
00000050: 9ff2 02be 606f bbbe 2dcf 19be 9b67 013f
00000060: dfd5 623f 4008 6c3f 989e 153f 58d6 763f
00000070: 3bca 4d3f efb3 ed3e ce89 073f 4486 913f
00000080: 383d ed3e 7873 f03e 52e2 ac3c 49d2 31bc
00000090: 7a36 f83c 9beb 593c 9738 a9bd d414 083e
000000a0: e7a0 fdbd 105b 22bd 1a10 1bbe be50 ecbe
000000b0: 5ec7 07bf 7c26 edbe a271 27bf 01c3 30bf
000000c0: 6f39 f6bd 6169 9abe 842e c4be 17fc 40bf
000000d0: df94 70bf 0c2f 3dbf 9aea 52bf d70a 76bf
000000e0: 7430 41bf 64a7 8fbe 30a8 16bf a291 18bf
000000f0: 16bf 38bf 1ed9 21bf 19d3 d2be 4cfd 20bf
00000100: 8b79 c73d 7e2b 1abf dd2d 1cbe 6278 66be
00000110: f60b 933d fcae 20be 7978 46be cc69 eebe
00000120: 1fac 193e 5768 34be 3f09 6fbe 4973 4ebe
00000130: 8237 a83e 8999 19be 785b 04be 1665 4d3d
00000140: 581e af3e 7ab9 6cbf 3097 aebf 47a5 78bf
00000150: 80bd f7bd 0b58 69bf 0384 82bf b585 413d
00000160: 758f 843e 34a7 9dbe 09ae 73bf b2fb 31bf
00000170: 20be c93d 8a2b 39bf 9699 8abf 8f5e 8b3d
00000180: 6f7d 9f3e 2dae 99bd 3d00 29bf 1a4b 37bf
00000190: 05ed abbe 49e9 22bf f5a6 5cbf da20 773e
000001a0: c99e 953d 7f78 88be d2ca 97be 32d8 90be
000001b0: b43b 20bf 3521 1abf a0cf 48be f2bf ce3e
000001c0: 5453 58bf 1360 6fbe 0e32 05bf ab93 20be
000001d0: fd20 00bf c89c 62bf b564 61be 5b70 253e
000001e0: 1999 3f3e a53b 8d3c ef8c 13bf 162c b0be
000001f0: 8144 b5bc 279e b7bd fdbe df3e aaba b63e
00000200: 9b0a 08be f564 62be 57e3 e3be 7b7c efbe
00000210: 22c8 d1be 5adc 2bbe 925a abbe 683e 89bd
00000220: 2c69 39be 87af 8cbe 9c32 90bf b5ec a8bf
00000230: 7082 82bf e9eb 95bf 478d e3be c7b3 bfbf
00000240: 8b94 663e 2dca dfbe e62b ccbe 233c ffbe
00000250: 9966 24bf c47e 17bf 90e9 653c 7309 bfbe
00000260: 5657 9c3d 115d c1be caf3 bcbc dede 9fbe
00000270: 0e9c e0be 6e11 dcbe 81f8 8b3e 37e9 083e
00000280: ebb2 a53b b695 d7be dfb3 b7bd 41f9 28bf
00000290: a352 03bf 57ba 98bc 51b9 a93e 412e 823e
000002a0: df3a 06be 0403 b5be 12ec c73c 6033 f1bd
000002b0: 1373 49be d7c9 443e 01c7 723e 3645 aa3d
000002c0: 63f9 d9be 6e75 14bf 2fdb 84bf 9117 0fbf
000002d0: a731 f2be 3cff 0cbf 6e24 a0be 2d80 6bbe
000002e0: 448e 5e3e a8b2 8cbf 913d 13c0 34ed ccbf
000002f0: 68c5 aebf 0961 d8bf beb5 17bf dcd2 b43e
00000300: 1934 013e b645 12c0 ecbe c53f 3e45 0f40
00000310: bff5 2140 f375 3a40 7958 143f 3a68 81bf
00000320: 2fd5 71bf 5638 11bf c4c3 b03f 86db cf3f
00000330: e017 0940 9b46 0140 015d d03f 5773 e7be
00000340: 3e88 13bf 939b 82bd 3dc1 e73e 7dd1 da3e
00000350: e499 ff3e 1d0e 4d3f a96f 603f 13aa a13e
00000360: 60ce aa3b 377a 17bd 8945 14bd 997e 02bd
00000370: 285c b53e 326c c03e 7a30 093e 900b dd3e
00000380: 47cf 363f 78f2 c33e fc87 89be 8fe7 1dbd
00000390: 2281 c93e 7117 003f 3437 91bd d4c4 1d3f
000003a0: 157e a43f f669 573f 33a9 263f d4fd d33e
000003b0: 4aec 363f ce7b 503f 9970 5d3f bd7b 233f
000003c0: d470 d03e 7b8d c23e 82b3 02bd 6178 d93e
000003d0: 6d81 e13e faf3 ae3d 0831 513e fc64 a83d
000003e0: 0cb2 99bf 10f4 adbe 72b5 7cbe 6d35 0a3e
000003f0: 1537 973e d239 bfbd c9a1 65bf b9e0 83bf

5.bias f4 [100]
2.9704645 2.9536521 -0.577408 -0.036445647 7.337714 -0.012076374 4.7307305 -0.74546576
3.027333 0.99239206 -3.7813945 1.9252836 -0.031208038 -0.025641462 -2.6513827 -0.97789824
1.5061406 -0.0744386 -0.018036192 2.2223597 0.47781092 -0.0246585 -3.2206583 -0.011651977
2.291949 4.4265704 -0.0073718033 -0.010647196 -1.9314201 3.1992745 1.1656967 2.8532114
2.1186748 -2.9738731 -0.039702054 -1.4273301 5.3508058 3.1012826 -1.7815542 -0.026453841
6.150873 -0.03912266 0.8915444 -3.7019994 4.957654 6.1618743 2.5526016 2.2546508
-0.7977331 -4.1587706 1.2350899 -3.6211178 -0.009541766 -1.0758371 2.465725 -0.032147564
9.711497 -2.444604 2.7181234 -0.013287405 1.5925634 1.8568581 0.09288605 -0.01542629
-0.020345021 -4.314367 -5.270168 4.332907 3.4260733 -0.020280786 1.9671242 2.3501158
1.134543 2.0091636 2.5452173 2.2593822 5.734955 2.2647488 6.444586 -0.011100081
6.99924 6.433654 2.965807 4.5940533 6.170882 -0.2592138 -0.039854404 7.54334
5.038611 -1.3263098 2.850179 -0.028082134 -2.7908306 3.4624622 0.9828223 3.8519163
-0.0148466835 3.2904859 -0.02159047 -0.019120853
00000000: 171c 3e40 a308 3d40 03d1 13bf 0848 15bd
00000010: 8ece ea40 fcdb 45bc 2562 9740 d8d6 3ebf
00000020: d3bf 4140 680d 7e3f 5e02 72c0 b16f f63f
00000030: 00a8 ffbc 0b0e d2bc 41b0 29c0 8a57 7abf
00000040: 37c9 c03f 4473 98bd a3c0 93bc 243b 0e40
00000050: a2a3 f43e 9f00 cabc 441f 4ec0 efe7 3ebc
00000060: 4baf 1240 77a6 8d40 2b8f f1bb 9471 2ebc
00000070: c638 f7bf eac0 4c40 8d35 953f 049b 3640
00000080: 5e98 0740 f053 3ec0 9f9e 22bd c1b2 b6bf
00000090: cd39 ab40 6a7b 4640 f809 e4bf bab5 d8bc
000000a0: f4d3 c440 153f 20bd 413c 643f 8fed 6cc0
000000b0: 1aa5 9e40 132e c540 d35d 2340 334c 1040
000000c0: 3d38 4cbf a614 85c0 6d17 9e3f 65c0 67c0
000000d0: 1155 1cbc 08b5 89bf 70ce 1d40 2aad 03bd
000000e0: 4b62 1b41 6474 1cc0 bcf5 2d40 6ab3 59bc
000000f0: 1ed9 cb3f 87ad ed3f 0b3b be3d 8dbe 7cbc
00000100: 9aaa a6bc 4b0f 8ac0 37a5 a8c0 2da7 8a40
00000110: c944 5b40 e423 a6bc baca fb3f 4c68 1640
00000120: b438 913f 2396 0040 d7e4 2240 b899 1040
00000130: c084 b740 a5f1 1040 0c3a ce40 1ddd 35bc
00000140: c6f9 df40 7ee0 cd40 c8cf 3d40 7c02 9340
00000150: de77 c540 acb7 84be 5f3e 23bd 0b63 f140
00000160: 4d3c a140 85c4 a9bf 5569 3640 810c e6bc
00000170: f89c 32c0 fb98 5d40 3e9a 7b3f cc85 7640
00000180: 813f 73bc 5297 5240 7fde b0bc 56a3 9cbc

7.weight f4 [10, 100]
-0.6293267 -0.0070821634 -0.41597092 -0.07319926 -0.028938465 -0.02990386 -0.16564998 -0.003776299
-0.20838574 -0.24122824 -0.18499438 -0.3438525 0.087690294 -0.090124555 -0.058647525 -0.101773456
-0.30314252 -0.01410332 -0.14307496 -0.2658839 -0.049067043 -0.06981413 -0.10353529 -0.03147426
-0.13793904 -0.2372211 -0.03982031 -0.011927594 -0.0022031304 -0.3077838 -0.29040653 -0.17431873
-0.21766791 -0.71283454 0.034466088 -0.14567067 -0.056327753 -0.21182816 -0.39099938 0.04385448
-0.07865119 0.007169297 -0.3510401 -0.09703452 -0.15918994 -0.16526282 -0.32650116 -0.122755535
-0.0504011 -0.11069788 -0.26157293 -0.07712627 -0.17054123 -0.13549636 -0.1917295 -0.11900918
-0.18535326 -0.25590158 -0.13066153 -0.057348322 -0.124859296 -0.10750018 -0.13751014 -0.0096407775
0.10295189 -0.16809885 -0.18290089 -0.19590925 -0.14285408 -0.063890934 -0.1779232 -0.19860579
-0.18749729 -0.1896194 -0.17191464 -0.12734193 -0.2600795 -0.16068785 -0.12141606 0.039415166
-0.20471084 -0.23626326 -0.20053057 -0.13189815 -0.19357869 -0.2916402 -0.20516263 -0.31340113
-0.1620958 -0.061129067 -0.22925997 -0.04953023 -0.15357175 -0.29382464 -0.22458647 -0.11172002
0.07965264 -0.18308514 -0.15306157 -0.17936742 -0.61963 -0.026167117 -0.30489588 -0.20032893
0.021764198 -0.047858354 -0.020837659 -0.054481536 -0.208655 -0.22831595 -0.22542775 -0.34133422
0.08667746 0.114847265 -0.07757829 -0.14289716 -0.17196044 -0.06737704 -0.10762313 -0.23374791
-0.08759962 -0.023830513 -0.16509211 -0.102587104 -0.11929856 -0.09893321 0.14878881 -0.12828428
-0.12336442 -0.3251857 -0.37490022 -0.040573407 -0.09147451 -0.7044464 -0.0004241267 -0.14718068
-0.1569702 -0.134064 -0.38685626 0.08130397 -0.15661313 -0.10880559 -0.34710377 -0.21121198
-0.14939371 -0.1351527 -0.31433284 -0.12708141 -0.10376508 -0.24405994 -0.27986425 -0.1654656
-0.15327118 -0.02733245 -0.19173788 0.03438511 -0.23698461 -0.25427046 -0.18936123 0.12087364
-0.22695991 -0.20852774 -0.18213822 0.0633791 -0.16793342 -0.20300555 -0.163517 -0.22411615
-0.15024145 -0.05897913 -0.19787435 -0.20177191 -0.2750863 -0.20108685 -0.20661345 -0.13634564
-0.2416875 -0.12015782 -0.06572002 -0.09490471 -0.21793118 -0.26491222 -0.20610839 0.0157086
-0.21090819 -0.27619994 0.10230635 -0.28424725 -0.15779237 -0.05923949 -0.2208591 -0.048007123
-0.15226813 -0.18785867 -0.2366764 -0.091206536 -0.03710681 -0.2005187 -0.048817396 -0.09657614
-0.648768 -0.11481814 -0.41665155 -0.03785513 -0.11695048 -0.052136112 -0.1804424 0.016990729
-0.12935601 -0.21364135 -0.16518068 -0.35350084 -0.020536004 -0.05656387 -0.043357488 0.0021535472
-0.3165123 -0.1523771 0.031134121 -0.23439994 -0.11040661 -0.10847893 -0.17632298 -0.0013269047
-0.13189192 -0.24715662 0.11138536 0.029211465 -0.047048464 -0.31920528 -0.3073632 -0.18460064
-0.24241425 -0.6865365 -0.19339243 -0.13446535 -0.14301446 -0.19137056 -0.25563562 -0.13163066
-0.107723616 -0.06393329 -0.35915646 -0.17705166 -0.13983841 -0.20383872 -0.295648 -0.111953236
-0.10925444 -0.18655889 -0.2522958 -0.133681 0.037814327 -0.1876126 -0.19962743 -0.08527226
00000000: 8e1b 21bf 7e11 e8bb 24fa d4be 7ee9 95bd
00000010: 5c10 edbc f1f8 f4bc 26a0 29be c97b 77bb
00000020: 1263 55be 8904 77be 2b6f 3dbe 6f0d b0be
00000030: f896 b33d 3993 b8bd 6338 70bd 9a6e d0bd
00000040: 7f35 9bbe 9d11 67bc 3e82 12be ef21 88be
00000050: 86fa 48bd b6fa 8ebd 4f0a d4bd 27eb 00bd
00000060: e43f 0dbe 17ea 72be 9f1a 23bd f56b 43bc
00000070: 6562 10bb d795 9dbe 2ab0 94be 9c80 32be
00000080: 56e4 5ebe 537c 36bf 502c 0d3d b12a 15be
00000090: eeb7 66bd 7be9 58be 1231 c8be c1a0 333d
000000a0: e013 a1bd 6cec ea3b 87bb b3be 09ba c6bd
000000b0: b002 23be a83a 29be 292b a7be 4167 fbbd
000000c0: 6271 4ebd 92b5 e2bd e3ec 85be 61f4 9dbd
000000d0: 5ca2 2ebe 8fbf 0abe bd54 44be 16bb f3bd
000000e0: 3fcd 3dbe 8805 83be 23cc 05be 13e6 6abd
000000f0: 3bb6 ffbd 0e29 dcbd 75cf 0cbe 5af4 1dbc
00000100: 71d8 d23d 1b22 2cbe 5f4a 3bbe 6f9c 48be
00000110: 5748 12be 40d9 82bd 8031 36be 515f 4bbe
00000120: 4aff 3fbe 972b 42be 640a 30be ec65 02be
00000130: 2429 85be 5b8b 24be fca8 f8bd cc71 213d
00000140: b89f 51be ffee 71be e357 4dbe 4f10 07be
00000150: 7e39 46be dd51 95be 2716 52be 1d76 a0be
00000160: 71fc 25be 7962 7abd 20c3 6abe 36e0 4abd
00000170: ea41 1dbe 2f70 96be fff9 65be 77cd e4bd
00000180: ec20 a33d ac7a 3bbe 2cbc 1cbe 18ac 37be
00000190: 12a0 1ebf 6c5c d6bc 501b 9cbe 0723 4dbe
000001a0: d54a b23c 1f07 44bd bdb3 aabc 0828 5fbd
000001b0: a8a9 55be a8cb 69be 88d6 66be 5cc3 aebe
000001c0: f483 b13d 0b35 eb3d 5ee1 9ebd a253 12be
000001d0: 6616 30be f9fc 89bd 8469 dcbd 9d5b 6fbe
000001e0: 6e67 b3bd 3538 c3bc e80d 29be 3019 d2bd
000001f0: ce52 f4bd 7f9d cabd 185c 183e f45c 03be
00000200: 7ca6 fcbd bd7e a6be ecf2 bfbe 4d30 26bd
00000210: fd56 bbbd 9956 34bf 525d deb9 88b6 16be
00000220: ccbc 20be 1348 09be 0612 c6be b282 a63d
00000230: 315f 20be 77d5 debd 96b7 b1be f447 58be
00000240: aafa 18be 7865 0abe 3cf0 a0be a121 02be
00000250: c982 d4bd d9ea 79be 5e4a 8fbe d06f 29be
00000260: 1ff3 1cbe 4de8 dfbc ef56 44be 67d7 0c3d
00000270: 18ac 72be bd2f 82be e9e7 41be 998c f73d
00000280: 2e68 68be 4c88 55be 7182 3abe e7cc 813d
00000290: bdf6 2bbe b0e0 4fbe 0071 27be b47e 65be
000002a0: e5d8 19be 1a94 71bd 939f 4abe 4c9d 4ebe
000002b0: 1dd8 8cbe b6e9 4dbe 7a92 53be 319e 0bbe
000002c0: ee7c 77be 4e15 f6bd 3898 86bd 675d c2bd
000002d0: 5a29 5fbe 93a2 87be 140e 53be 52af 803c
000002e0: 51f8 57be 146a 8dbe fe85 d13d db88 91be
000002f0: 5394 21be 1ca5 72bd e328 62be 1ea3 44bd
00000300: 2dec 1bbe 065e 40be 4c5b 72be 7eca babd
00000310: 4ffd 17bd c654 4dbe c0f4 47bd b6c9 c5bd
00000320: a915 26bf c625 ebbd 5a53 d5be fb0d 1bbd
00000330: bc83 efbd ad8c 55bd e4c5 38be 2430 8b3c
00000340: e775 04be ccc4 5abe 2025 29be 10fe b4be
00000350: 1f3b a8bc 84af 67bd 9f97 31bd 8722 0d3b
00000360: e60d a2be be08 1cbe fc0c ff3c 8a06 70be
00000370: dc1c e2bd 342a debd 038e 34be 89eb adba
00000380: ad0e 07be a016 7dbe 021e e43d e24c ef3c
00000390: e4b5 40bd e06e a3be b65e 9dbe f307 3dbe
000003a0: 713b 78be dbc0 2fbf aa08 46be 49b1 09be
000003b0: 6272 12be a5f6 43be ace2 82be 30ca 06be
000003c0: 339e dcbd 75ef 82bd 5be3 b7be 084d 35be
000003d0: cd31 0fbe 19bb 50be 2d5f 97be bd47 e5bd
000003e0: cbc0 dfbd 4b09 3fbe ea2c 81be ace3 08be
000003f0: 32e3 1a3d 841d 40be 226b 4cbe 39a3 aebd

7.bias f4 [10]
-0.19680464 -1.072727 -0.45629284 1.0083913 0.6772446 0.45163593 -0.13648526 0.35296217
-1.0427343 0.00069009606
00000000: 2887 49be 1e4f 89bf 379f e9be f712 813f
00000010: e75f 2d3f d33c e73e cbc2 0bbe 75b7 b43e
00000020: 5178 85bf 90e7 343a
