complete_verifier/models/sdp/cifar_cnn_a_adv_alt.model (torch, 862519 bytes, 8 tensors)

0.weight f4 [16, 3, 4, 4]
00000000: 0efe db3b 8be5 0b3e 378a f93b 31dc 473d
00000010: 0f70 b6bd 24d2 01bc 5853 d7bd b62b bcbb
00000020: 26d2 84bb 9692 86bd 262c f2bb 6817 47bd
00000030: 7451 443d 479a da3b f14e 943d 7582 853b
00000040: ee4e 7d3b 99f8 c43d 7303 943b 5e27 0a3d
00000050: 99bd 96bd e980 a5bb 2845 a8bd a708 75bb
00000060: 44a9 19bb 255d 2abd f3cd 8cbb 3647 f7bc
00000070: 76f9 253d 8f5e 983b e6b2 803d b3e0 3a3b
00000080: 2265 813b f793 d13d 70d2 8b3b aa0c 033d
00000090: d465 a6bd d468 14bc ba89 b8bd 7568 e6bb
000000a0: e808 24bb 44bd 44bd 4975 93bb 320c 0ebd
000000b0: b328 313d 559c 073c f4c3 863d c850 ac3b
000000c0: 2696 313c b758 bd3d efb7 38bb 386f 9dbd
000000d0: 588c 193e d9e7 a2b9 ea20 11be 148c 90bb
000000e0: fe7b 8fbb 2f32 fbbd 3d00 09bb 4699 bc3d
000000f0: e555 eabd 1863 903a 9b51 1d3e d1db 193c
00000100: d8c8 c63b 7cf6 6f3d 8552 1abb c4d8 81bd
00000110: ceb0 f33d ba56 68ba fcf4 00be 65c3 82bb
00000120: 37ff 7bbb e9a7 c5bd 3c8c 0abb 265d 6d3d
00000130: 8c9a d8bd 5b42 d738 21e7 f63d 9dd6 b13b
00000140: 15df cf3b 66e6 893d 6e5a 2bbb f5b2 86bd
00000150: dacc 013e a573 adba d719 08be 4992 e1bb
00000160: b52e 68bb b0ae d0bd 58d6 17bb 8a3b 873d
00000170: 128d d4bd bfee 1a3a 9618 063e a037 1f3c
00000180: f87c b23b ea59 5fbd da1a febb 0ce8 8b3d
00000190: 7caa b43d 63e8 d8bb 58d0 fcbd aaf9 343c
000001a0: 49ea 4e3c 20bf 89bd 7f67 8dbc bd03 ea3d
000001b0: 7b8c 873d 20cb 73ba 79dd babd 4679 093c
000001c0: 24ec 593b 32c8 3cbd 47d5 babb def1 433d
000001d0: 4ba7 a43d 5e8e 9ebb ecba e6bd 7c28 f73b
000001e0: 167f 0e3c 9017 39bd 2e9e 2ebc d0ad b73d
000001f0: 5f8e 733d 7b26 fcb9 27cb a2bd 4083 c53b
00000200: c900 633b 0d6a 40bd ec14 bfbb 4a67 413d
00000210: 72ed a63d e949 ffbb e6f4 efbd cdb1 483c
00000220: bc97 143c b8b3 45bd 588c 31bc 234e c73d
00000230: 00e4 6a3d 47da 86ba 1880 a6bd 4c58 1d3c
00000240: 8527 983a 430d 8c39 cdec 3c3a 0cad df3c
00000250: d15c c73c 179e b03a 808c e83b 73d7 da3a
00000260: 3ae1 153b 9bdb c33c 83d4 9f3a 6116 4b3c
00000270: 1da8 803c 7c05 033a 22cc 773c db6b 003a
00000280: 9c58 a83a ac71 e13c ffc1 183b 2873 d83c
00000290: 6d37 243d f97c 633b 68df 553d 5ab2 3a3b
000002a0: 2232 2d3b 4c51 533d c017 7a3b 34c9 0f3d
000002b0: f627 813c 0d30 a53a 17bb 043d ef75 543a
000002c0: 1931 60bb c991 3fbd 1ac3 45bb 5678 3abd
000002d0: 17ce 6cbd 13cc b4bb bc16 68bd befd b8bb
000002e0: a7ef 79bb 41fc 6fbd 364a 71bb 5482 6ebd
000002f0: 9a24 39bd 21f7 9ebb 3793 2abd 38ee 96bb
00000300: 28ed c6ba 9320 99bc d309 f1ba 3ec3 28bc
00000310: 2cd9 debc 535c 23bb 6441 02bd 5f3e 06bb
00000320: 00ee 3abb 609b 3ebd 5549 99bb 1c0a 14bd
00000330: 3ab7 92bc b9f2 ebba a1ea bdbc 7d3c bfba
00000340: 7241 98ba 463d 75bc e87b a9ba c78b 22bc
00000350: 1628 c8bc fb57 e2ba c78e d8bc a243 9eba
00000360: d82f d4ba ebd2 ebbc 388b 2ebb c3b6 c5bc
00000370: e08a 63bc d29e 84ba 1345 8dbc 513f 5eba
00000380: 70d7 8cba b3fa 86bc a7ed 8aba 5fd4 36bc
00000390: 3deb d2bc 44f5 3cbb 022e e0bc 4180 0abb
000003a0: 314a d6ba 2008 05bd beeb 2abb 6297 debc
000003b0: f772 72bc b27b f7ba e9a2 98bc 16df c6ba
000003c0: faf8 aa3a 542c bc3d e5c2 953b 680a 10bc
000003d0: 3a0b 933d d64e 583c 5a5b 0a3d 8666 8dbb
000003e0: b41d c53b f312 793d d336 26bc 169e ffbd
000003f0: d039 aa3b 899e 3ebb 14e0 ffbd 668f e7bb
0.0067136353 0.13661782 0.0076153534 0.048793975 -0.08908092 -0.007923637 -0.105139434 -0.0057425154
-0.004053372 -0.06570928 -0.007390517 -0.048606306 0.047929242 0.0066712233 0.072416194 0.0040743896
0.0038651782 0.09617729 0.0045170127 0.03372895 -0.07360382 -0.0050507677 -0.082163155 -0.003738919
-0.0023446837 -0.041592736 -0.004297012 -0.030185323 0.040521108 0.004649944 0.06284122 0.0028515279
0.0039488235 0.102333 0.0042670295 0.0319945 -0.08124891 -0.009058196 -0.09010644 -0.007031495
-0.0025029723 -0.04803206 -0.0045000655 -0.0346796 0.043251704 0.008277019 0.06580344 0.0052586533
0.010839021 0.09245437 -0.0028185805 -0.07687229 0.14994943 -0.00031071788 -0.14172712 -0.00441123
-0.0043787947 -0.12265431 -0.0020904683 0.09208922 -0.11442164 0.001101586 0.15363161 0.009390787
0.006066423 0.058584675 -0.002354772 -0.06340173 0.11898957 -0.0008863021 -0.12593454 -0.003990578
-0.003845168 -0.09651167 -0.0021140715 0.05795016 -0.105763525 0.000102643586 0.12055803 0.005427195
0.006343732 0.06733398 -0.002614643 -0.06577102 0.12675801 -0.0013233317 -0.13291107 -0.0068838936
-0.003542823 -0.10189569 -0.002316853 0.06603153 -0.103784695 0.000591021 0.13095316 0.009717852
0.0054470263 -0.054529108 -0.007754666 0.06831369 0.0882158 -0.0066194995 -0.12344426 0.011045853
0.0126291 -0.06725907 -0.017261265 0.11426494 0.066185914 -0.00092999823 -0.09124274 0.00839073
0.0033252323 -0.04608936 -0.005701694 0.047838084 0.08039721 -0.004838749 -0.11266121 0.007542668
0.008697292 -0.045188487 -0.01065783 0.08968699 0.059461948 -0.00048093856 -0.079489045 0.006027609
0.003463792 -0.046976138 -0.0058313515 0.047217645 0.08150758 -0.007790793 -0.117166325 0.012249422
0.009069379 -0.048267096 -0.010836683 0.097317 0.057346344 -0.001028844 -0.08129901 0.009603571
0.0011608457 0.00026712762 0.0007206917 0.027304195 0.02433625 0.0013474849 0.007096827 0.0016696289
0.0022869841 0.023908427 0.0012194071 0.012395472 0.015705163 0.00049980707 0.015124353 0.0004898884
0.001284379 0.027520023 0.002330899 0.026422098 0.04009192 0.003471194 0.05221501 0.0028487653
0.0026427587 0.051591203 0.0038161129 0.03510399 0.015766125 0.0012602821 0.032404985 0.00081047317
-0.0034208952 -0.04676989 -0.0030176104 -0.045524918 -0.05781373 -0.0055174916 -0.056662306 -0.005645483
-0.0038137229 -0.058590177 -0.0036817915 -0.05822976 -0.04520092 -0.0048512374 -0.0416443 -0.0046060346
-0.0015176879 -0.01869229 -0.0018389769 -0.010300456 -0.027203165 -0.0024926856 -0.031800643 -0.0020483953
-0.0028523207 -0.046534896 -0.0046779313 -0.036142454 -0.017909635 -0.0018001414 -0.023183169 -0.001459017
-0.0011616184 -0.014968222 -0.0012930604 -0.009921021 -0.024433177 -0.0017268652 -0.026435269 -0.00120746
-0.0016188575 -0.028787097 -0.0026633274 -0.024135 -0.013888091 -0.0010118133 -0.017244851 -0.0008478063
-0.0010745358 -0.016476965 -0.001059939 -0.011159032 -0.025746936 -0.0028832713 -0.027365688 -0.0021133574
-0.0016349015 -0.03247845 -0.0026080455 -0.027171794 -0.014797918 -0.0018881469 -0.01863237 -0.0015172686
0.0013044172 0.091881424 0.0045703524 -0.008791544 0.07179876 0.01320239 0.033778526 -0.0043152003
0.006015504 0.060809087 -0.010144907 -0.124813244 0.00519488 -0.0029086194 -0.124939114 -0.007066655

0.bias f4 [16]
00000000: bc7f 00bd c2a9 2cbd 18fc 65bd 04a6 a13c
00000010: c1ad 8ebe 9980 a7bd 3145 82bd 0f96 6bbc
00000020: 40ef 39bd a02a 63bd a685 5abd f8ab 4dbd
00000030: 1ab6 48bd c9c6 04be 6b6b fe3d 60f1 5e3e
-0.031371817 -0.04215408 -0.05614862 0.019732483 -0.2786694 -0.08178825 -0.063608535 -0.0143790385
-0.045394182 -0.055460572 -0.053350113 -0.05021283 -0.04900179 -0.12966456 0.12422832 0.21771765

2.weight f4 [32, 16, 4, 4]
00000000: 7921 f53b 5a25 20ba 109a 6236 dd16 70bc
00000010: 280a b0ba 655d eaba 8200 4bbc bbf3 b6bc
00000020: fca3 0fbd 23ed 3dbc 2333 f3bb b639 b0bc
00000030: ffbb 95bc dbdf 58bc 5dd8 0fbc 04b1 b13a
00000040: 6d3d e9bc 162c 2dbc f0b9 373c 4e80 1a3c
00000050: ebf7 27bd 3a96 81bc 08c0 95ba 76d3 1f3c
00000060: 862e cfbc f350 61bc a5ba 92bc 071a 82bb
00000070: 55da b6bb 17f3 80bc cc03 4dbc 6819 05bc
00000080: 3f9b d7bd 02df 5cbd 83ba 0f3d 84ad 833d
00000090: e786 0cbe e9fb 86bd 94fe 3a3d 5070 eb3d
000000a0: 1a8f 02be f6d1 50bd 639c 8c3d 3c48 ea3d
000000b0: 8ad3 b2bd 6930 45bd fa2f 7a3d fde5 a63d
000000c0: 92a8 903d ed39 443c 24db 57bc 547f 07bd
000000d0: 701b b43d 56f7 993b 667f b0bc 1025 e1bd
000000e0: 9ed7 db3c 8847 2a3c ea5f 12bd eb28 acbd
000000f0: da7e a6b7 b3d6 e43c bf61 bfbc 2fa4 c53b
00000100: 8cfc db3d dfcf e93d 1a0e 08be 1906 4dbe
00000110: 5d6d 523e 4f02 163e b97c af3d 4073 02bf
00000120: b43a 8a3e 3a1f 103e 335c 593d c296 a4be
00000130: 08e4 703d 728c 333e 25cf 04be 4170 31be
00000140: fd8e cabc 880c 0dbd c96e a1bc 7807 b2bc
00000150: 05d7 7abd a76b 72bd 77e6 bebc ff44 be3c
00000160: 4a2c 95bd 81f1 f038 8361 ba3d 921c c53d
00000170: ae48 16bc c31e 103d 745e e03d 3f15 9c3d
00000180: 8cee 2bbc f5db c2bc f3a1 d2bc 41bf afbc
00000190: a73e e5bc 38ff f63b 60ee ca3b 062d 61bc
000001a0: 31e4 c1bb ecf6 863d c81e a7bc e65d 8abd
000001b0: 52af 993c 9b51 443d ff0b 23bd 36c1 a9bd
000001c0: 2f36 873b 4edb 9cbb f4de edbc 6b72 42bd
000001d0: 23c1 133c e049 113b 4002 bebc 2d26 0dbd
000001e0: d9df 4e3c 736c 9c3b d124 10bc ee9b dfbb
000001f0: e83c eb3b 1bcc 63bb 648d aabb da0b b4b8
00000200: e9ed 5cbd c0a5 bbba 8004 843d e2b1 853d
00000210: 733e a6bd b5bd 0dbd bce9 873d 06a1 cd3d
00000220: 597b 82bd 89cf a8bd d167 c83b 00cf 943d
00000230: 6d6b f7bc cc29 4cbd 77d9 b33c df97 e33c
00000240: 6649 2cbd 1e41 23bd 8165 a2bc 82e1 83bc
00000250: 2d20 89bd f5f8 14bd e58d b7ba 2449 9a3a
00000260: 7e35 20bd 11ae 3abc 52ba 46bb 14ef 0e3b
00000270: 349e 83bc 0ff3 64bc 4055 e93b 9092 873a
00000280: 1a81 c6bd 6909 a7bd 39ae 3d3d acc9 db3d
00000290: 5540 c1bd e614 8cbd c684 a13d 361e 423e
000002a0: bfe7 8fbd a0ec 0ebd 92ad f43d 2986 493e
000002b0: b979 91bd c372 a0bd 4012 713d 620a f03d
000002c0: 939c e33b 2086 b53b c54f 3fbd b0f5 1ebd
000002d0: 2561 bf3d 0063 283d 0563 61bd 0678 eabd
000002e0: fd7e a83d ec26 323d 6d24 f9bc aa93 8abd
000002f0: 5981 8fbc 4895 ae3c a153 8bbc fe14 5339
00000300: 5be6 a2bd 7511 d6bc b8e4 cc3d f452 3e3d
00000310: c0d5 fabd d8dd 96bd 8111 e73d 1df2 4a3d
00000320: 65e4 bbbd a939 4bbd cc55 a33d 8cfd b23c
00000330: cbc8 55bd 666a 4fbc 6766 783d d3fe caba
00000340: d3a2 2d3d 0668 633d 53f7 c83c 6d75 253c
00000350: 4fc5 d03c d262 1f3d ab38 e83c a0a4 003d
00000360: b7c9 4fbd 2b8c 6fbd b9c4 0cbd 9537 19bc
00000370: 9440 dabc 4216 8cbd b357 8fbd 9e88 47bd
00000380: 4e01 e6b9 48ca cdbc e211 2fbb b6bd e7bc
00000390: e3f4 76bd cefd 55bd a2f4 803c b0b0 583c
000003a0: 084f 51bd d9ab 13bd 5e54 d83c 36c8 113d
000003b0: 63ca d73b 1271 abbc 5810 a93c a56b 06bb
000003c0: 3c09 97be a03b 7ebd 9d7b 3a3e 4d1b 963e
000003d0: dbc8 13bf 4ccc 3dbe 926a ee3d ea04 403f
000003e0: de7b 0fbf db02 82be 4882 143d 89aa 123f
000003f0: 49ca 9bbd bd3e 8dbe f1c5 5c3d cd31 473e
0.007480797 -0.00061090814 3.37663e-06 -0.0146538885 -0.0013430761 -0.0017880617 -0.012390258 -0.022333017
-0.035068497 -0.011592182 -0.0074218675 -0.021511894 -0.01827812 -0.013236965 -0.008779612 0.0013556783
-0.028471673 -0.010569593 0.011213765 0.009430004 -0.041007917 -0.015818704 -0.0011425028 0.009755006
-0.025290739 -0.01375221 -0.017911265 -0.003970388 -0.0055802264 -0.015740914 -0.012513112 -0.008123733
-0.10527658 -0.053923614 0.03508998 0.0642958 -0.13723336 -0.06591017 0.04565294 0.11496031
-0.12749901 -0.050981484 0.06865766 0.11439559 -0.08731754 -0.04814187 0.06108091 0.081493355
0.07063402 0.011976701 -0.013174806 -0.033080414 0.08794296 0.004698674 -0.021545123 -0.10993397
0.026836213 0.010393031 -0.035736002 -0.08406242 -1.9847812e-05 0.027934408 -0.023362039 0.006031535
0.10741529 0.114166014 -0.1328663 -0.20021857 0.20549531 0.14649318 0.08568711 -0.5095711
0.26997912 0.14074412 0.053066444 -0.3214627 0.058811218 0.17534044 -0.12969644 -0.17327978
-0.024726385 -0.03443578 -0.019706147 -0.021732077 -0.061240215 -0.059184697 -0.023303254 0.02322626
-0.07283838 0.000114890754 0.0910063 0.0962459 -0.009172602 0.035185587 0.109555155 0.0762124
-0.010493886 -0.023786524 -0.025711989 -0.021453502 -0.027983977 0.0075377487 0.0061929673 -0.013743645
-0.005917095 0.06590065 -0.02040042 -0.06756191 0.018760357 0.047929388 -0.039806362 -0.08288805
0.0041263322 -0.0047868853 -0.029036976 -0.0474724 0.009018215 0.0022169277 -0.023194432 -0.034460235
0.012626612 0.0047736703 -0.00879784 -0.006824008 0.0071788915 -0.0034759108 -0.0052048434 -8.5852764e-05
-0.053937826 -0.0014316365 0.06446171 0.06528069 -0.0811738 -0.034604747 0.06636378 0.100404784
-0.06371183 -0.08242709 0.0061158915 0.072660446 -0.030202592 -0.049844548 0.021954281 0.027782379
-0.042062186 -0.039857022 -0.019823791 -0.016098741 -0.0669559 -0.036370236 -0.001400408 0.0011771065
-0.039113514 -0.01139404 -0.0030323458 0.0021809982 -0.016066648 -0.013973965 0.0071207583 0.0010343362
-0.09692593 -0.08156092 0.04630873 0.10731825 -0.094360985 -0.068399236 0.07886653 0.18956837
-0.07026624 -0.034893632 0.119471684 0.19680084 -0.07103295 -0.07834389 0.058855295 0.1172073
0.0069461553 0.0055396706 -0.046706934 -0.038808525 0.09344701 0.04111004 -0.055026073 -0.11448674
0.08227346 0.04349415 -0.030412877 -0.06766446 -0.017517732 0.021311417 -0.01700765 0.00020130348
-0.07954093 -0.026131371 0.10004562 0.04646583 -0.12247801 -0.07366532 0.112826355 0.049547303
-0.09174422 -0.049615536 0.07975349 0.021849416 -0.052193444 -0.012659645 0.060644533 -0.001548732
0.04239161 0.055519126 0.024531996 0.010098797 0.02548471 0.0389126 0.028347334 0.031407
-0.05072948 -0.058483284 -0.034367297 -0.009351631 -0.026642121 -0.06840183 -0.06999149 -0.048714273
-0.0004386999 -0.02512087 -0.002671354 -0.028288703 -0.060292136 -0.052244 0.01574165 0.013225719
-0.05110076 -0.03605256 0.026407417 0.035591327 0.0065854057 -0.02092794 0.020637676 -0.0020510938
-0.29499233 -0.06206858 0.18211217 0.29317704 -0.57728356 -0.18534964 0.116414204 0.750075
-0.5604838 -0.25392804 0.03625706 0.57291466 -0.07606942 -0.27586928 0.05389971 0.19452591

2.bias f4 [32]
00000000: d439 113d b1af 4dbc 2064 db3e 40cd 5e3d
00000010: 185b 5b3f 0821 b9bd 66a1 c6bd 8757 c1bd
00000020: bdd2 c63e 1314 c83e 2975 a5bd 1916 fabd
00000030: 8480 debd 3418 efbd 093b 46bd 4a1b 4dbe
00000040: c8b8 a83e a22c f6bd d488 06be bb27 55bd
00000050: 05a8 d93e 30d0 a33d 5196 45be ea6c c1be
00000060: 5af3 8f3f 2f22 11be bb02 58be 4f84 ebbd
00000070: f136 44be 44e8 063f 01d4 053f 227d 89bd
0.03545554 -0.012554095 0.42849827 0.05439496 0.85685873 -0.09039503 -0.09698753 -0.09440523
0.38832656 0.39077815 -0.08078987 -0.12211246 -0.10864356 -0.11674538 -0.048396144 -0.20029941
0.32953477 -0.12020232 -0.13138133 -0.052039843 0.42511 0.07998693 -0.19295622 -0.37778407
1.124614 -0.14173196 -0.21094792 -0.11499845 -0.19161583 0.5269816 0.5227662 -0.0671332

5.weight f4 [100, 2048]
00000000: c95e cbbb d359 8dbc 9943 9e3c e615 0dbd
00000010: c062 923c 05bc f2bc 240a fe3b c18a a33c
00000020: 7bc5 453c e94a 93bc 5840 a63b 55ca 733c
00000030: 2d0f 52bc 9d37 fe3a d6ec 583c d677 5bbc
00000040: 2d58 97bb 50a1 2c3c 42d1 6e3c 9251 13bd
00000050: 4198 4db9 b790 22bd 322c d6bb 312e a63c
00000060: b393 243c 9730 4bbc 11e1 ce3c 9c54 8fbc
00000070: 0f75 dcbb ba80 2a3c 35d9 543c af9d 6c3c
00000080: c7a2 70bb 41c8 3f3c 324c 27bd 0a76 1fbc
00000090: 54ad 92bc b06c 92ba f0ae d2bc 4d81 7f3c
000000a0: 09b7 c3bc 1175 e83b d690 2bbd 2e8c a13b
000000b0: 15bd febc 6912 e0bb 48bd fdbc 0aac 41bc
000000c0: 6b0e 173c a3a3 7abc 2d41 0ebd ef00 82bb
000000d0: ef34 3c3d c44f 4b3c bafe 3e3c 1a2d 173d
000000e0: 16c6 90bc 689b 11bd 066f 723c 4795 e8bc
000000f0: 7e59 1a3c 05c9 85bb d7e1 a5bc f98c e9bc
00000100: 5355 633c b090 ffbc ceb0 563c 5e3c febc
00000110: 75cf 88bb 30ad b4bb 9cc4 513c 0065 8a3b
00000120: beaa 313c a9c9 a3bc 9b28 3cbd d26e 113b
00000130: ed0b 243c 4a40 88bc 50c0 8e3b 2667 333d
00000140: 7e7d c43c 7a0b fc3b 23bc 183d cf27 bb3c
00000150: a312 5bbd 81a4 4fbc 968a 103c fa86 1b3d
00000160: c94d c43b 09e9 aabb 39dc 8cbc 6159 843c
00000170: 513a eabc d9ac b5bc 7161 be3b 7af2 f13a
00000180: 6275 96bc e25e 483b e857 12bc ae87 f9bc
00000190: eb34 c6b9 8e1c 50bc 1efd 60bc a728 30bc
000001a0: 6908 dbbc bded 023d 4dcc 813b 941b 1cbc
000001b0: abf3 f43c 2d78 a33b 4bd5 00bd e6ac 023c
000001c0: 367e 3cbd 6f51 4ebc 001b 853b e6ce 66bb
000001d0: 2248 13bd 623a 97bc 4064 0c3d c1fd 803c
000001e0: fc5f abbc ac92 48ba 7391 bebc 9da9 e3bc
000001f0: 6675 893a c310 d2bc db38 a5bb f12d 163d
00000200: f8af 94bb 2834 c3bc 14ed ba3a 4565 42bc
00000210: ab69 bb3a 4cd8 e83b 31c3 bfbc 3183 c93b
00000220: 060d 5aba cbff 3fbd 6eeb 443b c1c4 753c
00000230: 2541 253c 17b5 393c a537 dfbc 1653 383b
00000240: b326 5fbd 028f 1bbb 0bf5 3cbc bbe3 1bbd
00000250: 8607 cfbc 569c 0abd 92e9 3cbd 6eae 7b3c
00000260: 568e 48bc dfd5 32bc 506e 0e3d e998 61bd
00000270: 5a13 80bb 0cbf 613c 87d0 c5bb a51a f8bc
00000280: 5a2b 58bd 17f9 28bc 5e4d 92bc 8fdf 21bc
00000290: 1d20 273c 0a62 afbc 9cf7 fabc 0add a33b
000002a0: e125 50bb 4ec5 efbb f9a8 80bc ddca 06bd
000002b0: 7f40 8b3c ff41 3ebc f651 d8bb eae6 11bc
000002c0: 52cc 793b 3a3c 79bb 2ba3 15bd b4cd b6bc
000002d0: 5e0b 89bc 1018 5d3c 9915 06bd 4706 053d
000002e0: fe8c 9cbc 11e1 243d facc 83bb b7e2 26bd
000002f0: 3e57 8fbc 7b8b 03bd 8caf 153d 45b2 0f3c
00000300: 34ed e3bc 1dfc edbc a57d 34bd 58b1 13bd
00000310: 35b2 433c 6742 8dba 2afe 8f3b 7925 a33c
00000320: 6524 5abc 0733 a13c 6d6e 5bbd d4f3 7e3c
00000330: ab11 90bc b3f2 1bbd 8116 daba 3132 cd3b
00000340: 0e42 5dbc 431a 0a3c e216 07bc 34b2 93bb
00000350: 0f8a 6d3a 6403 e3bc c8b7 fdbb 7d39 a5ba
00000360: 84e5 993b 7de0 093d 7984 133d 8a2e b2bb
00000370: e5eb d43c 6816 d7bc 149a 9c3b 9b2e b6bb
00000380: 09d8 d63c a7be 16bd fae0 913c ca4b 86b9
00000390: a388 d2ba 0827 dfba e558 94bb 6c74 cf3a
000003a0: 12d6 c53c bed8 77bc 5b16 c63c 85fa 7abc
000003b0: f4a6 0dbc f9b9 8c3b 9a17 9cbc d138 30bd
000003c0: 86b4 3dbd b4c5 f33c 7c87 40ba 145c c33b
000003d0: 152f 973c 982a 9b3c 6d91 49bc 0565 b9bc
000003e0: 9c2d c33b 96fe d9bc 765c 133d 6477 3abd
000003f0: 386f 6bbc 6a05 053d 1780 0ebd 1c03 24bd
-0.0062063676 -0.017254746 0.019319342 -0.034444712 0.017869353 -0.02963067 0.0077526737 0.019963624
0.012071009 -0.017980056 0.0050735883 0.014879783 -0.012821001 0.0019395236 0.01324006 -0.01339527
-0.0046186657 0.010536507 0.014576258 -0.035966463 -0.00019607042 -0.039688792 -0.00653603 0.020285698
0.01004498 -0.012401721 0.025253804 -0.0174964 -0.0067278217 0.010406667 0.012991239 0.014441892
-0.0036718117 0.011705459 -0.04084415 -0.009732733 -0.017904915 -0.0011171307 -0.025718182 0.015594793
-0.023890989 0.0070940335 -0.041886173 0.004930041 -0.03109602 -0.006838132 -0.030974045 -0.011820802
0.009219746 -0.015297803 -0.034730125 -0.0039673964 0.04594892 0.012409154 0.011657411 0.036908247
-0.01767258 -0.035548598 0.014796978 -0.028391493 0.009420751 -0.0040828013 -0.02024929 -0.028509604
0.013875323 -0.031196922 0.013103677 -0.031034645 -0.0041751214 -0.0055138096 0.012803223 0.004223466
0.010843931 -0.01999362 -0.045937162 0.0022191298 0.010012609 -0.016632218 0.0043564215 0.043799542
0.02398562 0.007691798 0.037288796 0.02284613 -0.05348457 -0.012673498 0.008822104 0.03797052
0.005990718 -0.0052157682 -0.017194854 0.0161559 -0.02859226 -0.022177147 0.0058099558 0.0018459104
-0.01836652 0.0030574133 -0.008932091 -0.030460205 -0.0003780493 -0.0127021205 -0.013732223 -0.01075188
-0.026737409 0.031965006 0.003961122 -0.0095280595 0.029901346 0.0049886913 -0.031453412 0.0079757925
-0.0460188 -0.0125926575 0.0040620565 -0.0035218536 -0.035957463 -0.018460456 0.034275293 0.015746
-0.020919792 -0.00076512503 -0.023262715 -0.027790839 0.0010487258 -0.025642758 -0.005042178 0.036664907
-0.0045375787 -0.023828581 0.0014261329 -0.011864965 0.0014298459 0.0071058627 -0.023408504 0.0061496724
-0.00083179807 -0.046874803 0.0030047554 0.015000523 0.010086332 0.011334679 -0.027248213 0.0028125695
-0.054480266 -0.0023736362 -0.011533032 -0.038058978 -0.025272142 -0.0338405 -0.046121188 0.0153614115
-0.012240967 -0.010915249 0.03477317 -0.055077467 -0.003908557 0.013778459 -0.0060368213 -0.030286143
-0.05277572 -0.010313294 -0.017859157 -0.009879961 0.0102005275 -0.021409053 -0.030635647 0.005000715
-0.003176086 -0.0073172217 -0.015705572 -0.03290831 0.016998528 -0.011612414 -0.0066015674 -0.008905152
0.003811617 -0.0038030283 -0.036532562 -0.022314884 -0.016729053 0.0134945065 -0.03273544 0.03247669
-0.019110199 0.040253703 -0.004022238 -0.040743556 -0.017497655 -0.03211544 0.036544368 0.00877053
-0.027823068 -0.029050881 -0.044065136 -0.0360578 0.011944343 -0.0010777236 0.0043943124 0.01991533
-0.013314341 0.019677652 -0.053572107 0.015561063 -0.01758655 -0.038073253 -0.0016638787 0.006262087
-0.013504518 0.008429113 -0.008245202 -0.0045073275 0.0009061405 -0.027711578 -0.0077428557 -0.0012605634
0.00469655 0.033661354 0.036015008 -0.005437677 0.02599139 -0.026255801 0.0047791097 -0.005559755
0.02622606 -0.036802914 0.017807472 -0.0002561494 -0.001606245 -0.0017025182 -0.0045271986 0.0015827543
0.024149928 -0.015127359 0.024180582 -0.015318518 -0.008645762 0.0042946306 -0.019054223 -0.043022934
-0.04631474 0.029757358 -0.00073444075 0.0059619043 0.018455068 0.018941209 -0.012302739 -0.022631178
0.005956365 -0.026610654 0.03597685 -0.045524016 -0.014369778 0.032475866 -0.034790125 -0.040042028

5.bias f4 [100]
00000000: c183 d4bc 67e3 5840 a269 aebc 38c3 bcc0
00000010: 6311 8dbc d879 7dbd 29c9 0d40 eda1 a33e
00000020: c857 dfbc a6ce d7bc dce8 a6bc d9ea eebe
00000030: 19c7 523f b549 27bd d619 28bd 7ce9 8bbc
00000040: 5612 fdbf 3c53 1abd b93a ccbc bf39 30bc
00000050: f776 603f fd10 5fbf 868c c040 c0ab c7bc
00000060: 7255 6f3f c278 bcbc 92d9 f63f a953 83bd
00000070: 6548 c5be 4c92 0ec0 fd62 d9bc bf22 733f
00000080: 71b8 dd3f e36f c63f 554e c4bc 43a9 2d40
00000090: a1d4 7d3e 31dc 94bf 6663 953c 29ba 97bf
000000a0: 2f21 5640 cfe5 c93f 3414 5f40 1052 5dbd
000000b0: e231 dbbc 234f cdbe e4c6 4d40 e263 3040
000000c0: 6841 5fbc 8ffa fabc dec5 9040 031e bbbc
000000d0: f895 5dbc 2569 dc40 ef83 8740 9daa bbbc
000000e0: 550b 4540 30e2 a140 e419 6940 6006 0e41
000000f0: cddb 173e cfda 0940 4ca8 6abf c547 5c3f
00000100: 822d 93bc 4cd5 de3f 6ae9 d8bc 024c cabc
00000110: f5fe d63e 1d11 bcbc 78fe cabc e90b bcbc
00000120: ee85 c4bc 73fc 28bd fe30 c1bc 5691 5abd
00000130: d56d acbc 9c60 1440 760a 5abe 2e3c 38bc
00000140: 4282 acbc b281 c940 8dba 7440 67b9 09bd
00000150: e2ec ebbc dfdc 64bd ce61 f73f 5f19 bdbc
00000160: d1b7 3440 231e c2bc 732f cf3f 0465 cfbc
00000170: d0e7 dcbc a8fd c0be b81f bebc fadc 9dbc
00000180: 1144 913e b2cb 893f 2595 cdbc 4fe5 bdbc
-0.025941731 3.3888795 -0.021290604 -5.8988304 -0.017220205 -0.061883777 2.2154028 0.31959477
-0.027263537 -0.026343655 -0.020374708 -0.4666355 0.8233505 -0.040841777 -0.041040264 -0.017079107
-1.9771221 -0.037677035 -0.024930345 -0.010755955 0.87681526 -0.871353 6.0171537 -0.024373889
0.93489754 -0.0230068 1.9285147 -0.06412441 -0.38531795 -2.2276793 -0.02653646 0.94974893
1.7321912 1.5502895 -0.023963133 2.713456 0.24788143 -1.1629697 0.018235873 -1.1853687
3.3457754 1.5773257 3.485608 -0.05403334 -0.026757184 -0.4009944 3.2152643 2.7560964
-0.013626434 -0.030637054 4.5241537 -0.02284146 -0.013524525 6.887835 4.234855 -0.022908503
3.0788167 5.058861 3.6422052 8.876556 0.14829941 2.15398 -0.9166305 0.8604701
-0.017966036 1.7408843 -0.026478488 -0.024694446 0.41991392 -0.022957379 -0.024779543 -0.022954898
-0.023989644 -0.04125638 -0.023582932 -0.05336126 -0.021048466 2.3183966 -0.21293053 -0.011244817
-0.021058206 6.297082 3.8238862 -0.03362408 -0.028799478 -0.0558747 1.9326723 -0.023083387
2.8237193 -0.023696011 1.6186355 -0.025316723 -0.026966006 -0.37693524 -0.023208484 -0.019270409
0.28372243 1.0765288 -0.025095532 -0.023180632

7.weight f4 [10, 100]
00000000: f921 f8b8 a587 e1be 36f3 16bd 4031 a3be
00000010: d84b 19be f079 b2be 784a 9ebe 367a e9bc
00000020: b0c5 b1bd 56c9 f3bd fdca 36be c5e8 e2be
00000030: 3b94 1fbd 1b18 94bd a1ad 95bd 51dd a6bd
00000040: 4aba ecbd b351 03be 56cc ff3c 6a11 623c
00000050: 8492 0abe 359e 13bf bc42 c1bd d0ae 54be
00000060: 5c8d c3bd ed41 94bd 55c2 26be fca3 513d
00000070: aee9 07be ebc8 aabe d51c ec3c 661f 25bf
00000080: b458 99be 2ccd 19bd c52e af3d 7d3c 4cbe
00000090: eeb4 d6be 4279 68bd 74fe 3dbe 29ec 62bd
000000a0: ceae 2dbe aaed 5b3d 5170 26be 1075 9a3c
000000b0: e824 cd3d 9e68 8dbe 833c e9bd 5cc8 15be
000000c0: 11ea 063e 2928 6dbd 38e6 21be 2a84 503c
000000d0: a25b c53d 8651 e6bd f54d bfbe f9db 0dbd
000000e0: 6962 68be 62f6 31be 1cc1 00be b846 03be
000000f0: 1144 8dbe ae6c 7abe d9ad b8bd a22b 12bb
00000100: 6eb9 5f3d c796 5bbe f24f 2cbe f171 0dbe
00000110: 370f 88be cd84 e73d 28eb c83c a428 c8bc
00000120: bec6 a7bd 57a6 b63c d197 1bbe df3c 0d3e
00000130: 6ca3 263d d56a 95be fd87 4ebd 4874 98bd
00000140: 3330 83bd 9dfe dbbd adb2 f8bc 3e91 dabd
00000150: 529c 003c 3e4a cabd 2970 d9bd 7ac4 02be
00000160: f1bb 94be d05b 823d ea4e 02be ac53 313d
00000170: 248d 72bd 6a64 ecbe a486 36b9 43e3 43be
00000180: bdda cdbd dcf9 08bf d6a1 1ebd ef90 4ebe
00000190: b9fb 383c 9413 e2be 075e 8cbd 5586 f1be
000001a0: 64c0 ba3d 8b0d 5fbe b2e0 d8be 9787 26bd
000001b0: be28 6a3d d473 f7bd 47d6 44bd 0fa4 ecbe
000001c0: 5991 28be afac b3bd 5eee ad3d b0e0 263e
000001d0: 881a 03be abd9 c1bd b5e2 36bc 17d0 603e
000001e0: db16 04be 9c0d f4be d63f efbd f0b8 b43d
000001f0: 4e19 d2bd f96c 63bd 9060 4bbe 1c46 d5bc
00000200: 8f30 3fbe 3ad2 cdbe a87d dc3b eeb2 1dbf
00000210: 6bc6 56be 7cd4 f5bd 83df 18bd 47ff 69be
00000220: 309e d7be cbd3 f2bd 3abf 80bd bc84 a8bd
00000230: e887 53be 13fd 7cbd c5e0 0cbe c1a6 4dbd
00000240: e9aa ea3d a570 b3be 054b a9bd ce4a 72bd
00000250: cf99 ca3d 03e9 3ebd fde7 2fbe 81a9 9ebc
00000260: eca7 1a3e 2e35 a63c f81f dfbe 4720 6c3c
00000270: 9a33 64be b180 3fbe 3017 01be 1e5d 31be
00000280: 0748 1abe 45b8 8ebe 2e76 d8bd d628 3cbc
00000290: 6517 453e f033 63be 83f4 e8bc 92d9 273c
000002a0: e77c 80be 7da5 77bd 6198 02bd affd c6bd
000002b0: 174b 37be fc39 d3bc c08a f5bd 43e4 91bd
000002c0: 659e cfbc 3745 4dbe e2d1 c5bd 65ef febd
000002d0: 29fb 033d d476 02be f727 4a3c d385 37bc
000002e0: c040 4dbc b185 9dbd 3573 933c 6a5b 1abe
000002f0: 0282 9ebe b21c c7bc 59a5 03be ba12 253d
00000300: 4079 05be 491f dbbe 558c 473c ee80 393d
00000310: dc8b 623b 2bc3 d4be 92e5 db3c 79bb ecbd
00000320: 04ab b5bd 86ba dabe 0eef c4bd 6b52 d7be
00000330: 297d fbbd 7c0e b3be 8086 c4be 820d 57bd
00000340: ced5 e3bd 145d a3bb 9e0f 8dbd 4f16 c6be
00000350: 2274 fdbd c102 70bd f0fe d0bc c826 16bd
00000360: b5df 963c 3266 dabd ae12 303d 9c4d 20bd
00000370: e3bb 07be 6981 1bbf 08a6 d53b 92f3 533c
00000380: d702 94bd bc60 fd3d 3092 24be 4752 573d
00000390: efed d6bd d119 cdbe f685 21bc d38b 24bf
000003a0: fa62 92be f74f 54bc b240 69be 1e2f 46be
000003b0: 5a71 debe 0d2e d0bd adb5 54be 9ec6 493d
000003c0: 6ddd f4bd 0818 51bd dd43 19be cb8e 53bd
000003d0: 0dbc 403d 1934 7cbe 225e cebd cf86 39be
000003e0: c22f 823d 3d83 373d a855 28be 28da 84bd
000003f0: e5aa 8abb b4f6 41bc ae62 b9be 0872 babd
-0.000118318894 -0.440488 -0.036853038 -0.31873512 -0.14970338 -0.34858656 -0.3091619 -0.028500658
-0.08680284 -0.11903636 -0.17850871 -0.44318214 -0.038959723 -0.0723116 -0.07308508 -0.081476815
-0.11558969 -0.12824135 0.031225365 0.013798097 -0.13532454 -0.5766328 -0.09436557 -0.2076981
-0.095484465 -0.07239137 -0.1628507 0.05118178 -0.13272735 -0.33356413 0.028822342 -0.64501035
-0.29950488 -0.037549183 0.085538425 -0.1994495 -0.41934913 -0.056756265 -0.18554097 -0.055401
-0.16961214 0.05369345 -0.16253783 0.018854648 0.10016805 -0.2761888 -0.11388495 -0.14627212
0.13175227 -0.057899628 -0.15810478 0.012726823 0.09636618 -0.11246018 -0.37364164 -0.03463361
-0.2269379 -0.17379144 -0.12573665 -0.12819946 -0.27590993 -0.2445552 -0.09017534 -0.002230384
0.0546202 -0.21444236 -0.16827372 -0.13812996 -0.26574108 0.113046266 0.024526194 -0.024433441
-0.08192204 0.022296114 -0.15194632 0.13792752 0.040683195 -0.2918307 -0.050422657 -0.07444054
-0.06405678 -0.10741923 -0.030358637 -0.10672234 0.00784977 -0.09877442 -0.10617096 -0.12770262
-0.29049638 0.06365168 -0.12725416 0.043292686 -0.059216633 -0.4617036 -0.0001740703 -0.19129662
-0.10051487 -0.53506255 -0.038728558 -0.20172475 0.011290484 -0.44155562 -0.06853872 -0.471728
0.09118727 -0.2178251 -0.4235893 -0.040656652 0.05716776 -0.12082639 -0.048055913 -0.46218917
-0.16461696 -0.08773171 0.084927306 0.16296649 -0.1280309 -0.09465345 -0.01116245 0.2195438
-0.12899344 -0.47666633 -0.116820976 0.088243365 -0.10258733 -0.055523846 -0.19861054 -0.026034407
-0.18670867 -0.40199453 0.0067288466 -0.6160115 -0.20974128 -0.12003419 -0.037322532 -0.22851287
-0.42112875 -0.118568026 -0.062864736 -0.08228442 -0.20657313 -0.061764788 -0.13757618 -0.050207857
0.1145838 -0.35046878 -0.08266262 -0.05915337 0.09892618 -0.046608936 -0.1717834 -0.019367935
0.1510312 0.02028903 -0.43579078 0.014411992 -0.2228531 -0.18701436 -0.12606502 -0.17320678
-0.15066539 -0.27874961 -0.10569416 -0.011484345 0.19247206 -0.22187781 -0.028436905 0.010244744
-0.25095293 -0.060460556 -0.0318836 -0.09716355 -0.17899738 -0.025784485 -0.11989355 -0.071236156
-0.025344083 -0.20045935 -0.096591726 -0.12448005 0.032221947 -0.12740642 0.01233863 -0.01120134
-0.012527645 -0.07691515 0.01799927 -0.15073934 -0.30958563 -0.024305675 -0.12856044 0.040301062
-0.13034534 -0.42797306 0.012179454 0.045288973 0.0034568226 -0.4155515 0.026842866 -0.11559195
-0.08870509 -0.4272043 -0.096159086 -0.42055067 -0.12279732 -0.34971988 -0.38383865 -0.052503116
-0.111247644 -0.004985461 -0.06887744 -0.38688895 -0.12375666 -0.058596376 -0.025512189 -0.03665808
0.018417219 -0.106640235 0.042986564 -0.039136514 -0.13255267 -0.6074434 0.0065200366 0.01293649
-0.07227104 0.12371966 -0.16071391 0.0525687 -0.10494601 -0.4005876 -0.009858599 -0.64275855
-0.28591138 -0.012958518 -0.22778586 -0.19353911 -0.43445855 -0.101650335 -0.20772429 0.04926168
-0.11956296 -0.05104831 -0.14967294 -0.05164985 0.04705434 -0.24629249 -0.10076548 -0.18117832
0.06356765 0.044802893 -0.16438925 -0.064869225 -0.004231798 -0.011838604 -0.362081 -0.09103781

7.bias f4 [10]
00000000: adbc 813e 1ef9 4bbe 7c21 23bf b6ae 193e
00000010: c049 033f 1d41 ecbd 8868 643e 953c 993c
00000020: 416d 00bf 5774 013f
0.2533926 -0.1991925 -0.6372297 0.15008053 0.5128441 -0.11535857 0.223055 0.018705646
-0.5016671 0.50568146
