complete_verifier/models/sdp/cifar_cnn_a_adv4.model (torch, 862519 bytes, 8 tensors)

0.weight f4 [16, 3, 4, 4]
00000000: 2259 0f3e d3e9 cd3c 3319 2e3e 98f8 3b3c
00000010: 8639 4838 aede 77b9 7a71 85b8 0ccf 60ba
00000020: bfab fcbd ee6f d0bc 7c1f 4bbe f7e3 5ebc
00000030: 6af7 ecb8 da50 37bb 03f3 2db9 dc44 0abb
00000040: 8054 543d 21a5 063c 0d10 803d f04e 783b
00000050: e3fe f538 7835 9b3b 1d8f 84b7 a141 4bba
00000060: f7b7 18bd 6b1d e3bb 282e 7abd 91e6 62bb
00000070: d437 8fb8 b274 10bc b9f4 16b9 eff0 20bc
00000080: 7321 f73c 87c9 9f3a 44db 273d efba 293a
00000090: 2f3b 2339 413d 38bb a48f 3eba 65a4 6c38
000000a0: 890f cbbc 9ba3 84ba 78d7 0dbd 84e4 feb9
000000b0: 4e25 8238 64c0 3c3c 8586 b039 43ca 32bc
000000c0: 3849 2bba 2ecf 0037 f52d 983c c04e 413b
000000d0: 4a0c c0b9 4d47 0fbc 6b44 21ba a1c5 aabb
000000e0: ec39 5a3a 378e ebba 2a07 94bc 63f2 30bb
000000f0: d896 6a39 320a d73b 1531 0e3a 090e 513b
00000100: 1451 bebb f7f5 58ba 08da e936 e29f 203a
00000110: b197 fcb9 8023 92bd f80f 6aba 1276 26bd
00000120: 501d 103c f14c b939 c446 9dbb 23d2 36ba
00000130: 35b7 163a de63 923d eac6 873a 415c 0c3d
00000140: 7560 10bc 438b 95b9 6e04 25bc 09be 7d38
00000150: 609f ebbb 9f04 31be 9bab 67bc 06e8 c9bd
00000160: e25a 213c c0b7 0739 e671 13bc 38eb bcb8
00000170: 49c8 233c 742f 533e 9320 7f3c f733 cd3d
00000180: fe38 11be 12ef 91bc dc35 cbbc 234a f63a
00000190: c4bc 3bba 1626 fcbb 09d7 8239 4681 ab3b
000001a0: ba92 34bd 7d9e 6e3b c891 3e3e 343a 953c
000001b0: 4bd2 ff38 0c25 6c3b a83b e539 ec1b 553b
000001c0: 8e47 47bd d621 bdbb bad2 32bc cc60 053a
000001d0: 5bc6 82ba 5644 6bbd ace1 9639 d3f5 0a3d
000001e0: ff5f b7bc 4b49 293a 92e4 843d 794a bb3b
000001f0: 24b7 e837 96a6 a73c ee03 093a 8d06 c53c
00000200: 56a6 07bd cc0a 89ba 22b2 4bbc ba22 54b8
00000210: 5356 45bc 18d5 f0bd 2384 533b 5f41 6b3d
00000220: 7e94 a1bc 1a07 0038 fbe6 4a3d ede9 843a
00000230: c6d9 54b9 8cfb 173d ce4e d33b 28ae 553d
00000240: fa06 b03d 4643 863b 0b04 a0bd 180a 13bb
00000250: 1eef 603a de87 553b ad27 3cba 16bc a8bb
00000260: 60f9 6b3e 4a10 ff3b 1dd5 51be da77 82bc
00000270: 1fd7 013a 797c b83a ad4f a9b9 4641 0ebb
00000280: afa9 013d 885d 9e3a 2871 0fbd b612 90ba
00000290: 7575 923a 76bc cd3c 84da 8eba 9866 2abd
000002a0: 4f15 ac3d 3ebe 2d3b c78f a7bd 712f b9bb
000002b0: 6554 1d3a f3b0 443c c43c 0aba 4f75 8bbc
000002c0: 683b cd3c 69d2 b039 91d9 a9bc fbf2 8ab7
000002d0: 4f94 743c d006 803d dd2c 51bc de93 96bd
000002e0: 08cc 843d ca1f 053a 8741 7cbd 3490 8dba
000002f0: 3681 043c 5a54 f33c 245d cabb 7df4 00bd
00000300: b189 55bd 6d04 203c 8357 533d cb48 3dbc
00000310: b183 fbb9 1420 053c a44c 233a 55f3 e0bb
00000320: 6e28 25be 96ad a43c 4827 243e 1747 b8bc
00000330: 57f6 beb9 bb72 a63b 4f09 f439 124a 90bb
00000340: 2488 9abc 30f0 673b cd80 a33c e51e acbb
00000350: 3df8 34ba 565e 8d3d 4ede 533a bc5c 86bd
00000360: 60d2 66bd d111 f53b cc19 803d 93fb 0ebc
00000370: e08b 03ba c0cf 303d 8ec8 073a a7ac 24bd
00000380: 3ea8 2fbc 699c 2d3a 2284 4d3c 802b 81ba
00000390: f095 14bc f793 103e 8297 243c 3763 1abe
000003a0: fce2 32bd f13c ad3a f799 373d 46ef ebba
000003b0: 85da cdbb 2ea6 bc3d cd2c c23b c893 bebd
000003c0: 7fdc 7d3c fd20 c1ba 39d6 f2bc ca07 613b
000003d0: 0f25 a2b8 d334 db3a 1578 9438 d1dc b03a
000003e0: 1578 a7bc 9f39 b93b 691f 5b3d a37e 5bba
000003f0: e4b2 d737 e631 ea3a a89f 8c37 636f 523a
0.13998845 0.02513591 0.170018 0.011472844 4.773729e-05 -0.0002363871 -6.363071e-05 -0.0008575774
-0.123374455 -0.025443997 -0.19836229 -0.013604156 -0.000112994414 -0.0027971775 -0.00016589095 -0.0021098172
0.051838398 0.008218081 0.062530614 0.0037888847 0.00011729987 0.0047365986 -1.5802269e-05 -0.0007753615
-0.037284818 -0.006930997 -0.061079174 -0.0034622292 -6.82917e-05 -0.008816885 -0.00014396281 -0.009823068
0.030167317 0.0012190797 0.040980592 0.00064746937 0.00015566939 -0.0028112682 -0.0007269329 5.641989e-05
-0.024787681 -0.0010119559 -0.034629315 -0.00048616913 6.2058316e-05 0.011520479 0.0003366956 -0.010912481
-0.0006534043 7.677632e-06 0.018576602 0.0029496402 -0.0003663025 -0.008745027 -0.00061518577 -0.0052115475
0.0008324671 -0.001797146 -0.018069822 -0.0026999942 0.00022372173 0.0065624947 0.0005424184 0.0031899235
-0.005808005 -0.0008276398 6.9693233e-06 0.000612734 -0.00048178204 -0.07135677 -0.0008928771 -0.040639944
0.008796051 0.00035343276 -0.0047996957 -0.0006974062 0.0005749346 0.071479544 0.0010358964 0.034267668
-0.00881206 -0.00028523253 -0.010071857 6.0496885e-05 -0.00719063 -0.17286919 -0.014140035 -0.09858708
0.009848328 0.00012943055 -0.0089993235 -9.0083515e-05 0.009996482 0.2062357 0.015571731 0.10019677
-0.14181897 -0.017814193 -0.024805956 0.0018790405 -0.0007161612 -0.00769497 0.00024955746 0.0052339165
-0.04408524 0.0036410384 0.18610299 0.01821623 0.00012198518 0.0036032824 0.0004372273 0.0032517863
-0.048652224 -0.005771856 -0.010914499 0.0005087971 -0.0009977327 -0.057438217 0.00028778368 0.033925842
-0.022384642 0.000645776 0.06488909 0.005715665 2.7741837e-05 0.020465177 0.0005226721 0.024050975
-0.033117615 -0.0010455488 -0.012432607 -5.057708e-05 -0.012044507 -0.117593944 0.0032274805 0.05743539
-0.019724127 3.0524192e-05 0.049536686 0.0010140516 -0.00020299022 0.03710513 0.0064486032 0.05216804
0.08595081 0.004097375 -0.07813271 -0.0022436436 0.0008580553 0.0032582204 -0.0007177543 -0.0051493747
0.23044348 0.007783924 -0.20491453 -0.01592629 0.0004953015 0.0014075182 -0.00032293555 -0.0021706386
0.031655964 0.0012082318 -0.035020024 -0.0010991904 0.0011173921 0.02511428 -0.0010898863 -0.041601747
0.08402502 0.0026511098 -0.0818172 -0.0056514074 0.00060016505 0.012005079 -0.0005273337 -0.01702371
0.025052741 0.00033726104 -0.020733627 -1.6564029e-05 0.014927938 0.062512994 -0.012767044 -0.07352422
0.064842284 0.00050782843 -0.06158593 -0.0010800422 0.008087447 0.029703308 -0.006175654 -0.031483162
-0.052133266 0.00976668 0.05159713 -0.011553 -0.00047972568 0.008125324 0.0006229377 -0.006864945
-0.16128704 0.020102303 0.1603061 -0.022494836 -0.00036423162 0.005079595 0.00046546242 -0.004403361
-0.018863745 0.0035390966 0.019958878 -0.0052527064 -0.00069034455 0.06902759 0.0008082137 -0.065606564
-0.056352973 0.0074789305 0.0625492 -0.008726972 -0.00050180964 0.043166876 0.0005179726 -0.040203717
-0.010721264 0.0006622733 0.01254371 -0.0009854883 -0.009068951 0.14118944 0.010045888 -0.1507691
-0.0436735 0.0013217014 0.044824567 -0.0018000386 -0.006282153 0.09211384 0.005925751 -0.09305531
0.015494465 -0.0014734563 -0.029643165 0.0034336918 -7.731665e-05 0.0016724117 7.079557e-05 0.0013493543
-0.020443002 0.005652621 0.053496752 -0.00083730574 2.57133e-05 0.0017867654 1.6763646e-05 0.0008027462

0.bias f4 [16]
00000000: 035a 7cbe 7dc2 74bd 275a 26bd bfcd 81bd
00000010: fa25 40bd 3d85 fe3c bf29 cebe c7d6 f33b
00000020: 0f59 95bd 18d8 aebd f021 d7bd 3070 a13e
00000030: a169 253e c073 fe3c 0ac8 87bd f552 c0bd
-0.24643712 -0.05975579 -0.04061332 -0.06338071 -0.046911217 0.031069392 -0.40266225 0.007441375
-0.07292377 -0.0853731 -0.1050452 0.31530905 0.16153575 0.031061053 -0.06629951 -0.09390823

2.weight f4 [32, 16, 4, 4]
00000000: 6ced d3bd 6bb7 e2bb fb7b 7a3d 2db0 693d
00000010: 4639 60bd 3065 2ebc db65 163d 8465 a53c
00000020: 0ee9 093c e7dc 51bd 0b6a 48bd 7565 9dbd
00000030: 3e8e 813c 4cd1 fbbc 5b83 0dbd 7c60 e2bc
00000040: 4b67 bfbb 6615 f3bc 5557 1abd f48d 71bd
00000050: 3f22 3c3d 1842 8bba ed3f 7839 15a5 07bd
00000060: 6705 34bb dd27 0b3d 234d 773d 08b2 2f3d
00000070: 29ab 57bd 54c6 b33c 4522 4e3d 14e1 7b3d
00000080: d152 773d 35b6 d83d f65e 263d 1cc0 55bd
00000090: 4364 8d3d 8603 2c3d db7c a5bb a3e2 92bd
000000a0: 8075 88b8 7994 74bd 9f3d b0bd 5c4b 92bd
000000b0: 8e14 0cbd 0361 40bd 46f1 a4bd 9ecb 6cbd
000000c0: 35ad d93d 1c87 653d b414 5dbc 80ac 4abd
000000d0: 3c2a 313e 8731 ab3d 01a5 133c a1fc 8cbd
000000e0: 92ce 153e e9f4 b53d 4945 eb3c aa59 87bd
000000f0: e328 8e3d 39d9 383d ecc2 3abc 1bd9 89bd
00000100: 8b20 4a3d 2ec9 8f3c 9571 9ebd ddb8 2cbd
00000110: bfed 9c3d e3e2 403d 6f55 e6bd a106 62bd
00000120: 26bb 9b3d d2e4 353d 1a64 dfbd ef12 89bd
00000130: 82f4 583d 8969 953c 1c3e aabd 3239 84bd
00000140: bd06 56bd 29b2 66bc a683 d339 b8bb d33c
00000150: 0a0c 9bbd 53fd 11bc 79d5 943b aa57 ef3c
00000160: a94c 60bd 561e b4bb c7ed d93a 378c a73c
00000170: 8a85 55bc f3de 743b 5fff 993b 9c9c c33c
00000180: 7c7b 52be 6a55 033c 381e a83d 895f 7f3d
00000190: c7d1 b4be 2e3e 8f3d ebb3 c43c 6208 ea3d
000001a0: 1ece 72be 1c3b 463d 9cef c23d 11a5 243e
000001b0: 32db 0bbe 9ebf 7b3b 6a11 e73d 5e94 523d
000001c0: b26d 17bc dfa8 21bc a7ba e6bc e152 cdbc
000001d0: aa7a 6bbc 0497 09bc fd02 19bd dcd1 3cbd
000001e0: c998 053a d8a2 9838 df21 a0ba b4e4 cbbc
000001f0: c407 7dba 0fad 28bb 4d35 92b9 a8c6 e5bb
00000200: 1969 56bd 219d 5bbd 333b 81bd 0086 e8bc
00000210: 6b1e 5ebc 99c0 34bd a197 73bd fa69 8ebd
00000220: 2c31 873d 1c02 9c3d 90d2 7f3b ff9f acbd
00000230: 01c9 7d3d 623d fa3d dd59 1f3d 5066 94bc
00000240: 272f 2d3c 4c19 9f3c 21d3 0a3d 9d82 093d
00000250: a4f1 3c3d 82b8 ff3c daae b73c bf6c 883c
00000260: 67e1 ca3c b2fd e1bc db3e 8bbd da2b 5ebd
00000270: 7922 06bd 7053 9fbd 5349 bfbd 65b9 36bd
00000280: 587e 903b 5fe9 20bd 30dc 50bd c684 03bd
00000290: 2da2 993d 107b 39bb c608 21bd 759c 86bd
000002a0: 2d9c 1c3c 525c fe3c 47fe 383d aab8 9dbc
000002b0: 1bdd cbbd bcc6 083b dfd3 423d 0947 ab3c
000002c0: 2eb9 173e b9a6 523d 1de1 3abd ade9 19be
000002d0: bd35 233f a71a d13c b340 d3bd 60a4 56be
000002e0: f135 ef3e 676d 14be 72db 86be 46ee b3be
000002f0: 3297 9a3e e314 8cbd 3a0e 1abe b656 20bd
00000300: 41ca 813d 7447 07bc faad 72bd ab70 0cbd
00000310: 75e8 4f3e 2bd3 11bc 1a67 fabd d5b6 0cbe
00000320: 1265 3e3e 883c 98bb 7f96 ccbd bd48 03be
00000330: 2099 b03d 385a 633c 6c0a 11bd d9f9 d0bb
00000340: 5dc5 9bbc ec6f ce3d 57ab 403d c029 79ba
00000350: c906 b0bd d8b6 ef3d ff69 443d b540 02bb
00000360: 04dd d6bd b552 293d 116d fbbb 9f7c edbc
00000370: 1fb0 84bd f2a7 54bc b8e9 a73b c86c a3bc
00000380: a92c 6d3d 8964 953c 8f4a 7ebd 867d 8dbd
00000390: fd92 b33d cb49 35bc 6e00 a5bd db76 bbbd
000003a0: 6462 c53d 346f 84bb a85e 8abd 8f1f a6bd
000003b0: a371 9c3d 8018 dd3c d583 82bd 51cd 60bd
000003c0: 9753 b3bc 2089 5cbd 2355 ddbc f96a 6d3b
000003d0: 0a19 e7bd cd61 24bd d6c3 063d 0c44 d83d
000003e0: 4e78 ddbd 0214 60bc 8b69 6b3d dccf fd3d
000003f0: b795 27bd 0482 8dbb 1b53 123d daa5 b13c
-0.10348019 -0.006918838 0.061153393 0.05705278 -0.05474212 -0.010644242 0.03671823 0.020190008
0.008417381 -0.05123606 -0.048929255 -0.07685367 0.015814897 -0.030739449 -0.0345491 -0.027633898
-0.005841171 -0.02967329 -0.037680943 -0.058973268 0.045931097 -0.0010624556 0.00023674937 -0.03311642
-0.002746904 0.033973563 0.060376298 0.042894393 -0.052653465 0.021945156 0.05032565 0.061493948
0.060381714 0.10581628 0.040617906 -0.052185163 0.06903889 0.041995548 -0.0050502843 -0.07172134
-6.5068714e-05 -0.059711907 -0.08605503 -0.0714328 -0.03419929 -0.046967518 -0.08053832 -0.057811372
0.1062874 0.056037053 -0.013493706 -0.049480915 0.17301267 0.08359056 0.009011508 -0.06884123
0.14629582 0.088846035 0.028719561 -0.06608899 0.06941392 0.045129035 -0.011399012 -0.06730863
0.04934744 0.017551985 -0.07736508 -0.042168487 0.07662534 0.047091376 -0.11246764 -0.055182103
0.07604055 0.044407673 -0.10907765 -0.066930644 0.052967556 0.0182388 -0.08312628 -0.06456222
-0.05225252 -0.014080563 0.00040343142 0.025846347 -0.07570656 -0.008910495 0.0045420495 0.029216606
-0.05476061 -0.0054967804 0.0016626649 0.020452602 -0.0130323265 0.0037364333 0.004699632 0.023878388
-0.20554918 0.00801597 0.08208889 0.06234697 -0.35316297 0.06994282 0.024011573 0.1142738
-0.2371144 0.048396215 0.09518358 0.16078593 -0.13657835 0.0038413773 0.11282618 0.051411025
-0.009242462 -0.009866922 -0.028165175 -0.025063934 -0.014372507 -0.008397821 -0.037356365 -0.046098575
0.0005096314 7.278257e-05 -0.0012217126 -0.024889328 -0.0009652341 -0.0025737917 -0.00027887002 -0.007012207
-0.052346323 -0.053616647 -0.063101195 -0.028384209 -0.013557057 -0.044128988 -0.059470776 -0.06953807
0.06601176 0.0761759 0.0039035417 -0.08428954 0.06195927 0.12218739 0.03890406 -0.018115193
0.010570324 0.019421242 0.033892754 0.03357183 0.046128884 0.03121591 0.022422243 0.016653417
0.024765683 -0.027586792 -0.06799098 -0.05424104 -0.03274772 -0.07779586 -0.09340157 -0.0446104
0.0044095926 -0.03928506 -0.050991237 -0.032109044 0.07501636 -0.002830211 -0.039315008 -0.065728106
0.00955872 0.031049881 0.045164373 -0.019253094 -0.09954282 0.0020870408 0.047565337 0.020907896
0.14816734 0.05142853 -0.04562484 -0.15030546 0.63753873 0.025525404 -0.10315075 -0.20961142
0.46720842 -0.14494859 -0.26339298 -0.35142726 0.30193478 -0.06839921 -0.1504449 -0.039145194
0.06337405 -0.008256782 -0.05924795 -0.034287136 0.20303519 -0.008900444 -0.12226696 -0.1374162
0.18593243 -0.0046458878 -0.09989642 -0.12820716 0.08622956 0.01387649 -0.03541033 -0.0063774404
-0.019015009 0.10079941 0.047038402 -0.00095048174 -0.08595044 0.117047966 0.04795265 -0.0019874994
-0.10491374 0.04133864 -0.007672914 -0.028990088 -0.06478905 -0.012979494 0.005124297 -0.019949332
0.05790392 0.018236415 -0.062082823 -0.06908707 0.0876827 -0.011064957 -0.080567226 -0.09153529
0.09637907 -0.0040415768 -0.067563355 -0.08111488 0.07638862 0.026989222 -0.06372801 -0.054883305
-0.021890445 -0.05384171 -0.027018135 0.003622709 -0.11284073 -0.040132333 0.032901607 0.10559854
-0.10813962 -0.013676645 0.0574737 0.12393162 -0.040914264 -0.0043184776 0.035723787 0.02168553

2.bias f4 [32]
00000000: b4eb 01be 76ca 71be da2a d7bd 2e33 b13f
00000010: 7373 c2be 3125 9bbd 22e6 b8bd c918 9abd
00000020: 0036 623c 580b 8bbd b1e0 883f ea9e 82bd
00000030: db35 3f3f 7838 f53e f2f6 ebbc d54e 073e
00000040: b24a 453f 31fc 75bd cdf8 08bc 9bf3 7ebc
00000050: 6c29 d63e 1d2c a6bd 0d15 dcbe 87e3 ed3c
00000060: d508 98be bea0 693f 1c10 abbe 4fda 0b3c
00000070: c4be d1be 125f a1be 0566 2cba 0686 a23e
-0.1268757 -0.23612389 -0.1050622 1.3843744 -0.37978706 -0.07575453 -0.09028269 -0.07524259
0.01380682 -0.06789273 1.069357 -0.06377967 0.7469155 0.47894645 -0.028804276 0.13213666
0.770671 -0.06005496 -0.0083601 -0.01556101 0.41828477 -0.08113883 -0.4298481 0.029039158
-0.29694238 0.912609 -0.33410728 0.008535936 -0.40965855 -0.31517845 -0.00065764814 0.31742877

5.weight f4 [100, 2048]
00000000: a22e 71bd 4315 983c 9219 203b 6c57 aabc
00000010: c74b 9fbc a0ca a63c 4ed0 2dbc d16c 593d
00000020: 8ac1 66bd 7bab 373c 9555 f73c 0279 29bc
00000030: 0dfc 0c3d cf6e fcbb 2021 18bc 02c7 a0bb
00000040: 73e3 c43b 265c 88bb 9c9e 83bc 4c3a 133c
00000050: 5f15 e53a 4542 15bd 548c fabc f41c cf3c
00000060: 86d5 ecbc b339 c1bc a7be b1bb 4ea3 d8bc
00000070: 6286 8d3c 87e1 6cb9 9a4a 4cbc 702c a23c
00000080: 5229 49bc 75d2 843c 40b5 1fbd 7cbc 313c
00000090: a96d 1cbb aa37 febb 2216 68bd c15e 933c
000000a0: 4a93 3ebc f731 9ebc d151 4fbc 28a9 f13b
000000b0: ffaa 32bd 8a4a 0abd cc31 4cbc bd98 00bc
000000c0: 0df1 243c 7015 113c eb07 b3bb 3472 06bd
000000d0: 81e7 e13a 8242 d5bc 4aeb 24bc 9667 8cbc
000000e0: 8785 1d3c 0c3d 8e3b 0359 08bd 46d1 56bc
000000f0: 0818 d53b fc91 233c bdb5 10bd 492f ccbc
00000100: d65e e2bc bcdd d93c aad6 22bc 11bd 03bd
00000110: c83b 8abc 674e ba3c c086 c7bc 3b2d c4bc
00000120: 0fa2 033c cbec 74bd 89de e9bc d74b 2f3c
00000130: 4550 93bc 008b bbbd 90e9 333a 3b0a 693c
00000140: 7319 b13b b6e3 60bc 80b4 ad3b 1d68 2cbd
00000150: 3050 93bc 0520 57bb d9e2 ccbb 9353 9abd
00000160: d2f5 a23c 5431 c03b 20cf 693c 7533 5cbc
00000170: 011a 54bd 685f 683c 7afd cf3c cc49 ebbb
00000180: f501 0a3c 1818 563c 6d39 f4bb 7565 71b9
00000190: 93f4 c23b 0220 a7bc d204 77bd ac8d 293d
000001a0: c399 5b3c 07d4 92bc 2717 8fbc 432b 2dbd
000001b0: 82e5 cfbc d839 443c 1044 80bc dc54 bebc
000001c0: 4815 993c 36b7 a03c 1f3b 3a3b 7c7f 11bd
000001d0: ce34 39bd f8de d0bc 86c8 28ba 7c97 3dbd
000001e0: 3c74 a5bb f0df 32bd 736c 54bd 8b08 a2bc
000001f0: 61bf 6dbd 53b8 0dbc f4ca 67ba 0854 fcbc
00000200: 67fc 84bc cdde 253b a2fc 5cbc 6a7d b53c
00000210: aec6 55bd 0770 a9bb 98a2 11bc d54f b7bc
00000220: 546f d13b b82a 0ebd ccc0 47bd 644e 0ebd
00000230: 6cb6 22bc 96ea 3abc 0a35 a6bb cbec 8b3c
00000240: faa2 3dbc da92 633c 5b8b 9fbc da0a 53bd
00000250: 53f6 0eba 0551 a2bb b89b 8c3c 11ba 8f3c
00000260: b6d7 bbbc d899 3c3c e5f5 6ebc 83e5 b93c
00000270: ae68 2ebc a53e e03c f9b2 9fbc 89fb 34bc
00000280: e12c a43c c0f7 9cbc 5354 4abd f66b 94ba
00000290: 8c04 06bd 9307 c73b 80ac 163c 0670 3fbc
000002a0: 0bed 1dbc a06e 9f3c c746 02bd 0389 ce3c
000002b0: bb57 b7bc 8d8a 513b 9fca e1bc 4b8f 453c
000002c0: 3ae9 a93b 9cab 75bc 9633 4b3c 5ffc 1e3d
000002d0: 9702 14bd 1118 56bc 01b9 02bc a44a 1cba
000002e0: d4c1 adbb d79a 11bd 8a51 12bc fcbd 5ebc
000002f0: f6b7 90bb 3b3a 17bb b37c d03c a0b2 2ebd
00000300: 53b4 603c 4ad4 ddbc ccd3 413d 27c3 193a
00000310: 8d14 023c 551f 4b3d b7cd efbc 9ed9 ecbc
00000320: f593 44bd b1e4 98b9 c20a aabc 53a0 59bc
00000330: 57cd 1f3c d6bf 95bc a5ea a1bc c6b4 e0bb
00000340: cdb0 40bb 6b0a 4c3c 9fa3 0dbd 5ef5 3bbc
00000350: e3d3 c3bc ca44 723c ed5b 17bd 339a 40bd
00000360: e3cf 2abd 0668 dd3b 5470 953b 9f52 f5bc
00000370: 07c4 93bc 4524 0abd 15b2 24bc c644 02bc
00000380: a367 a63c ad42 c4bb bf63 0ebc 7685 44bd
00000390: bb3b c6bc 6881 9b3c d573 19bc 3c2d 1a3c
000003a0: a058 15bd 4696 2abc 6092 283b aa76 79b9
000003b0: b036 bf3b 5d94 76bb 4337 1d3b 8aa5 363c
000003c0: c517 9c3c 2d0e f93b 9d5f 3a3d a07a 00bc
000003d0: 1229 313d f8d8 ea3c a7f8 223d 9616 fcbb
000003e0: b6bf 2e3d 14e1 ecbc 0aea af3c e2fd b0ba
000003f0: 464e d0bb 83b5 9fbc 8756 4c3c 73a3 f6bb
-0.058882363 0.018564826 0.0024429304 -0.02079364 -0.019445313 0.020360291 -0.010608746 0.05308229
-0.056336917 0.011210318 0.030192176 -0.010343792 0.03442006 -0.007703639 -0.009285241 -0.004906536
0.0060085594 -0.0041613756 -0.016066842 0.008986067 0.0017477683 -0.036440153 -0.030584492 0.02528236
-0.02891041 -0.023587083 -0.005424339 -0.026445057 0.017275993 -0.0002259073 -0.012468958 0.01979658
-0.012277918 0.016213635 -0.038991213 0.010848161 -0.0023869073 -0.0077581005 -0.056661732 0.017989518
-0.011631796 -0.019310934 -0.012653784 0.0073749013 -0.043620106 -0.033762492 -0.012463044 -0.007848916
0.010067237 0.008855209 -0.0054635904 -0.032823756 0.0017235131 -0.02603269 -0.010065863 -0.017139237
0.009614355 0.0043407734 -0.033288013 -0.013111418 0.006503109 0.009983536 -0.03532957 -0.024924891
-0.027633112 0.026594989 -0.009938875 -0.03216273 -0.016874209 0.022742463 -0.024356246 -0.023947349
0.008034243 -0.059796136 -0.028548496 0.010699234 -0.017982611 -0.091573715 0.00068631116 0.014223631
0.005404645 -0.0137261655 0.0053010583 -0.042091478 -0.017982572 -0.0032825482 -0.0062526283 -0.07535472
0.019892607 0.0058652554 0.014270574 -0.013440003 -0.05178261 0.014182903 0.025389422 -0.007180428
0.008423318 0.013067268 -0.0074531347 -0.00023021347 0.0059495657 -0.020401005 -0.06030733 0.041394874
0.013403359 -0.017923368 -0.017467095 -0.042277586 -0.025377993 0.011976682 -0.015657455 -0.023233823
0.018686906 0.019618612 0.0028416587 -0.03552197 -0.045216374 -0.025496945 -0.0006438572 -0.046287045
-0.0050492566 -0.043670595 -0.051861238 -0.019779464 -0.05804384 -0.008649903 -0.0008842193 -0.030801788
-0.016233636 0.0025309802 -0.013487967 0.022154529 -0.05219143 -0.0051708254 -0.008888863 -0.022376934
0.006391445 -0.03470871 -0.04876785 -0.034742728 -0.009931188 -0.011408469 -0.0050722407 0.017080685
-0.011574501 0.013889993 -0.01947563 -0.05152402 -0.0005453575 -0.004953506 0.017164096 0.017544778
-0.022930007 0.011511289 -0.014584993 0.022692448 -0.010645075 0.027373621 -0.01949452 -0.011046299
0.020040931 -0.019161105 -0.049396824 -0.0011323679 -0.03271918 0.006073901 0.009196401 -0.011684423
-0.009639035 0.01946193 -0.03180578 0.025211817 -0.0223807 0.0031973452 -0.027562438 0.0120580895
0.0051852735 -0.014994528 0.012402436 0.0388149 -0.036135282 -0.013067261 -0.007978679 -0.000596205
-0.005302647 -0.035548057 -0.008930573 -0.0135951005 -0.004416461 -0.002307548 0.025450086 -0.04265082
0.013714868 -0.027078766 0.047321126 0.0005865567 0.00793947 0.049590427 -0.029272897 -0.028912362
-0.047992665 -0.00029162088 -0.020757083 -0.013282853 0.009753547 -0.018279951 -0.019765208 -0.0068574874
-0.0029402256 0.012453656 -0.03457987 -0.011472074 -0.023904746 0.014786908 -0.0369529 -0.047022056
-0.041702162 0.0067567853 0.0045605097 -0.029946623 -0.018037809 -0.033725996 -0.010052224 -0.007950967
0.02031309 -0.0059893937 -0.0086907735 -0.04797884 -0.024198404 0.018982604 -0.009365995 0.009410199
-0.036461473 -0.010411805 0.0025722012 -0.00023790696 0.0058353767 -0.0037625053 0.0023989237 0.011147866
0.019054303 0.007600567 0.04550134 -0.007841736 0.04325206 0.028667912 0.039787915 -0.007693122
0.0426633 -0.02891592 0.021473903 -0.0013503397 -0.006356987 -0.019495731 0.012471802 -0.007526809

5.bias f4 [100]
00000000: 86a2 acbc ba1a dcbc 6f33 bebc 78b6 07bd
00000010: dc4c e73d 0495 943f b751 05c0 b0ca edbc
00000020: 8b06 edbc 5dad b3bc 9173 05c0 1890 bd40
00000030: d0d8 acbc 670a a2bc 0411 aabc f8b5 7dbc
00000040: 63cd bdbc e366 8dbc ba79 aabc 17a1 03bd
00000050: 4d17 62bc 8293 7dbc 379f 9dbc 40cb cfbc
00000060: 8da9 bfbc ef2e 653f 8b00 02bd e83d 3e40
00000070: fa22 dbbc 840d a7bc ec9a cbbc 7811 0abd
00000080: b329 3abc 5638 b83f ae68 acbc a443 acbc
00000090: 4c97 9140 c698 7fbc ee26 e0bc ba8a d2bc
000000a0: b196 b0bc 413c 2ebd 50ab 63bc 3f50 e23e
000000b0: 88a8 4bbc f95a e3bc 922b f03d 879e 813f
000000c0: 8d12 97bc 4a99 f5bb c7b2 683f e841 63bc
000000d0: 33f2 d5bc 0ed3 80bc 6835 bf40 6dc9 8fbc
000000e0: a488 27bd 0895 1a40 faaa 99bc cd43 14bd
000000f0: 3860 4bbd 0e7b 453f eb1c bbbf 8fed 6fbc
00000100: 8b4a b2bc 9a50 a0bc 5498 bebc b0e1 c4bc
00000110: 8e7e ddbc 649b 513f 5f33 4cbe 049f 1abd
00000120: 6715 66bc fd56 f4bc 2c83 bdbc 2d1f 5bbc
00000130: 8368 d03f 5fe3 c6bc 8c9b 2abc 5ad9 34bf
00000140: 8a3d c7bc 98e3 aabc 198a bcbc 2ef9 e2bc
00000150: c427 03bd ede8 19bc 97c8 41bc f137 9140
00000160: 2d63 e1bc 5eb5 b2bc 4b80 6d3f baed 37bd
00000170: 94f0 85bc 5cdc c5bc 25cb 82bc 7002 c4bc
00000180: 121b 36bd 8621 b8bc c433 23bd b8b0 b9bc
-0.021073591 -0.026868213 -0.023217885 -0.033133 0.11293957 1.1607976 -2.0831125 -0.029027313
-0.028933784 -0.021933252 -2.0851786 5.9238396 -0.021099478 -0.01978035 -0.020760067 -0.015485279
-0.023169225 -0.017260974 -0.020809997 -0.03213605 -0.013799501 -0.015477063 -0.019240959 -0.025365472
-0.023396278 0.8952474 -0.0317388 2.9725285 -0.026750077 -0.020392187 -0.024854146 -0.033708066
-0.011362481 1.4392192 -0.021046009 -0.021028347 4.549719 -0.015600389 -0.027362313 -0.025700916
-0.02155623 -0.04253793 -0.013895825 0.44201848 -0.012430318 -0.02775334 0.117270604 1.0126504
-0.018441463 -0.00749508 0.9089779 -0.013870694 -0.026116466 -0.015725639 5.9752693 -0.017552102
-0.040901795 2.4153461 -0.018758286 -0.036197472 -0.04965231 0.7714089 -1.46182 -0.014644041
-0.02176406 -0.019569684 -0.023265995 -0.024033397 -0.027037885 0.8187773 -0.19941472 -0.037749305
-0.014043189 -0.029826635 -0.023133837 -0.013374132 1.6281894 -0.02427834 -0.010413062 -0.7064415
-0.024321336 -0.020860478 -0.023015069 -0.027706709 -0.032020345 -0.009393913 -0.0118276095 4.538079
-0.027513111 -0.021814998 0.92773885 -0.044904448 -0.016350068 -0.024152927 -0.015966007 -0.023926944
-0.04445941 -0.022476923 -0.03984429 -0.022667274

7.weight f4 [10, 100]
00000000: 9474 f9bd 8275 2fbc ceeb 553d 15ec 3cbe
00000010: ba25 33be 5d50 8fbd a235 1fbf e2ba 2bbe
00000020: ffaa cabd 9867 4abd 6184 babe 22ea a4bd
00000030: 8dd4 c03a 3e0f 14bd c0b4 eb3d adfa 6cbc
00000040: d2d3 e3bd 10f3 0e3e 5815 293d 4c7b 203d
00000050: 2c23 1fbe b542 853c 3f8a 96bc 2fb2 183e
00000060: a733 e9bd e9af 5a3d 9b48 f3bc 30c8 bc3c
00000070: 6939 aebc ca10 3abd fbb6 d93d 1744 0bbe
00000080: 2a82 823d 3279 fdbd cf8a 6c3b 2835 b73d
00000090: 79ac 0d3e 0349 b4bd ac46 b23e fdde 81bd
000000a0: d649 8d3d 921d 1fbe 5f4d 8d3d 75c4 fbbc
000000b0: 5896 e13c a75c b6bd b472 70be 56d2 68be
000000c0: 2872 1dbe 7d3f 31bd e48f e4bd 3d6d 043e
000000d0: a265 2bbb 7580 09bd 2bdf ffbd 6fad a53d
000000e0: cf01 3f3e 427d 0dbd adba 41bb 71ca 4ebd
000000f0: 7d7a 27bc f2df 25be 6d68 22be f8d1 43be
00000100: 7c1e a23d 7601 36bd 947e 8b3d ff8f bcbd
00000110: 2cf2 9ebd f4f7 02be b219 12be 7c31 2f3d
00000120: 94b7 8c3d c3e4 e0bd 583c 5cbd 5965 853d
00000130: 41f2 99be 78b1 dbbc 8a5e 3e3d e2a5 32be
00000140: ba32 58bc c49c 46bd fde2 f9bc aa9b 033e
00000150: 51eb 87bc 0180 663b 4052 d93d f3ee 2fbd
00000160: 32dd 76bd f976 7ebc 440f 913b 3945 f73c
00000170: 34a8 dbbd d325 52be 0fc4 2abe 0bcb 0fbe
00000180: 4776 d43d 3a74 33be 2922 32be dcb9 b6bd
00000190: 25b4 82bd b9cc 493e d8ea e2bd e5a6 ac3c
000001a0: 9065 9fbd 46f5 59bd f5cb 06bf 96de e83d
000001b0: 8d2b cd3d 1404 bfbd a0c3 05bf 78e5 13bd
000001c0: 8ff7 4bbc 7ac8 1a3d 47e9 2cbd a487 ecbb
000001d0: 3f5a e0bd 2810 dc3d 5e98 a3bc 2515 a03d
000001e0: 8828 d8ba 1c57 fd3c d47f 9ebc 465a 983d
000001f0: 42ff 4e3c c6b4 b1bc f0d8 403d 67bd e3bd
00000200: 0a53 f73c 9c94 dabc 77ee 67bc aa3c f7bd
00000210: 37f5 1a3e 315d 80be 9027 813e a3db 923c
00000220: 708d 7dbb a1e6 da3d 3891 b0bd aa8f debd
00000230: 91b1 a43d 2652 ad3b 5e70 b33d 70af 9dbd
00000240: 7ffc 99bd 4dc5 2a3d 6841 5cbe 6b77 05be
00000250: 81e4 6dbc 0680 23bd a635 1abe 56f9 1b3d
00000260: 02d7 8a3d bc2d 113d 96eb 3abe 4e6c f4bd
00000270: 6da3 fbbc 956f d03c c44e 3aba 8c52 3dbd
00000280: 4f47 85be df8f 22be 6340 4abe 8c3d 22be
00000290: b3f7 e9bc 04cf 13be ad4d 48bd a1ed dbbd
000002a0: c5f9 72bc 6706 02be 7c3e 01be 61cd 80bd
000002b0: 8461 d23b 6b39 95bc 2638 02bd bba1 913c
000002c0: cb7e a4be f6f2 e73d cd33 14bd 40ff 58bd
000002d0: 259f 603e ea91 8d3c d6d5 c13d 251c 8abc
000002e0: 0eda 4abd c9a9 6b3c f3ce a2bd c5cf 323e
000002f0: 90e5 463c f8d3 aa3c 45d0 b3bd a747 f5bc
00000300: 30b6 8cbd ca19 c9bd 82f9 afbd b67e 723e
00000310: b721 62bd 6436 89bc 2d4a 0cbe c05b 963c
00000320: 2c8f 643e b61a ecbd 1b69 1f3d 0e0b 1d3d
00000330: 607e 4fbe 1065 dcbd 768b 1dbf eb39 67bd
00000340: d3c6 0c3c b4a2 2fbe a267 d9be 840b 36ba
00000350: c03e dbbb 7ffa babd 88a8 8d3d f82c 04be
00000360: 50cd 37bd a1c3 96bc cbb8 f83b d600 70bc
00000370: 4ccd adbc 6140 0e3e ccc9 38be 638e a43c
00000380: 13d8 b0bd aa70 cdbc 9d60 693d a4d6 eabd
00000390: 7032 43bd 4c89 803d 503a e13c b4bc b33d
000003a0: 070c bf3a 5543 1fbe 60a8 0f3d 2928 8dbd
000003b0: e173 ea3d 65d8 afbd 521a cd3b 1f72 9abd
000003c0: 5dfc a73c 517a 71bc 767d e7bd ef31 673c
000003d0: c3b6 22bd cd0b c13d 7f75 72be 42eb 85be
000003e0: b2d0 d7bd c077 2bbe 5080 f0bd 46c5 1bbe
000003f0: 82ec 433e eee6 a83d d735 dcbd 006c a13c
-0.12180439 -0.010709168 0.052226834 -0.18449433 -0.1749486 -0.0699775 -0.6219121 -0.16770509
-0.09895896 -0.0494152 -0.36429122 -0.0805247 0.0014711783 -0.03614735 0.11509085 -0.014464063
-0.11124386 0.13959908 0.04128012 0.039180085 -0.15540761 0.01626716 -0.018376468 0.14911722
-0.11386805 0.053390417 -0.029697707 0.023044676 -0.02126761 -0.045426168 0.10630604 -0.13600193
0.06372483 -0.12376632 0.0036093479 0.089456856 0.13835324 -0.088029884 0.34819543 -0.0634136
0.06898849 -0.15538624 0.06899523 -0.030733326 0.02753751 -0.08904391 -0.23481256 -0.22736487
-0.15375578 -0.043273438 -0.111602575 0.12932296 -0.0026153107 -0.03356977 -0.12493738 0.080897205
0.18653034 -0.034543283 -0.002956073 -0.050486032 -0.010222075 -0.1619871 -0.15860148 -0.19123065
0.07915971 -0.044434987 0.06811252 -0.092071526 -0.07761034 -0.12789899 -0.14267614 0.0427718
0.06870952 -0.10981133 -0.053768486 0.06513471 -0.30067638 -0.026818022 0.04647688 -0.17446092
-0.013195688 -0.048489347 -0.030503744 0.1285235 -0.0165917 0.003517151 0.10611391 -0.04295249
-0.060269542 -0.015531295 0.0044268686 0.030184375 -0.107254416 -0.20522241 -0.16676353 -0.14042298
0.10374122 -0.17524806 -0.17395844 -0.089221686 -0.06382016 0.19707002 -0.11079949 0.021075675
-0.077830434 -0.053212427 -0.52654964 0.1137058 0.10018072 -0.0932695 -0.52251625 -0.03610751
-0.012449159 0.037788846 -0.042214658 -0.007218318 -0.10954713 0.10745269 -0.019970115 0.07816533
-0.0016491571 0.030925326 -0.019348063 0.07439093 0.0126341 -0.021692645 0.047081888 -0.1112011
0.030190963 -0.02668219 -0.014155976 -0.120721176 0.15132605 -0.250711 0.25225496 0.017926997
-0.003868904 0.1068852 -0.08621448 -0.108672455 0.080416806 0.005289334 0.08761667 -0.07699478
-0.07518863 0.041692067 -0.21509326 -0.13033836 -0.014519812 -0.039917015 -0.15059528 0.038079582
0.06779291 0.035444006 -0.18253931 -0.1193472 -0.030717576 0.025443831 -0.0007107074 -0.0462213
-0.26030967 -0.15875195 -0.19751124 -0.15843791 -0.028560495 -0.14434439 -0.048902202 -0.107386835
-0.0148300575 -0.12697755 -0.12621492 -0.06289173 0.006420316 -0.018215856 -0.03179183 0.017777314
-0.32127985 0.11325638 -0.036182214 -0.0529778 0.21935709 0.017281491 0.09464614 -0.016859123
-0.04952436 0.014383742 -0.07949629 0.1746207 0.012139693 0.020853028 -0.08779959 -0.029941393
-0.06870687 -0.09819372 -0.08592512 0.23681149 -0.055207934 -0.016749568 -0.13700171 0.018354297
0.2232024 -0.11528532 0.038918596 0.03834062 -0.20263052 -0.10761464 -0.61540926 -0.05645172
0.008592325 -0.1715191 -0.42461878 -0.0006944465 -0.00669083 -0.091298096 0.069169104 -0.12907779
-0.044873536 -0.01840383 0.0075903884 -0.014648637 -0.021216057 0.13891746 -0.1804573 0.020087427
-0.08634963 -0.025078136 0.056976903 -0.11466721 -0.047655523 0.06276187 0.027493626 0.08776227
0.0014575728 -0.15553029 0.035072684 -0.068924256 0.114478834 -0.08586196 0.006259241 -0.07541298
0.020506078 -0.014738635 -0.11303227 0.014111026 -0.039725076 0.09426079 -0.23677634 -0.2615605
-0.10537852 -0.167449 -0.11743224 -0.15211973 0.1913319 0.08247171 -0.10752457 0.019704819

7.bias f4 [10]
00000000: 2494 d1be 0cb5 2cbf da42 4bbf 5823 bc3e
00000010: 3274 98bf 11e1 8c3e 845a 203f 02dc b83e
00000020: 91a6 b23f a93b b23e
-0.40933335 -0.67463756 -0.7939888 0.36745715 -1.191046 0.27515462 0.62638116 0.36105353
1.3957082 0.34811142
