complete_verifier/models/sdp/cifar_cnn_a_mix4.model (torch, 862519 bytes, 8 tensors)

0.weight f4 [16, 3, 4, 4]
-0.003485998 -0.068147294 -0.01076892 -0.07368365 0.06766104 0.007560343 0.054469943 0.0005009199
0.0018755797 0.082043864 0.014225617 0.07335338 -0.06821082 -0.006596711 -0.058279246 -0.0020206799
-0.0017929588 -0.04111029 -0.0062381877 -0.04693226 0.046642732 0.0054321596 0.037459433 6.447626e-05
0.00079763995 0.05249122 0.008671313 0.04663255 -0.050473236 -0.0049554068 -0.040886633 -0.0015944244
-0.0024200885 -0.0566258 -0.006812144 -0.055905733 0.05955083 0.00749073 0.046541832 -0.00018525295
0.0010518926 0.061380606 0.009155853 0.05589583 -0.062401064 -0.007638447 -0.059614565 -0.002940128
-0.005984188 0.020486875 0.010405042 0.026940752 -0.10999059 -0.0020776559 0.11033385 0.004145748
-0.016654085 -0.069052786 0.010189969 0.05637326 -0.050597984 -0.003085386 0.031446368 0.0014029008
-0.004327285 0.011965091 0.0066770697 0.0235309 -0.08953117 -0.0018587037 0.083692856 0.003478213
-0.011314141 -0.052712653 0.006392206 0.037887495 -0.043201942 -0.0026850167 0.02134065 0.00095147785
-0.0044453125 0.015942365 0.0073833335 0.0280812 -0.11676549 -0.0026977905 0.10994638 0.0053025787
-0.012101742 -0.06678981 0.0070140087 0.04596337 -0.05605815 -0.0038588198 0.028278418 0.0015213736
0.0035666015 0.054091774 0.0056437887 0.027882887 0.0635656 0.0068542133 0.08437984 0.004305757
0.0069371946 0.08941161 0.010312655 0.05854561 0.018769788 0.0031789541 0.043654148 0.0016862359
-0.0020709627 -0.028603686 -0.0029310372 -0.018618654 -0.027014375 -0.00329754 -0.046388578 -0.0025353662
-0.0024870895 -0.0396211 -0.0043978207 -0.02938972 -0.013013443 -0.0016627738 -0.023341458 -0.001332226
-0.0020180286 -0.027107596 -0.002086527 -0.0134976 -0.032118347 -0.0043926006 -0.047899153 -0.0029841536
-0.0025429504 -0.039205935 -0.0038887511 -0.031887468 -0.014302251 -0.0016184757 -0.019986348 -0.0017523007
0.008981914 -0.066487096 -0.004710605 0.067831166 0.08727411 -0.009341126 -0.07603572 0.009959476
0.014083762 -0.11642579 -0.0132233035 0.102853715 0.06300659 -0.0047478937 -0.062032603 0.0046721366
0.00568173 -0.052660342 -0.003821182 0.0447874 0.070037246 -0.0075811963 -0.0609304 0.0076981434
0.009159527 -0.0841009 -0.008869326 0.072927415 0.048817176 -0.0038337777 -0.048565894 0.0035525302
0.005939192 -0.058232527 -0.0036003466 0.050334577 0.086006835 -0.010617082 -0.07600164 0.011184341
0.009555393 -0.09721538 -0.009005005 0.08462263 0.06129594 -0.005202921 -0.059255887 0.0052349786
-0.0035961212 -0.039053533 -0.0039926814 -0.025838222 -0.04292115 -0.0035234995 -0.045790758 -0.003321616
-0.005393677 -0.059982512 -0.00704568 -0.051231343 -0.028464975 -0.002886956 -0.037567254 -0.0020471942
-0.0006988435 -0.0026128388 0.00023111182 -0.0013954791 -0.0019445053 0.0006922079 0.013037648 5.400544e-05
6.3018626e-05 0.006843752 0.0007572656 0.00057694054 -0.0041909143 -0.00014153696 -0.0015267609 -0.00013276863
0.0014289503 0.03997536 0.004944483 0.02951705 0.04551183 0.008201982 0.10829052 0.005523993
0.00445631 0.072670795 0.0073110135 0.05255252 0.021115916 0.0028266122 0.03477198 0.0023964504
0.004989367 0.09496215 0.012489952 0.063178875 0.038761392 0.005813894 0.06976947 0.0032668305
-0.0052696243 -0.09342581 -0.011813324 -0.06682697 -0.031574767 -0.0057741543 -0.074101746 -0.0021830432
00000000: 5775 64bb cf90 8bbd 2070 30bc 74e7 96bd
00000010: df91 8a3d c1bc f73b e01b 5f3d 2a50 033a
00000020: 03d6 f53a 9d06 a83d 9012 693c 4c3a 963d
00000030: 1db2 8bbd 3929 d8bb 38b6 6ebd 626d 04bb
00000040: b701 ebba 4363 28bd b669 ccbb 0b3c 40bd
00000050: 730c 3f3d 4200 b23b 106f 193d 6e37 8738
00000060: b618 513a 0901 573d 1f12 0e3c c601 3f3d
00000070: 06bd 4ebd f760 a2bb be78 27bd 01fc d0ba
00000080: 599a 1ebb 74f0 67bd 6838 dfbb 69fd 64bd
00000090: 92eb 733d cc74 f53b a6a2 3e3d 7640 42b9
000000a0: a9df 893a 3b6a 7b3d 6e02 163c 07f3 643d
000000b0: 4298 7fbd f04b fabb 672e 74bd 2aaf 40bb
000000c0: 0217 c4bb 17d4 a73c e979 2a3c dab2 dc3c
000000d0: bf42 e1bd 4829 08bb b7f6 e13d 0ed9 873b
000000e0: 266e 88bc 8c6b 8dbd d4f3 263c a6e7 663d
000000f0: d53f 4fbd 3034 4abb e8cd 003d 8ae1 b73a
00000100: e6cb 8dbb 3b09 443c 52cb da3b e0c3 c03c
00000110: 1e5c b7bd bf9f f3ba 2967 ab3d bbf2 633b
00000120: f25e 39bc 39e9 57bd b675 d13b eb2f 1b3d
00000130: 85f4 30bd 1bf7 2fbb 96d2 ae3c 996c 793a
00000140: fca9 91bb 9099 823c e4ef f13b 8b0a e63c
00000150: bf22 efbd 6acd 30bb 912b e13d 41c1 ad3b
00000160: 6346 46bc 19c9 88bd c5d5 e53b 1644 3c3d
00000170: 3b9d 65bd 41e4 7cbb 24a8 e73c d468 c73a
00000180: a5bd 693b 568f 5d3d 88ef b83b a76a e43c
00000190: ae2e 823d 4f99 e03b 56cf ac3d 4f17 8d3b
000001a0: 6851 e33b 6f1d b73d 69f6 283c 86cd 6f3d
000001b0: 19c3 993c 0056 503b b1ce 323d b004 dd3a
000001c0: fdb8 07bb 4752 eabc a516 40bb 2686 98bc
000001d0: 404d ddbc 8a1b 58bb f301 3ebd 6328 26bb
000001e0: 70fe 22bb bc49 22bd 981b 90bb b6c2 f0bc
000001f0: 5636 55bc 6ef1 d9ba 9636 bfbc 169e aeba
00000200: e740 04bb c010 debc 1dbe 08bb 0a25 5dbc
00000210: 878e 03bd ceef 8fbb e731 44bd ca91 43bb
00000220: a1a7 26bb 6796 20bd 6bda 7ebb 6f9c 02bd
00000230: fd53 6abc 0823 d4ba 69ba a3bc 74ad e5ba
00000240: e128 133c 632a 88bd 6b5b 9abb 11eb 8a3d
00000250: c5bc b23d 860b 19bc 9eb8 9bbd 122d 233c
00000260: 94bf 663c a570 eebd 8ea6 58bc f8a4 d23d
00000270: 9909 813d 3894 9bbb e615 7ebd b918 993b
00000280: ce2d ba3b 5fb2 57bd cc6c 7abb fe72 373d
00000290: b06f 8f3d af6b f8bb 2892 79bd b540 fc3b
000002a0: d711 163c 183d acbd a650 11bc f85a 953d
000002b0: 85f4 473d 1e40 7bbb 08ed 46bd 91d1 683b
000002c0: 8e9d c23b 3b85 6ebd cbf3 6bbb a12b 4e3d
000002d0: 5a24 b03d 45f3 2dbc bfa6 9bbd 873e 373c
000002e0: 398e 1c3c db18 c7bd ba89 13bc a14e ad3d
000002f0: 7411 7b3d 447d aabb 4db6 72bd 2f8a ab3b
00000300: e7ac 6bbb 99f6 1fbd 0ad5 82bb aeaa d3bc
00000310: 16ce 2fbd 83ea 66bb 178f 3bbd 78af 59bb
00000320: 71bd b0bb 39b0 75bd 73df e6bb f5d7 51bd
00000330: 612f e9bc 1633 3dbb 1fe0 19bd 382a 06bb
00000340: 9832 37ba 293c 2bbb 9b56 7239 82e8 b6ba
00000350: c5de feba 4975 353a dc9b 553c e683 6238
00000360: de28 8438 8e41 e03b 3c83 463a d33d 173a
00000370: f053 89bb 8a69 14b9 981d c8ba cf37 0bb9
00000380: 9e4b bb3a 34bd 233d 5405 a23b becd f13c
00000390: 9d6a 3a3d 9b61 063c 6cc7 dd3d 9d02 b53b
000003a0: 3d06 923b 6dd4 943d 3a91 ef3b 5041 573d
000003b0: 49fb ac3c af3e 393b 106d 0e3d c40d 1d3b
000003c0: d87d a33b 847b c23d a8a2 4c3c ed63 813d
000003d0: 44c4 1e3d 7a82 be3b 4ce3 8e3d 5218 563b
000003e0: d0ac acbb 0856 bfbd ac8c 41bc 94dc 88bd
000003f0: 8b54 01bd 1e35 bdbb a8c2 97bd 6311 0fbb

0.bias f4 [16]
-0.02806356 -0.06748633 -0.00023842487 -0.04985674 0.06409638 -0.09315895 -0.1814701 0.05662804
-0.022381771 -0.032999896 -0.026411492 -0.03577396 -0.039683163 -0.06524024 -1.7050838 0.15694067
00000000: 8de5 e5bc 4636 8abd b001 7ab9 9536 4cbd
00000010: f644 833d 1fca bebd 4cd3 39be cef2 673d
00000020: fa59 b7bc e62a 07bd ea5c d8bc b787 12bd
00000030: d08a 22bd ad9c 85bd 3040 dabf 0eb5 203e

2.weight f4 [32, 16, 4, 4]
0.078223005 0.16902123 0.15201184 0.07239911 0.03894391 0.08685767 0.10502745 0.07144531
-0.03255644 -0.012137763 -0.008597395 -0.012384742 -0.019593349 -0.009114876 -0.0008630724 -0.021610318
-0.030447565 -0.10724383 -0.12080975 -0.06412932 -0.004852807 -0.029216636 -0.09819197 -0.06578539
-0.0010166346 -0.019004205 -0.0017531608 0.014015008 0.028143771 0.0182576 0.048134085 0.04636363
-0.12764773 -0.13251059 -0.14022543 -0.13152026 0.05575385 0.035236206 0.020810075 0.0722909
0.06618363 0.057088073 0.05980585 0.06808776 -0.010490236 0.017852332 0.01982018 0.008231366
-0.01399607 -0.022885127 -0.031052116 -0.014828602 -0.024463594 -0.07259585 -0.057835445 -0.0122795915
0.011025245 -0.028710509 -0.025409296 0.02065861 0.016521191 0.012803536 0.0061313496 0.010666411
0.006560357 -0.0505344 -0.037530363 -0.005206914 0.050183985 0.051880706 0.053721055 0.044384815
-0.007882337 0.008259086 0.01579442 0.0019390022 -0.04303441 -0.034369525 -0.024846448 -0.052426387
0.014777522 0.07744453 0.095520765 0.04319138 0.091436595 0.1647709 0.17157626 0.086916246
-0.04730126 -0.026618654 -0.023615545 -0.04678123 -0.044276983 -0.007643004 -0.003539391 -0.050185256
0.29490203 0.24230623 0.15526786 0.1127359 -0.40802777 -0.21153231 -0.10499208 -0.20151457
-0.041842643 0.0035558022 0.025268478 -0.07162158 0.13410139 -0.10464735 -0.07404019 0.1035257
-0.040999543 -0.04527669 -0.04914346 -0.045898464 0.008615772 0.024140995 0.013998243 0.0007694222
0.0057558366 0.025739368 0.023324028 0.0095448 -0.026337555 0.0051888023 0.0026426257 -0.015290359
-0.0058363383 -0.01618581 -0.035985284 -0.016971424 -0.0143767875 -0.028325235 -0.036398947 -0.023513258
-0.0023571185 -0.014732795 -0.008499281 -0.0005104124 0.007700542 0.007566409 0.008320934 0.008727767
-0.0130608305 -0.03453476 -0.024182562 -0.0018116501 -0.026270876 -0.036647268 -0.008979539 0.0008350204
-0.024172526 -0.023169745 -0.01720995 -0.0037308903 0.0026733924 0.0021529738 -0.0027248494 -0.00031803246
0.02553742 0.063245416 0.09646121 0.07530602 0.030315312 0.07218027 0.044083048 0.006607485
-0.030618472 -0.05278399 -0.086672686 -0.07491495 -0.015174898 -0.015066177 -0.022335742 -0.033690076
0.06502296 0.124507084 0.12313535 0.07366556 -0.00808221 0.021101382 0.0608475 0.029845413
-0.056058854 -0.10025009 -0.054353107 -0.024012636 -0.047501326 -0.049245343 -0.06092122 -0.0641495
0.04154967 0.0451174 0.05018708 0.037969697 0.016218567 0.067873 0.05877101 0.023868648
0.022298504 -0.00033449815 -0.07051815 -0.039568566 -0.03662309 -0.026274089 -0.035399463 -0.041626938
-0.066366546 -0.12743206 -0.09213728 -0.0130314715 -0.053138573 -0.11023912 -0.05935054 -0.0014622934
0.049295366 0.025261104 -0.0075337896 0.0066811857 0.06916269 0.06344365 0.010785965 0.019455886
0.0067018154 -0.024578774 -0.030491102 -0.009004339 0.045032986 0.015670514 0.042918857 0.060606565
0.04320145 0.02281915 0.0426377 0.06007703 -0.006754828 -0.0131819965 -0.008416777 -0.007563377
-0.40203235 -0.40737602 -0.3411402 -0.22055195 0.46322805 0.31066668 0.2192403 0.25742283
-0.010102178 0.06337641 0.045427933 0.028226301 -0.2820224 0.10244806 0.10015413 -0.28026143
00000000: 6233 a03d e713 2d3e fea8 1b3e fc45 943d
00000010: a683 1f3d 6fe2 b13d a218 d73d eb51 923d
00000020: e759 05bd 78dd 46bc 17dc 0cbc 5fe9 4abc
00000030: 3b82 a0bc 9056 15bc cf3f 62ba 1f08 b1bc
00000040: 2c6d f9bc a7a2 dbbd 1a6b f7bd 3c56 83bd
00000050: 4c04 9fbb ba57 efbc df18 c9bd 7eba 86bd
00000060: 9940 85ba b5ae 9bbc 51ca e5ba 349f 653c
00000070: c48d e63c f690 953c 3f28 453d cae7 3d3d
00000080: 16b6 02be dbb0 07be 4197 0fbe 3fad 06be
00000090: 265e 643d d753 103d e479 aa3c 400d 943d
000000a0: 488b 873d 2fd5 693d fbf6 743d 9871 8b3d
000000b0: 3ddf 2bbc 0e3f 923c ee5d a23c dadc 063c
000000c0: c64f 65bc 9779 bbbc 0261 febc aaf3 72bc
000000d0: e067 c8bc 22ad 94bd dce4 6cbd 5730 49bc
000000e0: 3ba3 343c 4d32 ebbc 2827 d0bc 3f3c a93c
000000f0: 7357 873c ecc5 513c 7de9 c83b 2cc2 2e3c
00000100: 43f8 d63b 29fd 4ebd 70b9 19bd c39e aabb
00000110: b98d 4d3d dd80 543d 9c0a 5c3d dacc 353d
00000120: eb24 01bc 1e51 073c 4d63 813c 1e26 fe3a
00000130: d944 30bd 0fc7 0cbd c78a cbbc 0dbd 56bd
00000140: 6b1d 723c 3d9b 9e3d 64a0 c33d 72e9 303d
00000150: 1c43 bb3d b4b9 283e b0b1 2f3e 2501 b23d
00000160: f7be 41bd 5d0f dabc 6375 c1bc ad9d 3fbd
00000170: c85b 35bd 2a72 fabb 21f5 67bb 0e8f 4dbd
00000180: 66fd 963e 201f 783e 8afe 1e3e 14e2 e63d
00000190: 04e9 d0be ed9b 58be 1606 d7bd d659 4ebe
000001a0: 3163 2bbd 7608 693b d7ff ce3c 56ae 92bd
000001b0: e051 093e 5a51 d6bd 62a2 97bd 4805 d43d
000001c0: 23ef 27bd 0d74 39bd a74a 49bd 0700 3cbd
000001d0: 2b29 0d3c 56c3 c53c e358 653c 0db3 493a
000001e0: 759b bc3b 5edb d23c 0812 bf3c cb61 1c3c
000001f0: dbc1 d7bc d406 aa3b e72f 2d3b 6a84 7abc
00000200: c13e bfbb 1b98 84bc 4e65 13bd a807 8bbc
00000210: 9e8c 6bbc 530a e8bc 1017 15bd e09e c0bc
00000220: e379 1abb d261 71bc 9140 0bbc 32cd 05ba
00000230: d454 fc3b a4ef f73b 8754 083c e8fe 0e3c
00000240: 18fd 55bc 5274 0dbd 821a c6bc e474 edba
00000250: 0536 d7bc 721b 16bd eb1e 13bc 45e5 5a3a
00000260: 7605 c6bc 7ace bdbc e2fb 8cbc f481 74bb
00000270: 1534 2f3b e818 0d3b 6393 32bb 98bd a6b9
00000280: da33 d13c d086 813d 748d c53d 0b3a 9a3d
00000290: d157 f83c 40d3 933d 6d90 343d 9a83 d83b
000002a0: 97d3 fabc 0634 58bd 7381 b1bd 026d 99bd
000002b0: 23a0 78bc 20d8 76bc 72f9 b6bc 9bfe 09bd
000002c0: c22a 853d 92fd fe3d 632e fc3d f8dd 963d
000002d0: 3f6b 04bc cedc ac3c 3a3b 793d 5e7e f43c
000002e0: f89d 65bd eb4f cdbd 5da1 5ebd 26b6 c4bc
000002f0: c090 42bd 7cb5 49bd 8788 79bd d060 83bd
00000300: fd2f 2a3d 06cd 383d f890 4d3d 1d86 1b3d
00000310: cddc 843c 0001 8b3d dfb9 703d 2f88 c33c
00000320: 5aab b63c 955f afb9 d26b 90bd a612 22bd
00000330: 1802 16bd c23c d7bc 07ff 10bd 0281 2abd
00000340: 2feb 87bd 8d7d 02be 78b2 bcbd f481 55bc
00000350: d5a7 59bd 0cc5 e1bd 8d19 73bd 6daa bfba
00000360: f0e9 493d 60f0 ce3c 02de f6bb d9ed da3b
00000370: 2ba5 8d3d bfee 813d 9eb7 303c f361 9f3c
00000380: e79a db3b 6d59 c9bc 7ac8 f9bc ef86 13bc
00000390: 8274 383d 735f 803c afcb 2f3d 973e 783d
000003a0: 01f4 303d 3aef ba3c dea4 2e3d 5513 763d
000003b0: 9b57 ddbb 4df9 57bc 85e6 09bc 34d6 f7bb
000003c0: 2fd7 cdbe 9793 d0be eea9 aebe 5fd8 61be
000003d0: 3a2c ed3e b40f 9f3e 8780 603e edcc 833e
000003e0: 9b83 25bc 7ecb 813d a412 3a3d d83a e73c
000003f0: 3d65 90be 4ad0 d13d 9c1d cd3d 6d7e 8fbe

2.bias f4 [32]
-0.008852647 -0.10127371 -0.11934527 -0.010983568 -0.101661645 -0.14465138 -0.020650828 0.039564256
-0.13433793 -0.1393597 -0.09543765 1.007104 0.0516254 0.021701723 -0.14671285 0.6167722
-0.22091053 -0.41310903 0.07590494 0.24680421 -0.103072464 -0.11546267 -0.09906135 0.10991814
-0.09273537 -0.0718676 -0.1833308 -0.1791199 0.72086227 -0.105005994 -0.2064809 0.1022882
00000000: b10a 11bc 9768 cfbd 4b6b f4bd 6cf4 33bc
00000010: fb33 d0bd 7e1f 14be ed2b a9bc 210e 223d
00000020: e28f 09be 4fb4 0ebe d174 c3bd c9e8 803f
00000030: 2875 533d d0c7 b13c e53b 16be c8e4 1d3f
00000040: 5f36 62be 0783 d3be 0d74 9b3d 3eba 7c3e
00000050: a817 d3bd b177 ecbd ade0 cabd c31c e13d
00000060: 0bec bdbd 522f 93bd 12bb 3bbe 356b 37be
00000070: 6e8a 383f 620d d7bd bb6f 53be 7a7c d13d

5.weight f4 [100, 2048]
-0.09861394 0.030077389 0.2754713 0.19595116 0.03693417 -0.15436798 0.046068296 0.20829856
-0.1255999 0.05820521 0.15416366 0.11621114 -0.008773185 -0.11050323 -0.057424877 0.06791613
0.02335229 0.031265534 0.12456678 -0.048180543 -0.3035909 -0.40356004 -0.3671533 -0.29921523
-0.5571328 0.028985249 0.019110857 -0.3954327 -0.48336375 -0.54487747 -0.32759967 -0.031211857
-0.7632881 -0.4434915 -0.5010194 -0.11290407 -0.23456204 -0.0010264731 0.26657742 0.53722876
-0.9383989 -0.81914383 -0.6357012 -0.10051197 0.2076646 0.5354264 0.7866033 0.91633594
-0.6132731 -0.40367565 -0.26757452 -6.422352e-05 0.11789052 0.17626764 0.48123896 0.50786173
-0.37289447 -0.013189981 0.056024835 0.010138147 -0.030188862 -0.10997235 -0.056815397 0.15915738
-1.2594237 -0.26322272 0.19124863 0.13184655 -0.09435112 -0.13164534 -0.31458902 -0.14055575
-0.041533094 0.060967345 0.073181115 0.06548429 0.021564897 -0.006314153 -0.10064207 -0.17216586
0.23302211 0.17648847 0.21653806 0.17590463 0.101824194 0.031185206 -0.07406694 -0.25464118
0.37589738 0.21493466 0.28160018 0.32592037 0.21380547 0.17828532 0.03880584 -0.18838197
0.1459502 0.07822786 0.11182765 0.23156211 0.36920547 0.30333197 0.06458577 -0.019399952
-0.250049 -0.033753928 -0.030532494 0.15020186 0.31870887 0.14790365 -0.016215017 0.026925832
-0.24197842 -0.095011085 -0.09632631 0.079738945 0.09079057 -0.012490713 -0.058813654 0.010027364
-0.07798816 0.013615286 -0.12367864 -0.079676114 0.046272118 0.04502666 -0.043349642 -0.029654812
0.040641304 -0.07646309 -0.26068616 -0.13358693 -0.12937674 -0.10237219 0.021017076 0.06396064
0.056648057 -0.035034463 -0.22053842 -0.15717843 -0.06321167 -0.023093939 0.08844529 0.106498085
0.07989528 0.06498778 -0.13900705 -0.19538897 -0.18984261 -0.09435168 -0.09669967 -0.109639354
-0.0036257808 0.13718352 -0.012257913 -0.17505419 -0.37724426 -0.2105269 -0.20304666 -0.28156793
-0.06849088 0.0490827 0.13609962 -0.18330418 -0.30602276 -0.11366658 -0.08989059 -0.23681329
-0.087477565 -0.015911581 -0.104266964 -0.20134155 -0.26310962 -0.14454924 0.090257734 -0.09692134
-0.047383063 -0.04028368 -0.20690311 -0.15180635 -0.2552478 -0.18029802 0.1339015 0.062296666
-0.08870009 -0.13104373 -0.06486776 0.017792001 -0.17556922 0.009705031 0.2421262 0.015325361
-0.0338554 0.002482192 -0.010909115 -0.023106324 0.023584275 0.03254406 0.054226648 0.03508666
0.007907963 -0.014337046 -0.035146046 -0.050154716 0.07184341 0.08360604 0.08648157 0.047698177
-0.09306423 -0.06708103 -0.18790087 -0.2655287 0.06609485 0.21097876 0.110228285 0.05737332
-0.18269809 -0.17831318 -0.2915283 -0.31257004 0.013230192 0.19856317 0.19393504 0.14074644
-0.20546316 -0.1952648 -0.19496031 -0.19750758 -0.14277014 -0.050913483 0.15460289 0.25593165
-0.17909296 -0.19955477 -0.19121362 -0.13559583 -0.14828387 -0.06667119 0.14866827 0.19351634
0.044162724 -0.07119974 -0.08389753 -0.040465448 -0.053925663 0.027225066 0.07311158 0.14726928
-0.041081212 -0.07340276 -0.16700554 -0.009532141 0.07693723 0.21011202 0.18222965 0.05584245
00000000: 1bf6 c9bd db64 f63c 930a 8d3e 6ca7 483e
00000010: 4948 173d a412 1ebe 1cb2 3c3d 384c 553e
00000020: 439d 00be 9668 6e3d 14dd 1d3e 1b00 ee3d
00000030: 68bd 0fbc 844f e2bd 5936 6bbd 9d17 8b3d
00000040: 4d4d bf3c 4a10 003d de1c ff3d f658 45bd
00000050: 4470 9bbe 6c9f cebe 84fb bbbe bd32 99be
00000060: 41a0 0ebf 7972 ed3c 5f8e 9c3c 2876 cabe
00000070: 747b f7be 177d 0bbf 25bb a7be 02b0 ffbc
00000080: d966 43bf 5111 e3be cf42 00bf 403a e7bd
00000090: 0831 70be b98a 86ba d67c 883e d387 093f
000000a0: e93a 70bf 69b3 51bf 50bd 22bf 38d9 cdbd
000000b0: 07a6 543e b411 093f d55e 493f fe94 6a3f
000000c0: 77ff 1cbf 93ae cebe 87ff 88be bdaf 86b8
000000d0: 9670 f13d 817f 343e f464 f63e 3a03 023f
000000e0: 06ec bebe ca1a 58bc 4c7a 653d 781a 263c
000000f0: a24e f7bc 2f39 e1bd 43b7 68bd 27fa 223e
00000100: cc34 a1bf 21c5 86be aed6 433e c802 073e
00000110: 293b c1bd 09ce 06be d011 a1be d9ed 0fbe
00000120: 9b1e 2abd e5b8 793d fbdf 953d a11c 863d
00000130: dea8 b03c f4e6 cebb 6e1d cebd 3f4c 30be
00000140: 599d 6e3e 65b9 343e 27bc 5d3e 5820 343e
00000150: 3489 d03d 1e78 ff3c 68b0 97bd 5460 82be
00000160: 9f75 c03e d517 5c3e e62d 903e 09df a63e
00000170: d2ef 5a3e 6d90 363e dff2 1e3d 34e7 40be
00000180: f873 153e ee35 a03d e505 e53d 9e1e 6d3e
00000190: 8008 bd3e 544e 9b3e 8b45 843d a6ec 9ebc
000001a0: 6c06 80be 8f41 0abd 481f fabc 84ce 193e
000001b0: cf2d a33e 0e74 173e 5bd5 84bc 9093 dc3c
000001c0: 31c9 77be 2c95 c2bd ba46 c5bd 2c4e a33d
000001d0: 68f0 b93d d9a5 4cbc 96e6 70bd d049 243c
000001e0: 42b8 9fbd a612 5f3c 3a4b fdbd 3b2d a3bd
000001f0: d587 3d3d e06d 383d 658f 31bd a6ee f2bc
00000200: 7f77 263d ae98 9cbd a878 85be 03cb 08be
00000210: 567b 04be 83a8 d1bd 012c ac3c ccfd 823d
00000220: cb07 683d 4c80 0fbd d3d4 61be 62f3 20be
00000230: 1f75 81bd 802f bdbc ce22 b53d ab1b da3d
00000240: 23a0 a33d 5018 853d dd57 0ebe 0c14 48be
00000250: 1a66 42be 743b c1bd 7a0a c6bd 998a e0bd
00000260: 829e 6dbb d679 0c3e 6ad5 48bc 6841 33be
00000270: 2926 c1be 5d94 57be 77eb 4fbe ac29 90be
00000280: f244 8cbd f10a 493d b35d 0b3e 17b4 3bbe
00000290: 04af 9cbe 06ca e8bd 8f18 b8bd 2f7f 72be
000002a0: 7027 b3bd 0159 82bc eb89 d5bd 7b2c 4ebe
000002b0: 4eb6 86be b704 14be 0cd9 b83d b27e c6bd
000002c0: be14 42bd 8000 25bd 69de 53be 2073 1bbe
000002d0: d7af 82be 0ba0 38be 7a1d 093e ca2a 7f3d
000002e0: 65a8 b5bd 5430 06be 63d9 84bd 88c0 913c
000002f0: 6bc8 33be da01 1f3c eeef 773e 3917 7b3c
00000300: f6ab 0abd 45ac 223b 25bc 32bc 7949 bdbc
00000310: cf33 c13c ec4c 053d c31c 5e3d 08b7 0f3d
00000320: 6790 013c eee5 6abc 4df5 0fbd 086f 4dbd
00000330: a322 933d a539 ab3d 401d b13d 2a5f 433d
00000340: 7698 bebd c761 89bd 1669 40be 61f3 87be
00000350: bd5c 873d d10a 583e 5ebf e13d 4900 6b3d
00000360: 3515 3bbe bb97 36be 3343 95be 2e09 a0be
00000370: 72c3 583c 2554 4b3e e896 463e d61f 103e
00000380: ef64 52be 7ff3 47be ada3 47be 6d3f 4abe
00000390: 5632 12be a88a 50bd 3850 1e3e 7909 833e
000003a0: 2564 37be 1658 4cbe 81cd 43be a2d9 0abe
000003b0: bad7 17be e88a 88bd 7f3c 183e 2629 463e
000003c0: f9e3 343d 2bd1 91bd 78d2 abbd 19bf 25bd
000003d0: 28e1 5cbd 1a07 df3c 86bb 953d c2cd 163e
000003e0: c644 28bd 3054 96bd 8003 2bbe b22c 1cbc
000003f0: 4491 9d3d 9b27 573e 699a 3a3e 0ebb 643d

5.bias f4 [100]
1.5183247 -0.019670062 1.1888512 4.5369864 2.8912885 1.3602737 2.4629393 0.32938212
-0.9650132 -0.024438528 -1.8588566 -0.03025635 0.82759666 5.512566 0.843187 6.6563897
-0.02366137 1.9382837 2.996589 -0.027497442 1.8061211 -0.029281497 -0.04003633 -0.03240199
0.17862996 -0.020672169 -0.023454996 -0.01963732 -0.07220883 0.46953273 -0.035691958 -1.7364634
0.4773398 -0.017704537 0.053296324 1.4060565 2.3810956 -0.03522729 1.7084086 -0.026738198
-0.016118016 -0.70198447 1.7556114 -0.5388448 -0.027839592 -0.043919403 2.8829207 -0.061223328
-0.031631302 2.3313735 4.8753443 -0.017156249 -0.020237042 -0.9733437 -0.017385587 2.0797741
4.0030103 5.8207927 0.62110543 1.8872288 -0.01966979 1.0593475 2.374324 -0.04067283
5.7932 -0.034167502 -0.025425011 3.851465 -0.5298963 3.4070876 -0.023052622 0.755964
-4.041267 -0.024636375 -0.04295628 -0.02009556 -0.023372682 -0.029999733 5.1869206 0.15881316
-0.038636163 -0.027480904 -0.024479464 -0.06779333 -0.025876898 0.70259774 -0.8995746 -0.025211073
-0.023852922 -0.069939844 0.098004214 -0.022580052 0.8862483 -0.012205646 -0.02231884 -0.023521889
0.10579565 2.0764713 -0.023201317 -0.024224112
00000000: 7758 c23f 1c23 a1bc 472c 983f fe2e 9140
00000010: df0a 3940 731d ae3f cca0 1d40 c6a4 a83e
00000020: 1b0b 77bf 4f33 c8bc 03ef edbf 2adc f7bc
00000030: 60dd 533f f166 b040 1adb 573f 2501 d540
00000040: 7dd5 c1bc ae19 f83f 1dc8 3f40 5142 e1bc
00000050: fa2e e73f c0df efbc 23fd 23bd f3b7 04bd
00000060: c6ea 363e ae58 a9bc b124 c0bc 72de a0bc
00000070: 39e2 93bd 9866 f03e bb31 12bd 6f44 debf
00000080: e265 f43e 1b09 91bc 3f4d 5a3d a9f9 b33f
00000090: df63 1840 7e4a 10bd 22ad da3f 110a dbbc
000000a0: ee09 84bc 41b5 33bf e0b7 e03f bcf1 09bf
000000b0: db0f e4bc d5e4 33bd c681 3840 50c5 7abd
000000c0: d38f 01bd 3935 1540 d202 9c40 438b 8cbc
000000d0: 27c8 a5bc 0d2d 79bf 386c 8ebc 051b 0540
000000e0: a918 8040 ef43 ba40 c400 1f3f b790 f13f
000000f0: 8a22 a1bc b398 873f edf4 1740 8e98 26bd
00000100: e561 b940 39f3 0bbd 1d48 d0bc 677e 7640
00000110: 49a7 07bf b90d 5a40 dad8 bcbc db86 413f
00000120: 0f52 81c0 39d2 c9bc edf2 2fbd 729f a4bc
00000130: 1178 bfbc 00c2 f5bc 41fb a540 eb9f 223e
00000140: f440 1ebd a21f e1bc 2889 c8bc 3bd7 8abd
00000150: cafb d3bc 72dd 333f 854a 66bf 7487 cebc
00000160: 3467 c3bc 9f3c 8fbd 6fb6 c83d cdf9 b8bc
00000170: 2be1 623f 31fa 47bc 00d6 b6bc fab0 c0bc
00000180: 64ab d83d e8e4 0440 b010 bebc a571 c6bc

7.weight f4 [10, 100]
-0.20978743 0.04410396 -0.3434052 -0.02910015 -0.0007208996 -0.1349265 -0.12722541 -0.44432843
-0.113827296 -0.009367038 -0.07720005 -0.08628423 -0.3512145 -0.27158597 -0.21762815 -0.13895646
-0.042187903 -0.09818347 -0.0870279 -0.011971983 -0.4774238 -0.10085196 0.0626759 0.08519473
-0.3241165 0.03506414 0.05997604 -0.1489325 0.015153771 0.0102432165 -0.049069226 -0.3027677
-0.20284054 0.16463445 0.032480698 -0.07529611 -0.12519054 -0.021838294 -0.07411182 -0.056758292
0.047845148 -0.08909521 -0.16753283 -0.1379815 0.04302884 0.12951179 -0.08727211 0.056552548
0.010340957 -0.4650977 -0.1848568 -0.042610236 -0.1329135 -0.15100047 -0.099405274 -0.46490613
-0.14105903 -0.09303337 -0.18560353 -0.18272145 -0.02184444 0.00289742 0.15815642 -0.009014627
-0.13089794 0.08418295 -0.0753881 -0.2082102 -0.18150854 -0.22652115 0.07874879 -0.30270648
-0.60930043 -0.03484874 0.007777477 0.08110511 -0.0010969794 -0.042211406 -0.02792744 -0.15203787
0.047165878 -0.0044507417 -0.04125292 -0.08994078 0.10999612 -0.16087197 -0.38823098 0.10923288
-0.09486062 -0.25747377 -0.18705422 0.05460206 -0.115139924 0.07486449 0.17798223 0.18412936
0.019494459 -0.27137712 -0.04501687 0.043097347 -0.17485374 -0.039096314 -0.37375557 -0.046483617
-0.10497263 -0.039164778 -0.15393415 -0.31342947 -0.15850201 0.11235746 -0.07226534 -0.03417499
-0.35244063 -0.27726626 -0.24102786 -0.12794648 0.07811235 -0.18710303 0.031182012 0.02114624
-0.40449002 0.13202915 -0.12511663 0.030417759 -0.34621271 -0.0027010436 -0.060839135 -0.22280692
-0.006849539 -0.023683071 0.11842155 -0.3802194 -0.22436377 -0.046940994 -0.09996335 0.062411495
-0.12611507 -0.08457132 -0.17735457 0.04307888 0.06441606 -0.16704138 -0.1882588 -0.042570345
-0.09623704 -0.063585564 -0.20105165 -0.05528883 -0.08045139 -0.44256094 -0.12932049 0.04691904
0.07985941 -0.18857364 0.016479064 -0.4643297 -0.18763962 -0.107151374 -0.1796586 -0.19430596
-0.07066326 -0.1327981 0.10086964 -0.030629382 -0.16894807 0.008326349 -0.021132918 -0.2689016
-0.18503796 -0.332963 -0.15265983 -0.32340115 -0.5940233 -0.10138079 0.03654428 0.068200774
0.13473254 0.29103288 0.13023761 -0.19672756 -0.20021278 0.079787694 -0.0021881477 -0.0446071
-0.013637401 -0.23363742 -0.28154883 0.013255413 -0.08912169 -0.3216237 -0.20576848 0.1402907
0.043609258 0.043651886 -0.17548488 -0.12492697 -0.012673366 -0.27878374 0.14682895 -0.06768799
-0.18595062 -0.039352145 -0.33923915 -0.010059549 -0.055774268 0.03852442 -0.1257999 -0.46276993
-0.007971536 0.0060945577 -0.05800181 0.010857638 -0.29221228 -0.18986677 -0.25941727 -0.13845524
-0.114031106 -0.13346697 -0.11270757 -0.0029612703 -0.49281266 0.1239195 -0.05812378 -0.06826844
-0.2536464 -0.08806094 -0.06796369 0.032639515 -0.019774439 0.16270922 -0.21446104 -0.2784332
-0.22256848 0.019988973 -0.090879545 -0.09800242 -0.12957928 -0.12964243 -0.13662525 -0.07312794
0.10011387 -0.040658824 -0.09365725 -0.17397784 0.02577809 0.09103424 -0.082554884 -0.16028729
0.027202105 -0.4647835 -0.08949432 -0.04309327 -0.003104151 -0.057012487 -0.02270181 -0.47408402
00000000: 84d2 56be 5ba6 343d ced2 afbe 7063 eebc
00000010: c1fa 3cba 2c2a 0abe 6147 02be 047f e3be
00000020: 491e e9bd 3478 19bc 0f1b 9ebd c9b5 b0bd
00000030: 63d2 b3be 510d 8bbe ead9 5ebe 9a4a 0ebe
00000040: 39cd 2cbd 6a14 c9bd af3b b2bd 2326 44bc
00000050: e470 f4be 798b cebd 395c 803d 937a ae3d
00000060: 99f2 a5be 6a9f 0f3d 70a9 753d c381 18be
00000070: 8647 783c 2ad3 273c d0fc 48bd 5e04 9bbe
00000080: 6eb5 4fbe ef95 283e 7b0a 053d d934 9abd
00000090: f331 00be 39e6 b2bc f0c7 97bd 627b 68bd
000000a0: 46f9 433d 8d77 b6bd ba8d 2bbe 064b 0dbe
000000b0: 023f 303d bd9e 043e b8bb b2bd a5a3 673d
000000c0: 1e6d 293c 4921 eebe 1a4b 3dbe 1288 2ebd
000000d0: 7a1a 08be de9f 1abe fe94 cbbd 2d08 eebe
000000e0: c771 10be 4888 bebd da0e 3ebe 551b 3bbe
000000f0: 1cf3 b2bc a4e2 3d3b c2f3 213e 16b2 13bc
00000100: 1c0a 06be 1c68 ac3d 1465 9abd 0e35 55be
00000110: 60dd 39be 29f5 67be 0c47 a13d 58fc 9abe
00000120: 1dfb 1bbf 8dbd 0ebd 35da fe3b 701a a63d
00000130: 85c8 8fba dee5 2cbd 16c8 e4bc d1af 1bbe
00000140: 0231 413d 87d7 91bb d2f8 28bd df32 b8bd
00000150: a545 e13d 9fbb 24be 36c6 c6be 7db5 df3d
00000160: 4946 c2bd 9ad3 83be 248b 3fbe 69a6 5f3d
00000170: 7bce ebbd 8e52 993d f940 363e 688c 3c3e
00000180: d8b2 9f3c f1f1 8abe 9c63 38bd d886 303d
00000190: dc0c 33be 7523 20bd e45c bfbe 9b65 3ebd
000001a0: e4fb d6bd 3f6b 20bd eaa0 1dbe d479 a0be
000001b0: 5a4e 22be ab1b e63d daff 93bd 13fb 0bbd
000001c0: 1973 b4be d8f5 8dbe 02d0 76be 6704 03be
000001d0: 5ef9 9f3d f097 3fbe 6b71 ff3c e13a ad3c
000001e0: 5119 cfbe a632 073e 931e 00be aa2e f93c
000001f0: cb42 b1be fe03 31bb 7532 79bd 7f27 64be
00000200: 1972 e0bb 0003 c2bc ff86 f23d 1eac c2be
00000210: 9ebf 65be 3345 40bd 96b9 ccbd 32a3 7f3d
00000220: 4f24 01be ba33 adbd 709c 35be 7b73 303d
00000230: 91ec 833d e50c 2bbe eac6 40be 3e5e 2ebd
00000240: ed17 c5bd 2639 82bd 7ce0 4dbe 8a76 62bd
00000250: b3c3 a4bd 5997 e2be 976c 04be 2e2e 403d
00000260: 558d a33d 7319 41be 1aff 863c 9fbc edbe
00000270: 9a24 40be 2e72 dbbd 6df8 37be 24f8 46be
00000280: e6b7 90bd 3afc 07be be94 ce3d 78ea fabc
00000290: b900 2dbe 3d6b 083c f11e adbc 78ad 89be
000002a0: 977a 3dbe 207a aabe dc52 1cbe d694 a5be
000002b0: e911 18bf bba0 cfbd 74af 153d d9ac 8b3d
000002c0: 54f7 093e 4302 953e 025d 053e f372 49be
000002d0: 9404 4dbe bb67 a33d 0767 0fbb efb5 36bd
000002e0: 686f 5fbc a63e 6fbe 2b27 90be 3b2d 593c
000002f0: 6f85 b6bd ddab a4be f9b4 52be 5ea8 0f3e
00000300: 9f9f 323d 52cc 323d 4fb2 33be b6d9 ffbd
00000310: f3a3 4fbc bebc 8ebe 545a 163e 00a0 8abd
00000320: d769 3ebe b72f 21bd c1b0 adbe ced0 24bc
00000330: 8f73 64bd c8cb 1d3d b0d1 00be 2ef0 ecbe
00000340: 0c9b 02bc dbb4 c73b 4e93 6dbd 3ce4 313c
00000350: d99c 95be 6f6c 42be 57d2 84be 36c7 0dbe
00000360: 2489 e9bd 91ab 08be 3ad3 e6bd df11 42bb
00000370: f151 fcbe 82c9 fd3d 3313 6ebd 53d0 8bbd
00000380: f1dd 81be 4b59 b4bd 8c30 8bbd 03b1 053d
00000390: 01fe a1bc 3f9d 263e ad9b 5bbe cc8e 8ebe
000003a0: fee8 63be eabf a33c 0e1f babd 7eb5 c8bd
000003b0: 6eb0 04be fcc0 04be 7de7 0bbe 1ac4 95bd
000003c0: 8008 cd3d de89 26bd 5fcf bfbd 3f27 32be
000003d0: 932c d33c 2970 ba3d 8912 a9bd 5a22 24be
000003e0: f3d6 de3c 1af8 edbe cc48 b7bd 9282 30bd
000003f0: 036f 4bbb ed85 69bd 25f9 b9bc 24bb f2be

7.bias f4 [10]
-1.1206114 -0.42776558 -0.78810817 0.04371859 0.62593275 0.3485544 1.786724 0.33087867
-0.8123284 0.047601767
00000000: 3270 8fbf 1704 dbbe 75c1 49bf 4412 333d
00000010: 213d 203f b975 b23e 5fb3 e43f ee68 a93e
00000020: c1f4 4fbf 12fa 423d
