complete_verifier/models/sdp/cifar_cnn_a_adv.model (torch, 862519 bytes, 8 tensors)

0.weight f4 [16, 3, 4, 4]
0	0xbd9a984b	-0.07548579
1	0xbce1f8a6	-0.027584385
2	0xbdeb5bf3	-0.11492147
3	0xbc6760b7	-0.01412218
4	0xbc40b4cf	-0.011761858
5	0xbd833bf1	-0.06407917
6	0xbbe8ebbd	-0.0071081803
7	0x3c16d10a	0.009205112
8	0x3d44b52a	0.048024334
9	0x3cc445dd	0.023959095
10	0x3df9abe4	0.12190989
11	0x3c9d2646	0.01918329
12	0x3c4f164b	0.012639592
13	0x3d973e2c	0.07384905
14	0x3c16cbb3	0.009203839
15	0x3c8cae2b	0.017172894
16	0xbd56a9f2	-0.052408166
17	0xbc8e9f60	-0.01740998
18	0xbdb0b710	-0.086286664
19	0xbc0cbec0	-0.0085904
20	0xbc123762	-0.008924337
21	0xbd5abec5	-0.05340459
22	0xbb86506a	-0.0040989416
23	0x3c0fc0b1	0.008773969
24	0x3cec71a0	0.028862774
25	0x3c9755e5	0.018473575
26	0x3db0576d	0.08610425
27	0x3c6a70bb	0.014309104
28	0x3c1feecb	0.0097615225
29	0x3d644d7d	0.05573796
30	0x3be0f825	0.0068655186
31	0x3b9610d7	0.004579644
32	0xbd2b9239	-0.041887496
33	0xbca06888	-0.019581094
34	0xbd93f088	-0.07223612
35	0xbc133eb8	-0.008987121
36	0xbc1e1b4e	-0.009650065
37	0xbd93c925	-0.072161
38	0xbb916ab5	-0.0044377693
39	0x3c20311d	0.0097773345
40	0x3cec6e27	0.028861118
41	0x3c9c5fa4	0.019088574
42	0x3d9aa87b	0.07551666
43	0x3c88340b	0.016626379
44	0x3c1e0649	0.009645053
45	0x3d9bc1dd	0.07605336
46	0x3c0200c3	0.007934752
47	0x3c4975b0	0.012296125
48	0x3c5a6c3b	0.013331468
49	0x3c8f7f8d	0.017516876
50	0x3d504d0f	0.05085474
51	0xbae70620	-0.0017625727
52	0x3c86e348	0.016465798
53	0x3e160f8b	0.14654367
54	0x3b4a9e1e	0.0030917
55	0xbd30b1de	-0.043138377
56	0x3d8f682e	0.070022926
57	0x3c346d7b	0.01101243
58	0xbe04c797	-0.12966762
59	0xbcdb0314	-0.026734866
60	0xb90d58b0	-0.00013479847
61	0xbd22f325	-0.039782662
62	0xbcb4d130	-0.022072405
63	0xbd61eb56	-0.055156074
64	0x3c5930f0	0.0132562965
65	0x3c7d948d	0.015477312
66	0x3d25b696	0.04045733
67	0xba5a5046	-0.0008328002
68	0x3c84d515	0.016214887
69	0x3e00f061	0.12591697
70	0x3b89ff81	0.0042113666
71	0xbd232b9c	-0.03983651
72	0x3d65fdda	0.056150295
73	0x3c260efc	0.0101354085
74	0xbde48d57	-0.11159771
75	0xbca65620	-0.02030474
76	0x3a529f94	0.0008034643
77	0xbd12edfe	-0.0358715
78	0xbc9f4ed1	-0.019446762
79	0xbd4e5690	-0.05037552
80	0x3b87463f	0.004128247
81	0x3c6fc2bc	0.014633831
82	0x3d0aa005	0.033844013
83	0xba3f1984	-0.0007289874
84	0x3c84ecbc	0.016226165
85	0x3e1dc81a	0.15408364
86	0x3b89e9fb	0.004208801
87	0xbd3cb9d9	-0.046075676
88	0x3d395641	0.045248274
89	0x3c17f39c	0.00927439
90	0xbdb8e6f8	-0.09028429
91	0xbcab2acb	-0.020894429
92	0x3a0d3430	0.00053864997
93	0xbd383a35	-0.044977386
94	0xbc9941bb	-0.0187081
95	0xbd7da9bd	-0.061929453
96	0xbc3f87ac	-0.011690062
97	0xbb1245eb	-0.0022319506
98	0xbc8f8a2a	-0.017521936
99	0xbb0b8c29	-0.0021293259
100	0xbabdd8f0	-0.0014484208
101	0xbcb9c141	-0.022675158
102	0xbb6c9025	-0.003609666
103	0xbc8f597b	-0.017498722
104	0xbcc435fb	-0.023951521
105	0xbbcc8196	-0.006241034
106	0xbd0cf7d3	-0.03441603
107	0xbbb55448	-0.0055337287
108	0xbb16bf83	-0.0023002333
109	0xbc9a88c2	-0.01886404
110	0xbba559c6	-0.005046102
111	0xbc607028	-0.013698615
112	0xbc49ca95	-0.012316366
113	0xbb1cf268	-0.0023948196
114	0xbc9590f3	-0.018257594
115	0xbb6a28b8	-0.0035729837
116	0xbb2afaa6	-0.002608934
117	0xbc960253	-0.018311655
118	0xbb8ccf43	-0.0042971685
119	0xbc96d428	-0.01841171
120	0xbc8be657	-0.017077608
121	0xbb8aee80	-0.004239857
122	0xbcd365a3	-0.0258053
123	0xbbb69159	-0.005571526
124	0xbaf4a69a	-0.0018665374
125	0xbc4b8e73	-0.012424099
126	0xbba743e7	-0.00510453
127	0xbc3e4c6c	-0.0116149
128	0xbc2d98b9	-0.010595494
129	0xbb6f03ec	-0.0036470843
130	0xbc7e2c02	-0.015513422
131	0xbb834081	-0.004005492
132	0xbb20ce0d	-0.0024536878
133	0xbcc63091	-0.02419308
134	0xbba758d3	-0.005107024
135	0xbcc2ef87	-0.023795856
136	0xbc78f850	-0.015195921
137	0xbbab3a79	-0.0052254763
138	0xbcc8ee44	-0.024527676
139	0xbbdcfd22	-0.006744043
140	0xbb083b97	-0.0020787471
141	0xbc9f126e	-0.019417968
142	0xbbaac696	-0.0052116616
143	0xbc83c4df	-0.016085086
144	0xbd15cb57	-0.036570873
145	0xbc1049ef	-0.00880669
146	0xbd2307e8	-0.03980246
147	0xbbfcad54	-0.007711092
148	0xbba543b2	-0.0050434703
149	0xbd6a9301	-0.0572691
150	0xbc3bd3ea	-0.0114640985
151	0xbd3998db	-0.04531179
152	0xbd2445d0	-0.04010564
153	0xbc96179f	-0.01832181
154	0xbdacdd1f	-0.08440613
155	0xbc6b7b62	-0.0143726785
156	0xbb7cbc14	-0.0038564252
157	0xbd45e59c	-0.048314676
158	0xbc36b041	-0.011150421
159	0xbd1e0412	-0.0385781
160	0xbc942a22	-0.018086497
161	0xbb83bd65	-0.0040203803
162	0xbbcca06a	-0.006244709
163	0xbb76f659	-0.0037683456
164	0xbac8a232	-0.0015307127
165	0xbc763e35	-0.01502948
166	0xbb110ad4	-0.0022131698
167	0xbc50b506	-0.012738472
168	0xbc31c5f5	-0.010850419
169	0xbb2c779c	-0.002631641
170	0xbc6a198d	-0.014288318
171	0xbb67eef3	-0.0035390228
172	0xbaaa11d4	-0.0012975284
173	0xbc39c445	-0.011338298
174	0xbaf7a096	-0.0018892463
175	0xbc6173e1	-0.013760538
176	0x3c337718	0.010953687
177	0x3c54fa23	0.01299909
178	0x3d3ebafc	0.04656504
179	0x3ba8b9ed	0.005149117
180	0x3c43f309	0.0119598
181	0x3dd64f8a	0.104643896
182	0x3cc75752	0.02433363
183	0x3d888834	0.06666604
184	0x3d48488c	0.04889731
185	0x3ccc87da	0.024967123
186	0x3dd15d5f	0.10222887
187	0x3c8c9963	0.017162984
188	0x3b6118a2	0.0034346958
189	0x3d988e6c	0.0744904
190	0x3c889765	0.016673753
191	0x3d43381e	0.04766094
192	0x3bdd74fe	0.0067583313
193	0x3b1e1e42	0.0024126922
194	0x3c647781	0.013944508
195	0x3a80bd1d	0.0009821985
196	0x3b2d57db	0.002645007
197	0x3cb40a4a	0.021977562
198	0x3b9d8d92	0.0048081363
199	0x3c81ff1e	0.01586872
200	0x3ce11969	0.027477937
201	0x3c1a27f8	0.009408943
202	0x3cfa64ee	0.030565705
203	0x3b9db7ee	0.004813186
204	0x3b03c8c6	0.0020108684
205	0x3c8945bb	0.016756883
206	0x3b540db2	0.0032356796
207	0x3c0bcd3a	0.008532817
208	0x3b923472	0.0044618184
209	0x3a7e3811	0.00096976856
210	0x3c18c402	0.009324076
211	0x3a574300	0.0008211583
212	0x3adca8a0	0.0016834922
213	0x3c74b03d	0.014934597
214	0x3b7c77cd	0.0038523555
215	0x3c1c0203	0.009521964
216	0x3c8e734a	0.017388958
217	0x3bb34527	0.00547089
218	0x3c9ac7b5	0.018894056
219	0x3b3ed7bd	0.002912029
220	0x3a988fee	0.0011639574
221	0x3c25627b	0.01009428
222	0x3afa4320	0.0019093491
223	0x3b977410	0.00462199
224	0x3bb6eb0d	0.0055822195
225	0x3a537eb6	0.00080678926
226	0x3c1771ad	0.009243411
227	0x3b0fedd2	0.002196182
228	0x3b4f371c	0.003161854
229	0x3cd51bc0	0.026014209
230	0x3bbd4995	0.005776594
231	0x3ca893b5	0.020578245
232	0x3ca1f273	0.01976893
233	0x3c086b25	0.0083263265
234	0x3cb38dbc	0.02191817
235	0x3badffc5	0.005310031
236	0x3b3d47cc	0.0028881906
237	0x3c8ef400	0.017450333
238	0x3b86c597	0.00411291
239	0x3c45f6e2	0.012082787
240	0xbdad2c8e	-0.08455764
241	0xbbe09bb4	-0.0068544988
242	0x3db2ffdb	0.08740207
243	0x3a204bd0	0.00061148126
244	0xbd062a77	-0.03275534
245	0xbc81a3e2	-0.015825216
246	0x3d0da1b1	0.03457803
247	0x3c810913	0.015751397
248	0xbe098fb2	-0.13433722
249	0xbb121049	-0.0022287539
250	0x3e14dd49	0.14537539
251	0x3a6ca084	0.0009026604
252	0xbc0a3165	-0.008434628
253	0x3b61ff28	0.003448436
254	0x3c1ed351	0.009693936
255	0xbb23bdb7	-0.0024984905

0.bias f4 [16]
0	0xbded0f32	-0.11575164
1	0xbe03279c	-0.12808079
2	0xbe498d82	-0.19682887
3	0xbebf6e3f	-0.373888
4	0x3e296f96	0.16546473
5	0xbda25172	-0.07925691
6	0xbdc5a5f1	-0.096507914
7	0x3dc2dd89	0.09514911
8	0xbdb86ca1	-0.09005094
9	0xbd9e9523	-0.07743289
10	0xbe62e67c	-0.22158235
11	0xbcfb808c	-0.030700944
12	0xbd9cba78	-0.076527536
13	0xbdacc6e6	-0.08436374
14	0x3d4bf2df	0.049792167
15	0xbdb1ca9f	-0.08681225

2.weight f4 [32, 16, 4, 4]
0	0xbda3ca04	-0.07997516
1	0xbc579aeb	-0.013159494
2	0xbe013755	-0.12618764
3	0x3ce04b9a	0.0273798
4	0xbd0f7df2	-0.03503222
5	0x3d229fb5	0.03970309
6	0xbe0b5e3b	-0.13610165
7	0xbcc09cd4	-0.023512281
8	0xbb9089b4	-0.0044109467
9	0xbd9950cd	-0.07486115
10	0xbdd11ba0	-0.10210347
11	0xbd5052fb	-0.050860386
12	0xbe4086e6	-0.1880146
13	0x3cc83f9e	0.024444398
14	0xbd2d908a	-0.04237417
15	0xbc8c7585	-0.017145881
16	0xbdc4abdc	-0.09603092
17	0xbd817da0	-0.06322789
18	0xbdbc4edd	-0.091947295
19	0xbd890785	-0.06690887
20	0xbdbb51ad	-0.09146438
21	0xbe1c020b	-0.15235154
22	0x3ced7dd6	0.028990667
23	0x3d6b6edb	0.057478767
24	0xbd4f34a1	-0.0505873
25	0xbdf986e7	-0.12183934
26	0x3dbe9df6	0.093074724
27	0xbd843efe	-0.06457327
28	0xbd40ce03	-0.047071468
29	0xbdb6e542	-0.08930446
30	0xbd1fc966	-0.039010428
31	0xbde6a742	-0.11262371
32	0xbc94ab00	-0.018147945
33	0x3d60fa4e	0.05492621
34	0xbd911d2d	-0.07085643
35	0xbdb31cf1	-0.087457545
36	0xbd543bb7	-0.05181476
37	0x3c36aa9c	0.011149075
38	0xbc95ae4f	-0.018271593
39	0xbd896221	-0.0670817
40	0xbd896449	-0.06708581
41	0xbe0c1987	-0.13681613
42	0xbe37e1d3	-0.17957239
43	0xbe211391	-0.1573012
44	0xbcc91b1e	-0.024549063
45	0xbe13c963	-0.14432292
46	0xbd8b4683	-0.068005584
47	0xbce9bb24	-0.028531618
48	0xbde6ea2f	-0.11275136
49	0xbd818bcb	-0.063254915
50	0xbd928de4	-0.0715597
51	0xbdd12a1b	-0.10213109
52	0xbd11b907	-0.035576846
53	0xbe76401a	-0.2404789
54	0xbd88078b	-0.06642064
55	0xbd3e42c0	-0.046450377
56	0xbe2555d1	-0.16146018
57	0xbc960ea2	-0.018317524
58	0xbe02e42f	-0.12782358
59	0xbddc5e7f	-0.10760211
60	0xbd0f335c	-0.03496109
61	0x3d28e979	0.041238282
62	0xbd54b369	-0.05192891
63	0xbe088bda	-0.13334599
64	0xbcfe57f5	-0.0310478
65	0xbd1dee81	-0.038557533
66	0x3d4db6cd	0.05022316
67	0xbd51c247	-0.051210668
68	0xbde4c349	-0.1117006
69	0xbe14364c	-0.14473838
70	0xbe49df90	-0.19714189
71	0xbd6e2298	-0.05813846
72	0xbda2eccd	-0.079553224
73	0xbe1eb3a3	-0.15498213
74	0xbd31f5c5	-0.043447275
75	0xbe26a536	-0.1627396
76	0x3c487de1	0.012237043
77	0xbe251b90	-0.16123796
78	0xbc211a3d	-0.009832916
79	0xbe21047f	-0.15724371
80	0xbe0d63e6	-0.1380764
81	0xbc90c060	-0.017669857
82	0xbc375c29	-0.011191406
83	0x3cc9d807	0.024639143
84	0xbcbce8c6	-0.023060214
85	0xbd160af2	-0.036631532
86	0xbd6af06f	-0.0573582
87	0xbdda2ce3	-0.10653093
88	0xbd8cc76d	-0.06873975
89	0x3a83240b	0.0010005248
90	0x3ce199c3	0.02753914
91	0xbdc858b0	-0.09782541
92	0xbda873e6	-0.08225231
93	0xbc608af2	-0.013705002
94	0xbd63fba2	-0.055659898
95	0x3d95ef43	0.07321026
96	0xbe1ee06d	-0.15515299
97	0x3d296db0	0.04136437
98	0xbd25f657	-0.04051813
99	0x3d5b2d53	0.05351002
100	0xbdbc9579	-0.09208197
101	0xbd8b3c3b	-0.067985974
102	0xbe02c3b7	-0.12769972
103	0xbe36d260	-0.17853689
104	0xbdff19cf	-0.124560945
105	0xbdfabeeb	-0.12243446
106	0xbadef4f5	-0.0017010259
107	0xbc9bd6de	-0.019023355
108	0x3d0918d2	0.033470936
109	0xbbe55004	-0.006998064
110	0xbe1a6f92	-0.15081623
111	0xba64e46d	-0.0008731548
112	0xbe3906c9	-0.18068995
113	0x3df20cb9	0.11818833
114	0x3d408945	0.04700591
115	0xbcedd126	-0.029030394
116	0xbdc853f4	-0.09781638
117	0xbda4217b	-0.080141984
118	0xbcb8c61d	-0.022555405
119	0x3d50a159	0.050935123
120	0xbe00d5f1	-0.12581612
121	0xbd42de0d	-0.047575045
122	0x3c405ff3	0.011741626
123	0xbe24952b	-0.16072528
124	0xbce0298b	-0.02736356
125	0x3d0d286a	0.03446237
126	0x3ca8be40	0.02059853
127	0x3dab65de	0.08369039
128	0xbd273b8a	-0.040828265
129	0x3ccc7c8c	0.024961732
130	0xbabd1ceb	-0.0014428174
131	0xbcab9581	-0.020945312
132	0x3c643f1d	0.013931063
133	0x3d80e57a	0.06293769
134	0xbd6f60c3	-0.05844189
135	0x3dae4dd5	0.08510939
136	0xbd35e290	-0.04440552
137	0xbd91ce49	-0.07119424
138	0xbd65f34f	-0.05614024
139	0xbd318ec2	-0.043349035
140	0x3d186caf	0.037213024
141	0xbcfae512	-0.030626807
142	0xbd8b9c4a	-0.06816919
143	0xbd1bd79e	-0.038047425
144	0xbda7611a	-0.081728175
145	0xbde29b5b	-0.11064788
146	0xbd9cea56	-0.076618835
147	0xbce3a0e7	-0.027786685
148	0xbd6a3be7	-0.057186034
149	0xbc56d70e	-0.0131127965
150	0xbd8f1a0a	-0.069873884
151	0x3d871c36	0.06597178
152	0xbd37588c	-0.04476218
153	0xbdf45201	-0.119297035
154	0xbe0117d7	-0.1260675
155	0xbe056571	-0.13026978
156	0x3c228dfd	0.009921548
157	0xbd075420	-0.033039212
158	0xbdbbaf17	-0.09164255
159	0xbc8ceda3	-0.017203158
160	0xbd802b70	-0.06258285
161	0xbd0b59ed	-0.034021307
162	0xbd32453b	-0.043523055
163	0xbdb41ed6	-0.08794944
164	0xbd890d08	-0.06691939
165	0x3c50025c	0.012695875
166	0xbd5e0d0b	-0.054211657
167	0x3d373c01	0.04473496
168	0xbd3c4588	-0.045964748
169	0xbbc5e648	-0.0060394146
170	0xbd003511	-0.031300608
171	0xbd1c66f6	-0.03818413
172	0xbc2eb3e9	-0.010663011
173	0x3d61fd7f	0.055173393
174	0x3b2500ca	0.0025177472
175	0xbd95c668	-0.073132336
176	0xbc34497f	-0.011003851
177	0xbd826d5a	-0.063685134
178	0x3c53005a	0.012878502
179	0x3cd2e31c	0.02574306
180	0xbd31bd88	-0.04339364
181	0xbe17c3dd	-0.1482081
182	0x3db0f1e1	0.08639885
183	0xbe175a83	-0.14780621
184	0xbc8dae11	-0.017294915
185	0xbd9b2b70	-0.075766444
186	0x3c17669a	0.009240771
187	0xbd98ee2a	-0.07467301
188	0xbdc13c25	-0.094353
189	0x3d3fbfdb	0.046813827
190	0xbda97997	-0.082751445
191	0xbc15cc86	-0.0091430005
192	0xbd11abd5	-0.035564262
193	0xbd44bdb8	-0.048032492
194	0xbd4f846d	-0.0506634
195	0xbd81401d	-0.06311057
196	0x3d547024	0.051864758
197	0xbdc2b6fe	-0.09507559
198	0xbe2daf68	-0.16961443
199	0x3cf6ec31	0.030141922
200	0xbcee7715	-0.029109517
201	0xbd4f2623	-0.05057348
202	0xbe491c70	-0.19639754
203	0xbd81be43	-0.06335118
204	0xbd15c296	-0.036562525
205	0xbd4a977f	-0.049460884
206	0xbdc7b559	-0.09751386
207	0xbd9d841d	-0.07691214
208	0xbd42b3a1	-0.04753459
209	0xbdf88bd1	-0.12136043
210	0x3d83456a	0.06409724
211	0xbd205cd6	-0.039151035
212	0x3cb0bc5f	0.021574197
213	0xbd11536b	-0.035479944
214	0x3bac6f0f	0.0052622627
215	0xbd9335d5	-0.07188002
216	0xbc8d2831	-0.017231079
217	0xbdbb2ae5	-0.09139041
218	0xbd8ef486	-0.06980233
219	0x3d0d8328	0.03454891
220	0xbd099cba	-0.03359673
221	0xbde7ac36	-0.113121435
222	0xbe1e3161	-0.15448524
223	0xbe00d219	-0.12580146
224	0xbda03c0d	-0.07823954
225	0xbd4fb719	-0.050711725
226	0x3cd64c02	0.02615929
227	0xbd8c7b87	-0.068594985
228	0xbbe38bcd	-0.006944156
229	0xbd1c1cce	-0.038113408
230	0xbb5fe7ff	-0.003416538
231	0x3dda377d	0.10655115
232	0xbdb71cec	-0.08941063
233	0xbca0e615	-0.019640962
234	0xbd919380	-0.071082115
235	0x3d734bd5	0.05939849
236	0x3d7db6b7	0.06194183
237	0xbd483391	-0.048877303
238	0xbd11201c	-0.035431013
239	0xbd0a278d	-0.033729125
240	0xbd9cd57b	-0.07657906
241	0xbe2958fe	-0.16537854
242	0xbc8ebade	-0.01742309
243	0xbd9b8e08	-0.0759545
244	0xbd6c7d33	-0.057736587
245	0xbe11fb89	-0.1425611
246	0xbd18e5d6	-0.037328564
247	0xbe5c0c55	-0.2148908
248	0x3c811282	0.015755896
249	0xba5b8015	-0.0008373273
250	0xbc389e8c	-0.011268269
251	0x3d1c5c88	0.038174182
252	0x3ca0bb77	0.01962064
253	0xbdd2c804	-0.10292056
254	0xbd69fa3b	-0.057123404
255	0xbdd1841d	-0.10230277

2.bias f4 [32]
0	0xbdc7c1ed	-0.09753785
1	0x3f0a2121	0.539568
2	0xbf2a3c01	-0.6649781
3	0xbdd97da0	-0.10619664
4	0x3bc1e6bb	0.005917398
5	0xbddc837c	-0.10767266
6	0x3df15a7c	0.11784837
7	0xbc82e1f5	-0.015976885
8	0x3d12e77e	0.0358653
9	0xbe256795	-0.16152795
10	0xbe2b9a9e	-0.167582
11	0xbdaa1eec	-0.08306679
12	0x3f8f38fa	1.1189263
13	0xbdfbbda4	-0.122920305
14	0x3d3f79f7	0.046747174
15	0xbc46291b	-0.012094761
16	0xbe47f90b	-0.19528596
17	0x3ee5dacc	0.4489349
18	0xbdc0d9b9	-0.09416527
19	0x3ec84518	0.39115214
20	0xbcee2a0c	-0.029072784
21	0xbcf36dc8	-0.029715434
22	0xbdae3682	-0.0850649
23	0xbd96a6e4	-0.073560506
24	0x3cdbb348	0.026818886
25	0x3f6f13aa	0.9338938
26	0xbe1caba4	-0.1529985
27	0x3e2b2691	0.1671393
28	0x3eec1909	0.4611285
29	0xbe2495ae	-0.16072723
30	0xbec39984	-0.3820306
31	0x3d55ad06	0.05216696

5.weight f4 [100, 2048]
0	0x3ba69dd5	0.005084733
1	0xbc9aa3cc	-0.018876933
2	0x3d0027df	0.031288024
3	0x3b1ff1fb	0.0024405706
4	0x3cf1c6d4	0.029513754
5	0xbc68e819	-0.014215493
6	0x3cc7161a	0.024302531
7	0xbce5a316	-0.028031867
8	0xbc017880	-0.007902265
9	0x3d077ab8	0.033076018
10	0xbae8d045	-0.0017762264
11	0xbc712bf4	-0.014719952
12	0x3ceef7aa	0.02917083
13	0x3b9e341d	0.0048279897
14	0xbc84c876	-0.016208868
15	0xbd03c2d6	-0.032168232
16	0x3c5137e9	0.012769678
17	0x3cb5a7f5	0.022174815
18	0x3cdd43b9	0.027009832
19	0xbcf5de0f	-0.030013112
20	0xbb71ed29	-0.003691504
21	0x3b1dcf1d	0.0024079748
22	0x3c9f1125	0.019417355
23	0xbc12ddbb	-0.0089639975
24	0x3ce0603f	0.027389644
25	0xbbcdfbe1	-0.00628613
26	0x3c36d399	0.011158847
27	0xbd17a16c	-0.03701918
28	0xbb9969ed	-0.004681817
29	0xbc5ba9c2	-0.013407173
30	0x3ccb61fd	0.024826998
31	0xbd0e0ac6	-0.034678243
32	0x3bc2fba7	0.0059504095
33	0x3d0d70bb	0.034531336
34	0x3c3648dc	0.0111257695
35	0xbc939464	-0.018015094
36	0xbc299765	-0.010351037
37	0xbd3cec44	-0.046123758
38	0x3ce419ba	0.027844299
39	0xbd21c656	-0.03949579
40	0x3c31a2cd	0.010842037
41	0xbd300be3	-0.042980086
42	0xbcf22baa	-0.029561836
43	0x3d0d2f25	0.03446879
44	0xbca72154	-0.020401634
45	0x3c847aaa	0.016171772
46	0x3cad36f4	0.021144368
47	0xbd0c059e	-0.034185044
48	0x3cd084df	0.025453983
49	0xbc2faa46	-0.010721749
50	0xbcbcdd1b	-0.02305465
51	0xbce90fe8	-0.028449968
52	0xbc314212	-0.010818975
53	0xbce2fa7c	-0.02770733
54	0xbb8c954c	-0.0042902585
55	0xbce85ce7	-0.028364612
56	0xbc1b0dce	-0.0094637405
57	0xbc569d2e	-0.013098998
58	0xbc0eda36	-0.008719018
59	0xbc1b3e9d	-0.009475377
60	0x3cd05631	0.025431724
61	0xbca0fd4d	-0.019652033
62	0x3d5724eb	0.052525442
63	0x3ca1e66c	0.019763194
64	0xbc9bbb01	-0.019010069
65	0xba6c02ab	-0.0009003083
66	0xbd035435	-0.032062728
67	0xbca67ac1	-0.020322205
68	0xbc00793a	-0.007841403
69	0x3bee988c	0.0072813686
70	0xbb590fb5	-0.0033120934
71	0x3ce1ea37	0.027577503
72	0xbbbef7e4	-0.0058278907
73	0x3c446194	0.011986155
74	0x3cd86e79	0.026419865
75	0x3cda731b	0.026666215
76	0x3c25a911	0.010111109
77	0xbc18646d	-0.009301287
78	0xbba91deb	-0.005161037
79	0xbcad0914	-0.021122493
80	0x380fd194	3.428904e-05
81	0x3c510aea	0.01275895
82	0xbd132c8b	-0.03593115
83	0x3c258cc2	0.01010436
84	0x3ceed0b7	0.029152257
85	0x3cad568f	0.021159438
86	0x3b98f8c4	0.004668327
87	0xbced8afd	-0.028996939
88	0x3d3a40e0	0.045472026
89	0x3c98cb0b	0.018651506
90	0x3c1c6691	0.009545938
91	0xbb54548a	-0.0032399022
92	0xbd193874	-0.037407354
93	0xbcde76cc	-0.027156256
94	0xbc8a97e2	-0.016918126
95	0x3c9dadab	0.01924785
96	0x3b790636	0.0037998087
97	0xbc15e2fd	-0.0091483565
98	0x3cf1efef	0.029533355
99	0xbccca3f7	-0.024980528
100	0xbc30d073	-0.010791886
101	0x3d084d99	0.033277128
102	0x3ab37147	0.0013690375
103	0x3c4a886e	0.012361629
104	0x3cc16cd8	0.023611471
105	0xbbc00ac5	-0.005860659
106	0x3c9b4a08	0.0189562
107	0xbb48be19	-0.0030630885
108	0x3a1109f6	0.00055327953
109	0x3bc2aa50	0.005940713
110	0xbae9bfe8	-0.0017833682
111	0x3c9815d6	0.0185651
112	0x3bfad198	0.00765438
113	0x3cab12aa	0.020882923
114	0xbcac783f	-0.021053432
115	0x3c50deb3	0.012748408
116	0x3c633054	0.013866503
117	0xbb58bb71	-0.0033070708
118	0xbce25186	-0.027626764
119	0xbc8e848c	-0.017397188
120	0x3ce0614a	0.027390141
121	0x3baf72e9	0.0053542745
122	0xbc9dc5b3	-0.01925931
123	0xbb587a8b	-0.0033032026
124	0x3cca8059	0.024719404
125	0x3c2be4fb	0.010491605
126	0xbc254c3e	-0.010088978
127	0x3d412fef	0.047164854
128	0xbc0271d8	-0.007961713
129	0x3c84e19f	0.016220866
130	0xbc3b5f74	-0.011436332
131	0xbc33be91	-0.010970728
132	0x3bf42dd8	0.007451754
133	0x3d26f6ab	0.040762585
134	0xbc3bcfda	-0.01146313
135	0xbd445279	-0.047930215
136	0x3ca436f6	0.020045739
137	0x3d1320b2	0.035919853
138	0xbd0157b3	-0.031577777
139	0x3bf7ba4b	0.0075600496
140	0xbb80f19d	-0.0039350525
141	0x3d026546	0.031834863
142	0xbca6b5be	-0.020350333
143	0xbb4d31b6	-0.0031310148
144	0xba33a4e1	-0.0006852877
145	0xbcc9d246	-0.024636399
146	0xbba3ae5e	-0.0049951514
147	0xbd0c4ae4	-0.03425111
148	0xbce45331	-0.0278717
149	0xbc79796b	-0.015226702
150	0x3c083f02	0.0083158035
151	0x3c80a447	0.015703334
152	0xbc722101	-0.014778377
153	0xbcc5cdf4	-0.024146058
154	0xbbd191ce	-0.006395555
155	0x3c1ba7f5	0.009500493
156	0x3c7cbc58	0.015425764
157	0xbbbe75c4	-0.0058123786
158	0x3cbf79a4	0.023373432
159	0xbc83623b	-0.01603805
160	0xbb8d91df	-0.0043203677
161	0xbd80fcc8	-0.06298214
162	0xbc10a048	-0.0088272765
163	0x3cce95e4	0.025217958
164	0x3d033362	0.032031424
165	0x3c640eac	0.013919514
166	0x3c3cedd3	0.011531311
167	0x3c94bdb3	0.018156862
168	0x3c06aa56	0.008219322
169	0x3c2d7f72	0.010589467
170	0xbd162103	-0.036652576
171	0x3be53d6e	0.0069958484
172	0xbca3cbf9	-0.019994723
173	0x3d141292	0.036150523
174	0xbd18f037	-0.03733846
175	0xbc437ccc	-0.011931609
176	0x3d25c175	0.040467698
177	0xbc1e47eb	-0.009660701
178	0xbb62559b	-0.0034535888
179	0x3c089054	0.008335192
180	0xbcfc4865	-0.03079624
181	0x3b50b5ff	0.003184676
182	0xbc2f981b	-0.010717417
183	0xba07a96b	-0.00051750866
184	0xbcec720b	-0.028862974
185	0xbd387ad7	-0.045039024
186	0x398bc332	0.00026657578
187	0xbc24fb43	-0.010069671
188	0x3d20ae59	0.03922877
189	0xbc2f8c9f	-0.010714679
190	0xbc01b5dd	-0.007916895
191	0x3c60044b	0.0136728985
192	0xbce2df42	-0.027694348
193	0x3c89b40b	0.016809484
194	0x3cef0d9d	0.029181296
195	0xbc92c7f7	-0.017917616
196	0xbd6eb617	-0.058279123
197	0xbd0cdb37	-0.034388747
198	0x3c8a26a6	0.016864132
199	0x3b867cff	0.004104256
200	0x3c03d9bc	0.008047517
201	0xbba2160a	-0.004946475
202	0xbbf6afac	-0.007528266
203	0x3b099ee4	0.0020999247
204	0x3b69fc07	0.0035703199
205	0xbb8aa440	-0.004231006
206	0xbcd57c13	-0.02606014
207	0xba42f767	-0.00074373785
208	0xbac8f0ab	-0.0015330514
209	0x3d4ed38a	0.050494708
210	0x3a705eb8	0.00091693876
211	0xbd06a28a	-0.032869853
212	0xbd144edc	-0.03620802
213	0xbcc0d820	-0.023540556
214	0x3c85bf34	0.016326524
215	0xbd2137fd	-0.039360035
216	0xbca6edbb	-0.02037703
217	0x3cf674cf	0.030084996
218	0x39fad71c	0.00047843985
219	0xbc9df89d	-0.019283587
220	0x3c1c0beb	0.009524326
221	0xbccea6cc	-0.02522602
222	0x3b1cfbc0	0.0023953766
223	0xbab94726	-0.0014135584
224	0x3cde1cb4	0.027113296
225	0x39acf66e	0.0003299
226	0xbc97d65b	-0.01853483
227	0xbb280f67	-0.0025643946
228	0x3c6512df	0.01398155
229	0x3bb24dfa	0.0054414244
230	0x3d0b62e2	0.03402985
231	0x3bc0e85b	0.005887074
232	0xbc7e0d59	-0.015506112
233	0x3c783d3a	0.015151316
234	0xbaa82986	-0.0012829758
235	0xbcfa42b0	-0.030549377
236	0xbc8225ed	-0.015887225
237	0xbd02bd23	-0.031918656
238	0x3d09d560	0.033650756
239	0xba276835	-0.00063860725
240	0xbc493c9a	-0.012282515
241	0xbbebf6a6	-0.0072010336
242	0x3c8978d2	0.016781244
243	0xbcfa92c2	-0.030587558
244	0xbae9480e	-0.0017797963
245	0xbd3224e2	-0.043492205
246	0xbc683de2	-0.01417491
247	0xbc99b4da	-0.018762995
248	0x3c364a12	0.011126058
249	0xbc48e169	-0.012260773
250	0xbc1cb70d	-0.009565127
251	0xbc82fe97	-0.015990539
252	0x3cc326f2	0.023822282
253	0x3c8679f4	0.016415574
254	0x3c50aa62	0.012735935
255	0x3c569ea5	0.013099347

5.bias f4 [100]
0	0xbc3f5289	-0.011677393
1	0x408bb059	4.365277
2	0xbccaf2ed	-0.02477404
3	0xbc86fbf8	-0.01647757
4	0x402aa911	2.666569
5	0xbce1ca5c	-0.027562313
6	0x3e9928c4	0.29913914
7	0xbc8a97c3	-0.016918069
8	0xbc0e7542	-0.008694949
9	0x40242f92	2.5654035
10	0xbeada6c8	-0.33916306
11	0xbf8becf6	-1.093169
12	0xbc562a19	-0.01307156
13	0xbf82b4d3	-1.0211433
14	0xbc7c4228	-0.015396632
15	0x3fd96cb7	1.6986302
16	0xbcd0ea16	-0.025502246
17	0x3eb683aa	0.35647327
18	0x3f8c9ca0	1.0985298
19	0xbcbfc686	-0.023410093
20	0xbcca6498	-0.02470617
21	0x4075d0d4	3.8408709
22	0xbd006171	-0.031342927
23	0xbc56ca4c	-0.013109755
24	0x404db5cc	3.214221
25	0xc04069d5	-3.0064595
26	0xbf1a841e	-0.60357845
27	0xbce5075a	-0.027957607
28	0x405f2fad	3.487285
29	0x40250321	2.578316
30	0xbca66f32	-0.020316694
31	0x40938899	4.6104245
32	0xbfb82be6	-1.4388397
33	0x3fc2634f	1.5186557
34	0xbd68d90d	-0.05684762
35	0x3fb12da7	1.3842057
36	0xbf1544ec	-0.5830829
37	0xbf4152ce	-0.75516975
38	0xbf4f47d4	-0.80968976
39	0xbc18e40e	-0.009331716
40	0x4032f754	2.7963457
41	0x40185c59	2.3806365
42	0x3dc6ae99	0.097012706
43	0xbd087b75	-0.033320863
44	0x3f408cab	0.7521464
45	0x4025989b	2.5874393
46	0x3fb6da27	1.4285325
47	0xbc59d5b4	-0.01329558
48	0xbcc17f64	-0.023620315
49	0xbda292d9	-0.07938165
50	0xbd722e03	-0.05912591
51	0x3f0e6028	0.5561547
52	0x3fce66e4	1.612515
53	0x4013628a	2.3028893
54	0x3ec7ab50	0.3899789
55	0x3de034bb	0.109475575
56	0xbc909bbf	-0.01765239
57	0xbc45c6a2	-0.0120712835
58	0xbf03da98	-0.5150542
59	0xbc9a1c51	-0.01881233
60	0x3f5adc79	0.85492665
61	0xbf00b2e5	-0.5027297
62	0xbc8d775f	-0.017268835
63	0xbd2bd680	-0.04195261
64	0x40705f72	3.7558255
65	0x3f1e86ea	0.6192461
66	0xbcda2fe0	-0.026634157
67	0xbcecdb21	-0.028913083
68	0x3e49516b	0.19659965
69	0xbd0eb14a	-0.034837045
70	0xbc4767a8	-0.01217071
71	0xbc5492ac	-0.012974422
72	0x3f46b678	0.77622175
73	0xbd69a74e	-0.05704432
74	0xbf62894d	-0.88490754
75	0xbcb523f7	-0.022111876
76	0xbcc0db75	-0.023542145
77	0xbd29938a	-0.04140047
78	0x40229450	2.5403023
79	0xbc7eafc3	-0.015544835
80	0x40823d88	4.070011
81	0xbc96239c	-0.018327527
82	0x3fd19631	1.637396
83	0xbcb4660d	-0.022021318
84	0xbc38fc4f	-0.011290624
85	0xbc7ae3d0	-0.015313104
86	0xbcd46efb	-0.025931826
87	0xbcf521f0	-0.02992341
88	0xbc533fce	-0.01289363
89	0xbcea99d4	-0.028637804
90	0xbe655661	-0.22396232
91	0xbce30b8d	-0.027715469
92	0x403d4028	2.9570408
93	0x40e09cef	7.019157
94	0xbca5e706	-0.020251762
95	0xbc536499	-0.012902402
96	0xbd00a313	-0.03140552
97	0xbc5f2705	-0.013620143
98	0xbcbfc670	-0.023410052
99	0xc021b39b	-2.5265872

7.weight f4 [10, 100]
0	0xbe1a531b	-0.15070765
1	0xbdeb0393	-0.11475291
2	0xbda911c3	-0.08255341
3	0xbc3f39d9	-0.011671507
4	0xbd9c4c96	-0.07631795
5	0xbdbd0eb4	-0.0923132
6	0xbd3c0dd7	-0.045911636
7	0x3c65cec3	0.014026347
8	0x3cec02a4	0.028809853
9	0xbe936389	-0.28786877
10	0x3d1033bf	0.0352056
11	0xbcd448ea	-0.025913674
12	0xbdb76665	-0.08955077
13	0x3da9322e	0.08261524
14	0xbd440cd1	-0.047863785
15	0x3d1bd31e	0.038043134
16	0x3e05f9d4	0.13083583
17	0xbe286c14	-0.16447479
18	0xbe007d63	-0.12547831
19	0x3b36e59e	0.0027907859
20	0xbd7e7008	-0.06211856
21	0xbdda737c	-0.10666558
22	0x3d10fe6f	0.035398897
23	0xbb9e6ba3	-0.0048346086
24	0x3b23853c	0.002495124
25	0xbdc80114	-0.09765831
26	0xbe415c84	-0.18882948
27	0x3ce706d6	0.028201502
28	0x3b74d019	0.0037355481
29	0xbd8a3a33	-0.06749382
30	0xbdd5d5dd	-0.10441182
31	0xbde0919b	-0.10965272
32	0xbe1b559b	-0.15169375
33	0x3bd677bd	0.0065450356
34	0xbe44886f	-0.1919267
35	0xbd0a6042	-0.033783205
36	0xbd30ee67	-0.04319611
37	0xbe413b76	-0.18870339
38	0x3df77c4d	0.12084255
39	0xbe0fc499	-0.1403984
40	0xbd813877	-0.06309598
41	0xbe5e081f	-0.21682785
42	0xbcba6fd1	-0.022758396
43	0xbd4b4853	-0.04962952
44	0xbe125e74	-0.14293844
45	0xbe4482b0	-0.19190478
46	0xbe0b0566	-0.13576278
47	0xbdecc477	-0.1156091
48	0xbdb16e6f	-0.08663642
49	0x3bbbaee6	0.0057276366
50	0xbe055686	-0.13021287
51	0xbcfcbc76	-0.030851584
52	0xbe0a133b	-0.13483898
53	0x3c3a54f8	0.011372797
54	0xbf25aafb	-0.6471402
55	0x3c8b3e39	0.016997444
56	0xbe1da3c5	-0.15394504
57	0xbd6aee9f	-0.057356473
58	0xbd820eab	-0.06350454
59	0x3d9a4e33	0.075344466
60	0x3cf1fd82	0.029539827
61	0xbe8855b0	-0.26627874
62	0xbd55b4da	-0.052174427
63	0x3d443026	0.04789748
64	0x3dce8b66	0.10085182
65	0xbd5fb984	-0.05462028
66	0xbe708dcf	-0.23491596
67	0x3cb7c9a5	0.022435019
68	0xbe3d0445	-0.1845866
69	0xbd26575f	-0.040610667
70	0x3ca92df1	0.02065179
71	0x3d47d507	0.048787143
72	0xbe289c63	-0.16465907
73	0xbdc173d8	-0.094459236
74	0xbd330e73	-0.04371495
75	0x3e20b9cf	0.1569588
76	0xbd75aaf7	-0.059977498
77	0x3cb7c4b4	0.022432663
78	0xbdf31d9b	-0.11870881
79	0xbe3a9d99	-0.18224181
80	0xbd8b1e2d	-0.06792865
81	0x3e5a2ae0	0.21305418
82	0xbdcc8ca5	-0.09987763
83	0x3dc6c5eb	0.097057186
84	0xbda6cf10	-0.08144963
85	0x3e44954f	0.19197582
86	0xbd551302	-0.05202008
87	0xbd0fba8a	-0.035090007
88	0xbce668aa	-0.02812608
89	0x3ccd4943	0.025059348
90	0xbc30ea7a	-0.010798091
91	0x3cdb7881	0.02679086
92	0xbd8f9121	-0.07010103
93	0xbd378e25	-0.044813294
94	0x3bd9d582	0.0066477666
95	0xbc5154d8	-0.012776576
96	0x3dac8d67	0.08425408
97	0xbd0e52a2	-0.034746774
98	0xbd5abcb5	-0.05340262
99	0xbe0c3e92	-0.13695744
100	0x3e73df73	0.23815708
101	0xbe41d0f7	-0.1892737
102	0xbe03687f	-0.12832831
103	0xbd86ea3c	-0.065876454
104	0xbdd364fd	-0.10321996
105	0xbd87c192	-0.066287175
106	0xbe2d4b8f	-0.16923355
107	0x3d7bfa40	0.061517954
108	0x3dc0ae38	0.094082296
109	0xbe8e1c93	-0.27756175
110	0xbd11d456	-0.03560289
111	0xbd227620	-0.039663434
112	0xbe119dad	-0.14220305
113	0xbb532a20	-0.0032221153
114	0x3c30fd04	0.010802511
115	0xbd095ece	-0.03353768
116	0xbde82d34	-0.11336747
117	0xbd9ec34c	-0.07752094
118	0xbe1170e3	-0.14203219
119	0xbe207f08	-0.15673459
120	0xbb917a8e	-0.0044396585
121	0xbde99137	-0.11404651
122	0x3a83fe48	0.0010070289
123	0xbd6db2f6	-0.058032
124	0xbc8b006b	-0.016967973
125	0xbdf5bae5	-0.11998538
126	0xbe318ef8	-0.17339694
127	0x3d257a22	0.040399678
128	0xbda92c84	-0.08260444
129	0xbe09c73c	-0.13454908
130	0x3e0fe16c	0.14050835
131	0x3d35f403	0.04442216
132	0xbe0ded22	-0.1385999
133	0xbc33d3cd	-0.01097579
134	0xbd84426e	-0.06457983
135	0xbde2f435	-0.11081735
136	0xbdb2e5d4	-0.087352425
137	0xbe55bbca	-0.20872417
138	0x3d44d107	0.048050907
139	0xbcbdec62	-0.023184005
140	0x3d62f875	0.05541273
141	0xbe5469fb	-0.20743553
142	0x3d0b5179	0.034013245
143	0xbd5c38d5	-0.053765137
144	0xbe0868df	-0.13321255
145	0xbe539b65	-0.20664747
146	0xbdf17e93	-0.1179172
147	0x3d1f267d	0.038855065
148	0xbe2e1410	-0.1699984
149	0xbd840bda	-0.06447573
150	0x3e35f649	0.17769732
151	0xbe1283d9	-0.14308108
152	0xbc9eda65	-0.019391248
153	0x3d848345	0.0647035
154	0xbf29705b	-0.66187066
155	0x3dfece91	0.12441743
156	0x3dbaf9a2	0.09129645
157	0x3c66d3b8	0.014088564
158	0xbdde6691	-0.10859407
159	0xbc6bad22	-0.01438454
160	0xbdb94713	-0.090467595
161	0xbe41761b	-0.1889271
162	0x3e01a80b	0.1266176
163	0x3cf9ab1e	0.030477103
164	0x3d8c5bd7	0.068534546
165	0xbd6d880c	-0.057991073
166	0xbd262b22	-0.04056848
167	0x3cd5696f	0.026051251
168	0xbd7e8c97	-0.062145796
169	0xbda829aa	-0.08211072
170	0xbc73ac5c	-0.014872637
171	0x3bcb753a	0.006209043
172	0xbda12754	-0.07868829
173	0xbe84fb8d	-0.25973168
174	0xbd83b6a9	-0.06431324
175	0xbdc9dcd4	-0.09856573
176	0xbd77742d	-0.06041353
177	0xbe05e818	-0.13076818
178	0xbdd26651	-0.102734216
179	0x3e076c7a	0.13224974
180	0xbd9a7088	-0.07540995
181	0xbd07266e	-0.032995634
182	0xbe07aefb	-0.13250344
183	0x3dbf7489	0.09348399
184	0xbc6c438f	-0.014420404
185	0xbd4628be	-0.0483787
186	0xbcc5baba	-0.02413689
187	0xbc2eb30b	-0.010662804
188	0x3cec6976	0.028858881
189	0xbd5d9525	-0.054097313
190	0xbca217dd	-0.01978677
191	0x3c2cb9a1	0.010542304
192	0xbdc9b339	-0.09848637
193	0xbd91d4aa	-0.071206406
194	0xbcef20ae	-0.029190388
195	0xbde78f3a	-0.11306615
196	0xbd84eb70	-0.06490219
197	0xbd489a6c	-0.048975393
198	0xbd55f705	-0.05223753
199	0xbd824920	-0.06361604
200	0xbdc07fa4	-0.093993455
201	0xbd880fa3	-0.066436075
202	0xbd55551e	-0.052083127
203	0xbca7a5ff	-0.020464895
204	0xbd135b80	-0.035975933
205	0xbbfd7925	-0.007735389
206	0xbd5e3887	-0.054253127
207	0xbd2fe8ef	-0.042946752
208	0xbba4d0ad	-0.005029759
209	0xbe85eec4	-0.26158726
210	0x3d3478fe	0.0440607
211	0x3b03bee8	0.0020102803
212	0x3e20ab82	0.15690425
213	0x3c8c7f57	0.017150564
214	0x3c5f7671	0.0136390785
215	0xbc8e7c3e	-0.017393228
216	0xbe0f3841	-0.13986303
217	0xbe2fb5c2	-0.17159179
218	0xbd81f136	-0.063448355
219	0xbd0ca95a	-0.034341194
220	0x3db17cd4	0.08666387
221	0xbdfe3bf0	-0.12413776
222	0xbd6a422c	-0.057192013
223	0xbdac59ed	-0.084155895
224	0x3d850a03	0.0649605
225	0xbd96c5d5	-0.07361952
226	0xbe0b9254	-0.13630038
227	0x3e073e18	0.1320728
228	0xbdabadc2	-0.08382751
229	0xbd5deee7	-0.054182913
230	0xbbbdd7e2	-0.0057935575
231	0x3d824ee1	0.06362701
232	0xbe259d77	-0.1617335
233	0xbc947b35	-0.018125156
234	0xbd9982ba	-0.07495637
235	0xbd1c7285	-0.03819515
236	0xbdb1535e	-0.08658479
237	0xbdcee2cc	-0.10101852
238	0x3c4f951f	0.012669831
239	0x3daec5c4	0.085338145
240	0xbda92751	-0.08259452
241	0xbe4eeee2	-0.20208314
242	0xbd51d2bf	-0.051226374
243	0x3dd32e8a	0.10311611
244	0xbe101d49	-0.14073671
245	0xbe423c48	-0.18968308
246	0xbe0b6111	-0.13611247
247	0x3e03f257	0.12885414
248	0xbd808f7e	-0.06277369
249	0xbdea985c	-0.114548415
250	0xb9b20691	-0.00033955698
251	0xbd052d95	-0.032514174
252	0xbe1d9562	-0.15389016
253	0xbd38444e	-0.044987015
254	0xbf11ac7b	-0.5690381
255	0xbbb47d2e	-0.0055080866

7.bias f4 [10]
0	0xbf95e129	-1.1709338
1	0xbf8ea106	-1.114289
2	0xbf38a78c	-0.72130656
3	0x3e3c4d7a	0.1838893
4	0x3fad8c59	1.3558456
5	0x3f0b3f46	0.5439342
6	0xbde403a5	-0.11133508
7	0x3fb00003	1.3750004
8	0xbf8401ba	-1.0313027
9	0x3f0d76ca	0.5525938
