complete_verifier/models/custom_specs/custom_specs.pth (torch, 6679 bytes, 5 tensors)

model.0.weight f4 [32, 2]
00000000: c66e e3bd 2aaa a53e 97f6 3c3c b26a 09be
00000010: f892 95be ce21 d73e a107 a3be f7f5 63be
00000020: 771a debe e820 a1be 2348 0b3f 486f 9ebe
00000030: 7fcb f3be 81b4 acbe b7e5 33bf a3e1 5ebe
00000040: df3e 303e 2378 093f 974a df3e dcda 483d
00000050: dbb0 06bf 1365 16bf 5b10 2d3f c1b0 a4be
00000060: a882 96be 1202 2cbf 0422 85be 89d9 2a3e
00000070: dec0 1fbf 7052 4bbe 575e 403e 805b e0bd
00000080: 7d2f 263f 2526 f53e 4179 053d 42bf ecbe
00000090: 16e4 24be 1eda 833e 2181 f73e f4af 24bf
000000a0: fd0b 7abd eb2f ccbe dec8 343f 7370 9cbd
000000b0: c86a ffbd 6a75 b93e 7219 11be 725e 00bf
000000c0: c25b b1be 9eea 0d3f d073 4ebd 4058 c5be
000000d0: 0654 ffbe baff 3abe c79c 0cbf f9f5 2c3f
000000e0: 7b38 52bc e6d9 4e3d e9d9 0e3f ca2e 6e3e
000000f0: b027 bdbe 54d1 e3be a382 b5bd 0ca6 f23d
-0.11105113 0.32356387 0.011533401 -0.13419607 -0.2921369 0.42017978 -0.31841758 -0.22261797
-0.43379566 -0.31470418 0.54406947 -0.30944276 -0.47616193 -0.33731464 -0.7027239 -0.21765761
0.17211483 0.5369894 0.43611595 0.049036846 -0.5261361 -0.58747977 0.6760308 -0.32166103
-0.29396558 -0.6719066 -0.26002514 0.16684546 -0.62403667 -0.19855666 0.18785988 -0.10954952
0.6491621 0.47880664 0.03258634 -0.46239668 -0.16102633 0.25752348 0.48340705 -0.64330983
-0.06104659 -0.39880309 0.70619 -0.076386355 -0.12471539 0.36222392 -0.14169863 -0.5014411
-0.34640318 0.5543612 -0.050403416 -0.38543892 -0.49868792 -0.18261614 -0.54926723 0.67562824
-0.012830849 0.050500773 0.55801255 0.23260036 -0.36944342 -0.44495642 -0.088628076 0.11848077

model.0.bias f4 [32]
00000000: ee5c ddbe 8e9b e9bb b9a0 37be 93a5 39be
00000010: f8a1 70be 6ba7 d93e 3a48 54be 106e 303f
00000020: 2e31 00be dbde 73be 219d d33e d2ed c63e
00000030: 9f27 803e eabf f8bc 2641 2b3f e596 0f3f
00000040: 5628 ee3d 1621 853e 06a7 6d3e 5321 743e
00000050: 11fd d0be c55a 0dbf 4a47 21bf cafd 23bf
00000060: 880d 27be e2b2 90be 724c 093e 3fe8 513e
00000070: c02d abbe 30e6 bbbe adf7 21bf 52bd aebe
-0.43234962 -0.0071291393 -0.17932405 -0.18129568 -0.23499286 0.42510542 -0.20730677 0.6891794
-0.1251876 -0.23815481 0.41330817 0.38853317 0.25030228 -0.03036495 0.66896284 0.5608962
0.11628787 0.26001805 0.23208246 0.23840837 -0.40818074 -0.5521663 -0.62999403 -0.64059126
-0.16313756 -0.28261477 0.13408068 0.20498751 -0.33433342 -0.36699057 -0.6326855 -0.34128815

model.2.weight f4 [32, 32]
00000000: 0d24 343e 7bc8 6dbd fdf3 303e 734d c6bc
00000010: 8393 053e 6f92 c03d 1291 1f3e 32ff d3bc
00000020: 7860 43bd 0dee 1cbd 4dcf 89bd dacc 50bd
00000030: c2dc e8bd de6d a2bd 8200 c6bd 0701 5dba
00000040: b439 eabd 6ec4 053e 4705 2bbe 54f1 21be
00000050: e4dc cfbd fb89 01bc 96f5 2d3c 7640 bfbd
00000060: 5256 5d3d 883f 673d 68c6 16be 1c42 2b3e
00000070: aa47 2d3e 1f24 7ebd 3a23 fcbd b708 19be
00000080: 59de 2b3e d63e 063e 6548 c538 96cd e6bd
00000090: 0dd8 ff3d b5ff 8bbb 178b 8d3d a84c 78bc
000000a0: 6140 c23d 2adf 4d3d b2f4 803b f992 09be
000000b0: 6c21 d03c 1c9b f4bd 08b7 56bc b4f8 823c
000000c0: f863 823d 7a46 003e 1082 a03d 6617 293d
000000d0: 6054 08be ff27 133c c4a8 37bc 7829 f3bd
000000e0: ab5b e83d 6ed4 a0bd e6aa f43c f08d fbbc
000000f0: eeb7 4fbc dd28 493d 319c fdbd b64b 73bd
00000100: 59ff 5cbd 37b0 26be 5cda 28be 473f 323d
00000110: cac5 093e 3d75 f83d 6d10 383d 4302 273d
00000120: 2985 153e e8c0 8fbd c2c2 e4bd 9799 cbbd
00000130: 66a9 5a3d 6a79 d0bc aa35 e5bb 9784 fbbd
00000140: efa5 f33d a0e7 2e3e 8ec8 f63d 3bf6 ebbc
00000150: 0348 f0bc 2852 1cbd 34f0 963b db8b 86bd
00000160: fa56 edbd dffb a0bd f9fd 5dbd 5357 ad3d
00000170: c772 49bd a3d6 243e 4691 77bb 2ce5 993d
00000180: 53de 123d 2bd1 003e a873 08be 7ec7 28bd
00000190: a53a ee3d 4ad9 12be 1dc6 28be f5a9 abbd
000001a0: 12dd 593d 04ef 9dbd 6260 0cbe 4f44 19be
000001b0: 6f2a 27be 9340 a93d 559b f43d 485a b2bd
000001c0: 0d96 54bd 056a f03d f58e 893d 6e5b 80bc
000001d0: b8e0 ef3d 1ad5 463d 90bd 083e d5b1 0ebe
000001e0: d168 9c3d f0ac ef3d afa5 f0bd 5897 fc3d
000001f0: cd94 a03c 4d59 a13d b952 12be b002 473c
00000200: 7003 8d3d bda6 f3bd 0aaf babd 7eef 34bd
00000210: 583f a6bc 4a6f 513d 646b 1f3e ef43 ad3d
00000220: 7572 1fbe b5bc 0cbe 2a41 1e3e 572e 243e
00000230: e467 223e 3f15 d9bc 92e0 2dbd b4d1 743c
00000240: 5a9a 343d c5db efbd 4e7b 34be 9de0 1cbd
00000250: 5588 2f3e f5fa 24bd 041c 303e 8f5d 4a3d
00000260: df76 48bd f568 ea3d 1b4f adbd 073d 7dbd
00000270: a18c 1ebe b0e8 4d3c 8bc8 26bd bca1 313e
00000280: 48cc 8c3c ecac 03be 62c1 a43d cdf1 2ebd
00000290: 573e 843d 2dde 12be 0a7f 1e3e de14 96bc
000002a0: 8fb5 813b 7534 46bd 578b f53d 6afa 98bd
000002b0: fd4f d7bd 03b7 0a3e 0459 2bbd f3e9 c4bd
000002c0: fb1f fb3c aaa2 bcbc d607 7a3c 0a7c 00be
000002d0: 10c7 a6bc 7626 34be 900a 313e 4489 18be
000002e0: 9c41 c13c 2241 0f3e 1ab6 70bd 1b44 1b3d
000002f0: e5ac 7fbd 0e88 6fbd 8f7d d4bd 3bc7 6fbc
00000300: caa1 713d 3938 11be bcd8 963c 50fa 1bbe
00000310: 049f a1bd 2371 ddbd ac9b 163e a968 e43d
00000320: af10 82bd 5d9f 20bd 0f62 28be 54bf 333b
00000330: daf9 b3bd daa2 063e 4ccb f33d 992f 5f3d
00000340: 5865 343d e110 013e 3756 293e 3e9a 0ebc
00000350: fcc9 be3a 2863 cf3d cd9d 62bd 5c7f 883c
00000360: 057e a8bd 8461 4abd 715d 193d eee6 36bc
00000370: 1fcb 4d3d 7e18 a73d 1122 aabd 0bc6 dd3c
00000380: 2dde 21be 1a35 24be ed55 2d3e 2586 ed3d
00000390: 1d97 1cbe b2d7 923c dcfe 2fbe a257 babc
000003a0: 2ad9 f13d 9b91 51bb 5547 9dbd 6970 04be
000003b0: 07c0 05be 7037 a3bd cf78 213e 6039 1fbe
000003c0: 36cf c9bd 69a6 53bb 3bda 0b3d 641b 293e
000003d0: 2bcf cfbd 2cde 6ebd 825d b43d ccfc 01bb
000003e0: 3429 b4bd 30e1 3ebd 6607 29bd 4fd2 593d
000003f0: c6fd ecbd 3912 1d3d e93c 223d cfee bc3b
0.17591877 -0.05805252 0.17280574 -0.024206853 0.13044553 0.0940293 0.15582684 -0.025878523
-0.04769942 -0.03831296 -0.067289926 -0.05097661 -0.11370231 -0.07931112 -0.096680656 -0.0008430634
-0.11436787 0.13063213 -0.16701232 -0.15814716 -0.101495534 -0.007906432 0.010617634 -0.09338467
0.0540374 0.056457072 -0.14724123 0.16724437 0.16921869 -0.062046167 -0.123114064 -0.1494473
0.16784038 0.13109908 9.4071765e-05 -0.11269681 0.1249238 -0.004272426 0.06911295 -0.015154995
0.094849356 0.050261654 0.00393542 -0.13434972 0.025406562 -0.11943647 -0.0131051615 0.015987732
0.06366724 0.12526885 0.078373075 0.04128208 -0.13313437 0.008981704 -0.01120967 -0.11873144
0.11345609 -0.07853018 0.029866647 -0.03070733 -0.01267813 0.049111236 -0.12383307 -0.059398375
-0.053954456 -0.16278158 -0.16489547 0.043517377 0.13454357 0.121317364 0.04493754 0.04077364
0.14601578 -0.07019216 -0.111699596 -0.09941404 0.053384207 -0.02544852 -0.0069949226 -0.12281149
0.11896884 0.17080545 0.120499715 -0.028803935 -0.029331213 -0.038164288 0.004606271 -0.06569644
-0.11588855 -0.078605406 -0.054197285 0.084639214 -0.049181726 0.16097502 -0.0037775799 0.07514414
0.035856556 0.12579791 -0.1332537 -0.041205876 0.11632279 -0.14340702 -0.16481824 -0.08382026
0.053189345 -0.07711604 -0.13708642 -0.14967464 -0.16324781 0.0826427 0.1194369 -0.08708626
-0.051900912 0.117389716 0.0671672 -0.015668597 0.117127836 0.048543073 0.13353562 -0.13935025
0.0763718 0.11702907 -0.11750352 0.12333554 0.019602204 0.07878361 -0.14289369 0.012146637
0.06885421 -0.11897037 -0.09115417 -0.04417371 -0.020293877 0.051131524 0.1556831 0.08460223
-0.15571006 -0.13743861 0.15454546 0.16033302 0.15859944 -0.026499389 -0.042450495 0.014942575
0.044092514 -0.117118396 -0.17625162 -0.038300145 0.1714185 -0.040278394 0.17198187 0.04940563
-0.04894149 0.114458 -0.08462354 -0.06182578 -0.15483333 0.012567684 -0.040718596 0.17346853
0.017187253 -0.12858933 0.08044697 -0.042711068 0.06457203 -0.14342566 0.15478149 -0.018320497
0.003958411 -0.04838987 0.119894676 -0.07469638 -0.105133034 0.13546376 -0.04183294 -0.09614935
0.030654898 -0.023026783 0.015260657 -0.12547317 -0.020358592 -0.17592797 0.17289186 -0.14896113
0.023590855 0.1398969 -0.058767416 0.037906747 -0.062420744 -0.05847936 -0.10375511 -0.014634903
0.058992185 -0.14181603 0.018413894 -0.15232205 -0.07891658 -0.10812595 0.14707822 0.11152775
-0.063508384 -0.03921448 -0.16443656 0.0027427273 -0.0878789 0.1314806 0.1190401 0.054488752
0.04404196 0.12604095 0.16536795 -0.008703766 0.0014556046 0.101263344 -0.05532627 0.016662292
-0.08227161 -0.049409404 0.03744263 -0.011163456 0.05024254 0.081589684 -0.08307279 0.027071973
-0.1580741 -0.16035882 0.1692731 0.11597852 -0.1529202 0.017925117 -0.17187065 -0.022746865
0.11808999 -0.0031977657 -0.07679621 -0.12933506 -0.13061534 -0.07969558 0.15768741 -0.1554923
-0.098539755 -0.0032295233 0.034143668 0.16514355 -0.10146936 -0.05831735 0.08806898 -0.0019834517
-0.08796921 -0.046601474 -0.04126682 0.05317908 -0.11571841 0.038347457 0.03960887 0.005765773

model.2.bias f4 [32]
00000000: 2e6a d63d e06a 003d bce5 c3bc 9abb 853d
00000010: 5d7c 933c a7ad fa3d c628 dabd 9a8c 2bbe
00000020: 7b57 07bd 0ab7 093d e8c2 b13d c9fc 5c3d
00000030: e356 e73d 5492 f83d e4eb 413d b897 c83d
00000040: 336d 223e c247 03be 7dba a23b 8d38 b43c
00000050: 831d 113d e824 333e 29ef 953d 1ffd 23be
00000060: 7d70 84bc 13d0 073e 4d14 b83d 9695 c43c
00000070: 11be 0abe ba9f b3bd 38ad e5bd 684a dabd
0.10469471 0.031351924 -0.023913257 0.06529923 0.018003637 0.12240153 -0.10652308 -0.16752854
-0.033042412 0.033621825 0.086797535 0.053952012 0.11295869 0.12137285 0.047344103 0.09794563
0.15861969 -0.12820342 0.004966079 0.021999622 0.035428535 0.17494547 0.07321007 -0.16014527
-0.01616692 0.13262968 0.08988247 0.02399711 -0.13549067 -0.087707 -0.112146795 -0.10658723

model.4.weight f4 [1, 32]
00000000: 7566 1b3e 4121 033d 6109 e83d f592 d03d
00000010: 9850 01bd 94b8 03be eba6 98bd 3b90 ebbd
00000020: 7383 58bd 3ddd 1cbe a5c3 3abd e20f 0e3e
00000030: 848a d0bc 1b3b 7dbd f383 233e 8d83 debd
00000040: 9d47 103d 2804 803d a9cf bfbc 989e 9bbd
00000050: 3866 2b3e afcd 0ebd e049 49bc aa4e d7bc
00000060: 1709 033e 17bf f7bd 7943 053e 5e93 28bd
00000070: 137b 3abd e004 993c af92 d83d c076 bdbb
0.15175803 0.032014135 0.11329914 0.1018428 -0.031571 -0.1286338 -0.07453712 -0.11502119
-0.052859735 -0.1531877 -0.045596737 0.13873246 -0.025456674 -0.061823945 0.15968303 -0.10864935
0.035224546 0.06250793 -0.02341445 -0.07598609 0.16738212 -0.034864124 -0.01228568 -0.026282627
0.12796436 -0.12096994 0.1301402 -0.041156165 -0.04552753 0.018679082 0.10574853 -0.0057819784
