complete_verifier/examples_abcrown/neural_lyapunov_dependency/seed_0.pth (torch, 13202 bytes, 12 tensors)

controller.x_equilibrium f4 [2]
000000 00 00 00 00 00 00 00 00
       0.0 0.0

controller.layers.0.weight f4 [10, 2]
000000 73 a9 f5 be 3b 7a 41 bf bf ba aa be 30 5c 6e bf
       -0.47980842 -0.75577134 -0.333456 -0.93109417
000010 d4 94 7f 3c f4 5c 43 bf 2a fc 5a bf b6 e7 71 3f
       0.015599448 -0.7631371 -0.8554102 0.9449419
000020 35 dc 26 be c0 bf 01 bf 77 bf 79 be 4d d4 4a bf
       -0.1629494 -0.5068321 -0.24389444 -0.79230195
000030 76 25 74 be ea 15 68 bf 73 6b 95 be c5 40 73 bf
       -0.23842415 -0.9065844 -0.2918354 -0.95020705
000040 02 3d a3 3f 9f 6b 96 bf bb 5c 8f 3b 5d 92 57 3f
       1.2752993 -1.1751593 0.004375068 0.8420771

controller.layers.0.bias f4 [10]
000000 99 18 eb be f8 1e 59 bd 5e 1f fc bd e7 b5 04 3d
       -0.45917204 -0.05300805 -0.1231067 0.032400038
000010 dd 50 cb 3c 38 5d c7 3d e8 3d a3 3d 46 33 2d 3d
       0.024818832 0.09734577 0.07970792 0.042285226
000020 29 68 ca 3c 5f 29 60 bd
       0.02470787 -0.054726955

controller.layers.2.weight f4 [10, 10]
000000 60 72 52 3f 8c a2 bb 3e 86 26 b0 3c cf 0a d0 be
       0.8220577 0.3664745 0.021502744 -0.40633246
000010 8f ba 1d 3f 51 34 08 3f d3 21 01 3f ab c4 1e 3f
       0.6161279 0.5320483 0.50442237 0.6201884
000020 bb ca 6c 3e 56 30 bc be 50 9f 1a 3f cb d0 e9 3e
       0.2312421 -0.36755627 0.6039934 0.4566711
000030 39 79 dc 3e ce cd db bd e9 55 2d 3f 79 00 17 3f
       0.43061236 -0.107326135 0.67709213 0.58985096
000040 75 3f 46 3f a6 d0 da 3e dd d3 c7 3e 84 80 b1 be
       0.7744058 0.4273731 0.39028826 -0.34668362
000050 1e a3 11 3f a2 4b 25 3f e9 a4 a2 3d b3 7e 92 be
       0.5688952 0.6456853 0.0794161 -0.2861229
000060 db ec ad 3e 18 fd ed 3e f6 de 07 3f 0d e4 53 3f
       0.3396977 0.46482158 0.53074586 0.8276985
000070 2e f5 c1 3e 38 29 2d be d6 ad 30 bf e0 e6 09 bf
       0.3788237 -0.16910255 -0.6901525 -0.5386791
000080 1e fe a7 be ed 33 f5 3e 69 ad 1b bf 9c 81 fe be
       -0.32811064 0.4789118 -0.6081148 -0.4970826
000090 81 cb 42 bf bf 7b 2e bf 64 4f 97 be 3a 57 5c bc
       -0.7609177 -0.6815757 -0.29552758 -0.013448531
0000a0 c0 e5 07 3f c4 82 09 3f 53 8f f5 3e f4 03 96 be
       0.53084946 0.5371516 0.4796091 -0.2929989
0000b0 e3 09 d5 3e e3 b6 d2 3e 4d f2 af 3e 86 58 60 3f
       0.41609105 0.41155156 0.34364548 0.87635076
0000c0 a3 60 0f 3e f6 58 17 bd 76 4c 21 3f c8 94 52 3f
       0.14001708 -0.036950074 0.63007295 0.8225827
0000d0 d4 98 86 3e e3 c6 2f be 71 35 62 3f 50 84 51 3f
       0.26288474 -0.17165713 0.88362795 0.8184252
0000e0 dc 2b 4b 3f 21 9c 0a 3f c9 ed 59 3e 33 20 d8 be
       0.793638 0.54144484 0.21282114 -0.42212066
0000f0 7e 30 2a 3f c9 c2 47 3f 09 57 0a 3f 76 30 73 be
       0.66480243 0.78031594 0.54039055 -0.23748955
000100 8e c5 57 3f 32 a5 52 3f 26 b0 d7 3e 57 ba f8 3e
       0.8428582 0.8228332 0.42126578 0.48579666
000110 bc 4a a9 3e 2e 41 b8 bc 36 16 7e be 66 b9 1f bf
       0.3306483 -0.022492018 -0.2481316 -0.6239227
000120 25 2a f2 be e5 18 7b 3e d7 9c 4f bf d4 f9 5e bf
       -0.4729778 0.24521215 -0.81098694 -0.8709996
000130 d0 c3 28 bf e3 d9 18 bf 79 50 91 be b6 d8 c3 3e
       -0.65923786 -0.5970747 -0.28381708 0.38251275
000140 9d 19 76 be ce 59 2e bf e7 a4 d9 3c e2 b0 a0 3d
       -0.24033208 -0.6810578 0.02656789 0.07846238
000150 d5 eb 3f bf bd 70 04 bf 11 e8 1c bf 6a b8 da be
       -0.74969226 -0.51734525 -0.61291605 -0.42718822
000160 26 ff 39 be 3d d3 f8 3e c2 fe 04 3f b8 64 1f 3f
       -0.18163738 0.48598662 0.5195123 0.6226306
000170 fa c7 df 3e c8 ab c4 bd 55 8b 0e 3f 51 49 47 3f
       0.43707258 -0.09603077 0.55681354 0.77846247
000180 6e 67 5c 3f e9 fa 75 3f cd 11 64 3e f5 3f c8 be
       0.8609532 0.96085984 0.22272415 -0.39111295

controller.layers.2.bias f4 [10]
000000 f8 c3 2f 3e 7d 84 74 3d 2e 7e a1 3d c8 8d d0 bd
       0.171646 0.059696663 0.07885395 -0.101832926
000010 47 33 0a 3e 4c 99 24 bd bd a2 39 3e 7c 3d 55 3e
       0.13496123 -0.040185258 0.18128486 0.20824236
000020 94 f7 ef 3d b6 49 d0 bd
       0.11717144 -0.10170309

controller.layers.4.weight f4 [1, 10]
000000 30 11 c5 3f cb fa 93 3f 76 20 bd 3f e0 69 95 bf
       1.539587 1.1560911 1.4775531 -1.1672935
000010 f7 f9 a5 3f 15 f5 47 3f b0 f9 c8 3f e9 ba 4a bf
       1.2966908 0.7810834 1.5701199 -0.7919145
000020 50 c8 90 bf c0 cd 4d 3f
       -1.131113 0.80392075

lyapunov.layers.0.weight f4 [40, 2]
000000 e5 e8 4a 3f f5 58 01 bf 58 20 0f 3f 18 72 22 3e
       0.7926162 -0.5052636 0.5590873 0.15863836
000010 aa 17 f8 bc 0d 05 f5 be 02 79 d2 bd 0f 18 20 bd
       -0.030284721 -0.47855416 -0.10276987 -0.039085444
000020 48 25 86 bf 28 e9 aa 3e 31 e8 b2 bd 45 5c 21 3e
       -1.0480127 0.3338101 -0.08735693 0.15757854
000030 49 7f 09 3d 8e 7e 5e 3f d6 a4 47 bc b3 e9 61 3c
       0.033568654 0.8691186 -0.012185296 0.013788628
000040 44 4e 32 be 17 47 3f bf 8b f2 b0 3d 29 24 de bd
       -0.17412668 -0.7471785 0.086400114 -0.10846741
000050 93 f7 b2 be 3b 22 d2 be 90 fe 1e 3f e5 2f 14 bf
       -0.3495451 -0.4104174 0.6210718 -0.5788558
000060 be 04 20 3f 1a 5d 53 be 7b 3a 34 bf f9 fb 97 be
       0.62507236 -0.20640984 -0.70401734 -0.29684427
000070 af 07 96 bd d0 ff 6d bf e8 94 5e bf e8 9e 82 bf
       -0.07325684 -0.92968464 -0.8694596 -1.0204744
000080 bd 04 d6 3b 59 42 5f be 46 bd 18 3f a9 11 12 3e
       0.0065313266 -0.21802653 0.5966381 0.1426455
000090 e3 e6 4e 3f 61 e7 9c 3e ae 55 0a bf 2c 5e 52 be
       0.80821055 0.30645278 -0.54036987 -0.20543736
0000a0 3f 99 4e 3f f7 fe c4 be f8 99 12 bf 4b 2a 33 3f
       0.80702585 -0.38475773 -0.5726619 0.6998641
0000b0 44 9f fe 3b 9f bc 2d bc ae 1a 7c 3f 0c f2 bb be
       0.007770451 -0.010604053 0.9847821 -0.36708105
0000c0 49 77 0b bc 5d a8 2c 3c 48 34 7d be d9 6f 72 3f
       -0.0085123265 0.010538188 -0.24726975 0.94701916
0000d0 70 64 b1 be 3c 9a 10 3d c1 a2 56 bb 60 0f 11 3c
       -0.3464694 0.03530334 -0.0032750817 0.008853763
0000e0 cd 1a 97 3d fc a0 09 bc 2f 74 64 3c 47 8c 06 bd
       0.07378159 -0.008400198 0.013943716 -0.032848623
0000f0 4f b6 14 3e b6 6a 00 bf 0f 12 df 3e a7 83 4a 3f
       0.1452267 -0.5016283 0.43568465 0.79107136
000100 07 c2 8f 3d 09 86 61 be 5e 96 0e 3f fe d7 b1 3e
       0.0701943 -0.22023787 0.5569819 0.347351
000110 6a bf 70 be 90 a0 79 3b 11 97 14 be 36 7a 42 3e
       -0.23510519 0.0038090087 -0.14510752 0.18991932
000120 86 f8 09 3f ec 2c 36 3e b8 21 17 3f 85 0b f9 3d
       0.5389484 0.17790574 0.59035826 0.121604
000130 5a db bc be 6f 6d ae 3e 33 2d e9 3e a8 81 1e be
       -0.36886102 0.34067866 0.45542297 -0.15479147

lyapunov.layers.0.bias f4 [40]
000000 1e 5a 42 3f 93 02 8b 3e 13 a1 bf 3e 14 3c 81 be
       0.7591876 0.271504 0.37427577 -0.25241148
000010 ef ec 30 bf 06 0c 95 be bf 4c 80 be b5 2e 40 bf
       -0.6911153 -0.29110736 -0.25058553 -0.7507127
000020 8b c8 42 bf 95 7d 38 bf f1 80 48 bf 0d 18 11 bf
       -0.76087254 -0.7206662 -0.7832175 -0.56677324
000030 34 61 ae be 65 76 24 bf 7f 0b ab be 28 bf a2 be
       -0.34058535 -0.64243156 -0.33407208 -0.31786466
000040 d1 63 28 3f 15 c3 05 3f 7a 27 72 3d 6e ed 52 3f
       0.6577731 0.52250797 0.05911968 0.8239354
000050 2e a0 37 bf 83 0d 02 bf 78 89 42 3f 7f b0 06 bf
       -0.7172879 -0.5080187 0.7599101 -0.5261306
000060 a5 ee 2a bf e7 a8 07 be 4d ab ec be 1d e2 4e bf
       -0.6677039 -0.13248025 -0.46224442 -0.8081377
000070 3e d7 47 3f b4 82 62 3f 5f e4 1f bf 47 34 e0 be
       0.7806281 0.8848069 -0.6245784 -0.43789884
000080 a0 4e 75 bf d2 f7 9b be c0 0a ac be c8 0f 85 bf
       -0.958231 -0.3046251 -0.33601952 -1.0395441
000090 c2 0f 50 3f 2f 33 3d be aa 84 38 3f 44 f9 53 bf
       0.81274045 -0.18476556 0.7207743 -0.82802224

lyapunov.layers.2.weight f4 [40, 40]
000000 a6 1f a7 bd e7 b8 e3 bd 54 43 ff bd a2 24 53 be
       -0.08160333 -0.11119252 -0.12464014 -0.20619443
000010 93 d8 aa 3e a7 94 36 3d 18 71 7e 3e f1 78 f3 bd
       0.33368358 0.04457536 0.2484783 -0.11888302
000020 4a ee 64 bb 1b 6f bb bb 48 9f 0b 3e d7 e6 04 3d
       -0.003493207 -0.005720032 0.1363498 0.03244671
000030 5d ee 7f 3d d7 f0 c8 3d 60 4f da 3c b9 47 a4 3d
       0.06248318 0.098115616 0.026649177 0.080214925
000040 54 29 86 3b d9 5e bd 3c ca 6c f5 bd 0c fc 16 bd
       0.004094282 0.023116516 -0.119836405 -0.036861464
000050 69 12 85 3e 3b a8 95 3c 5f ca 50 3e 01 22 2c 3e
       0.25990608 0.018268695 0.20389698 0.16809846
000060 8f a5 e1 be e1 4d b3 3d 8e 87 4b 3e 38 57 b4 be
       -0.44071624 0.087550886 0.19875929 -0.35222793
000070 09 78 61 3e a5 9f ab 3d 95 82 fe 3d c8 5a a7 3c
       0.22018446 0.08380059 0.1242725 0.02042903
000080 97 54 84 3e 6b 1a fb 3d 05 0d 36 3d 1b f3 73 bc
       0.25845787 0.12260898 0.04444601 -0.014889504
000090 46 a1 88 3c ed 15 c0 bd 46 ad 0c 3d 75 50 13 be
       0.016678464 -0.09379182 0.034344934 -0.1438616
0000a0 b1 08 f4 bd 83 08 b9 3e 28 a1 2a bd 10 66 dc 3d
       -0.1191572 0.36139306 -0.041657597 0.107616544
0000b0 32 c2 f6 3d 0f 41 bc 3d 87 7f 5c 3e f1 6d 98 3d
       0.120487586 0.091920964 0.21533023 0.07442845
0000c0 9a 08 b9 be c5 fa 08 3e 3a 4c 54 be 61 8b 8a bd
       -0.36139375 0.13376911 -0.20732203 -0.06764866
0000d0 cb 76 ff bb 7f a8 cc be 7a 60 b7 be a0 65 b9 be
       -0.0077961436 -0.39972302 -0.35815793 -0.36210346
0000e0 4f af 28 3d 98 40 61 3e 27 21 94 3e eb 45 a1 bd
       0.041182812 0.21997297 0.28931543 -0.07874664
0000f0 dd ee 0b be e4 1f 7e bd 29 13 6f be b1 bd 0b be
       -0.13665338 -0.062042132 -0.23347153 -0.1364658
000100 d5 c9 c1 3e e2 0d 5b 3e cc a3 18 be 7f 80 85 3e
       0.37849298 0.21392015 -0.14906234 0.26074597
000110 5f f2 0e 3d 3f e6 89 bd 5a f2 b9 be 2b a4 a6 3d
       0.03489911 -0.06733369 -0.36317712 0.08136781
000120 55 9c d6 bc 89 9e 0c 3e fa f6 00 3d a9 57 a5 3d
       -0.026197592 0.13732351 0.031485535 0.080733605
000130 4f d1 93 3e 5e 12 c2 3d 2d b1 89 3e ab f0 cc bd
       0.28870627 0.094761595 0.26892987 -0.10006841
000140 7c 1d c1 3c ef cc 07 3e 8a 83 e7 3d 65 6c 39 3e
       0.02357363 0.1326177 0.11304386 0.18107755
000150 a7 83 9c be e6 57 8b 3d a8 38 5d 3d 72 07 73 3e
       -0.30569193 0.06803875 0.05400911 0.23733309
000160 75 6d 09 be 44 fa 08 3d bd a3 da bc 57 81 7f bc
       -0.13420661 0.033441797 -0.026689405 -0.015594802
000170 33 70 77 3d 6a 55 cd bd 0f 6b 58 be bf a3 40 be
       0.060409736 -0.10026057 -0.2113459 -0.18812464
000180 71 cb 9b 3d 5b 47 1e 3e 50 04 22 3e f5 91 09 3e
       0.07607163 0.15456907 0.15821958 0.13434584
000190 f8 6c b9 bd e7 82 6b bd a3 0c c8 be 83 cd 38 bd
       -0.09053987 -0.057497885 -0.3907214 -0.045117866
0001a0 92 29 d7 3e 0f 9e 11 3d 9f d2 8c be 9b d2 93 3e
       0.42023903 0.035551127 -0.2750444 0.28871617
0001b0 9e 6d 5b be 27 ed 5c be 23 9e 86 3d 19 c9 38 be
       -0.21428534 -0.21574841 0.06573131 -0.18045463
0001c0 2f c5 4c bd cd 72 39 bd 4b 9b 6c 3d e6 e5 e0 3c
       -0.049992736 -0.0452755 0.057765286 0.027453374
0001d0 11 5b 4c 3e c6 24 63 3e d2 2d 6d bc cf 06 d1 3d
       0.19956614 0.22181997 -0.014476256 0.10206377
0001e0 0e 01 4c 3e f5 3d 04 be 98 e7 43 3e 7f e1 c6 3d
       0.19922277 -0.1291426 0.19131315 0.09710979
0001f0 25 9c 66 be a4 df af bd f7 2d 00 be e4 b7 5c 3e
       -0.22520502 -0.08587578 -0.12517534 0.21554524
000200 e1 db 0e 3d 08 9c ca 3d 08 82 23 be 3e 30 3c be
       0.03487766 0.09893042 -0.15967572 -0.18377778
000210 8f 29 23 be c6 d1 7b 3d b4 e0 d3 3b 61 57 8c bc
       -0.15933822 0.061479352 0.0064659957 -0.01713151
000220 57 4a 24 3e a1 63 69 be 8c 97 85 be ff 80 da bc
       0.16043983 -0.22791912 -0.26092184 -0.026672838
000230 3c 7f c4 bd ca 12 9c bc eb 00 b1 be 91 d9 1e be
       -0.095945805 -0.019051928 -0.34571013 -0.15512682
000240 21 e1 82 3e 5b 2d 35 3d 0c b9 67 3d b4 7f 64 3e
       0.25562385 0.044232707 0.05657296 0.2231434
000250 6a 88 2a 3d b7 34 bc 3d 18 20 98 be 3a 0a 88 3c
       0.041634 0.09189742 -0.29711986 0.016606439
000260 f0 b8 2b be f5 e7 57 3d 2a 6b 27 3e 36 55 ca bd
       -0.16769767 0.052711446 0.16349474 -0.09879534
000270 a9 8e 50 3e b0 25 15 3d 33 26 ec 3d f6 9d 2d be
       0.2036692 0.036412895 0.115307234 -0.16954789
000280 99 c5 de 3d e0 71 28 3e 61 f0 95 3b 5b 45 0c 3e
       0.108775325 0.1644969 0.0045757745 0.13698332
000290 2a 12 02 be 5e ab 02 be e1 fe 47 be 28 33 93 3e
       -0.12702242 -0.12760684 -0.19530822 0.28749967
0002a0 fe df f2 bd dc 55 10 bd d2 d5 60 bd d2 1d 00 3d
       -0.11859129 -0.035238132 -0.054891415 0.03127844
0002b0 ea 8f c4 bd b3 77 6f be 2d ae d3 bd 1a 30 b3 3c
       -0.09597762 -0.23385505 -0.10335956 0.021873523
0002c0 5c 13 aa 3c b5 51 a8 bd cf 7d 0e 3e fa f7 11 3e
       0.020761184 -0.082187094 0.1391518 0.14254752
0002d0 31 3f 36 bc ac e8 8f bd 44 27 2c be 79 eb 65 bd
       -0.011123464 -0.070268005 -0.16811854 -0.056132767
0002e0 ff 4e cd 3e 51 82 61 bd 4a e6 1f 3c 06 c3 74 3e
       0.40099332 -0.05505592 0.009759495 0.2390252
0002f0 1f 47 be bd ee b5 00 be 55 5b 0d be 98 9c 37 be
       -0.09290909 -0.125694 -0.13804372 -0.1793083
000300 06 ef 50 be 9d 09 3b be 5f 3e 40 3e 55 bd 04 be
       -0.2040368 -0.18265386 0.18773793 -0.1296285
000310 d7 c5 ee 3d e5 9f 97 3d be 24 24 bd 46 55 00 3e
       0.11658829 0.07403544 -0.040074103 0.12532529
000320 1c 8e ab 3e 24 b8 d5 3e 58 ea bb 3e a3 ed 0e be
       0.33506858 0.4174205 0.36702228 -0.13957839
000330 f3 3c a8 be 17 2c e2 be 43 e0 81 be 55 c9 1d be
       -0.32859 -0.44174263 -0.2536641 -0.15408833
000340 e2 50 82 be 80 7a 21 3d 13 b2 08 be 0f 1c 55 bd
       -0.25452334 0.039423466 -0.1334918 -0.052028712
000350 9b 8f 82 3e e7 de d2 bd bc 09 af bc 2a c5 07 be
       0.25500187 -0.102964215 -0.021366946 -0.13258806
000360 c8 7e ed 3e 0a 8f 1d 3e cd 4b e1 3e 8c 0f 9c 3b
       0.4638579 0.15386596 0.44003144 0.0047625955
000370 1e 27 47 b9 50 51 1d be 47 79 68 3c 61 66 2f 3e
       -0.00018992691 -0.1536305 0.014189071 0.17128898
000380 1b ef 77 bd 05 66 05 be 1b c3 38 bf 87 c5 bc 3c
       -0.060530763 -0.13027199 -0.7217271 0.023043407
000390 63 16 0c 3e 4b e9 a0 3e 44 23 f6 bd 8e 06 41 be
       0.13680415 0.31427988 -0.12018445 -0.18850157
0003a0 9b 9b 97 3c 7f 97 e0 3d f9 97 9f be 17 04 dd be
       0.018506816 0.109663956 -0.31170633 -0.43167183
0003b0 67 82 4d 3e 21 45 9a 3d dc ae 73 bd 90 7b 96 bd
       0.20069276 0.075327165 -0.05949293 -0.073477864
0003c0 e9 5c 74 be de 6f b3 bd 85 98 16 be df 02 c0 bd
       -0.23863567 -0.08761571 -0.14706619 -0.093755476
0003d0 6b 38 99 3e 95 43 00 3e ce 94 4b 3d 84 27 6a be
       0.29925856 0.1252578 0.049702458 -0.22866637
0003e0 90 d5 11 3e 1d 9c 3f bc fe 0a 00 3e 74 bb 09 3e
       0.14241624 -0.011694935 0.12504193 0.13450414
0003f0 0c e1 bb 3d c7 d6 43 3d fd 1a 65 3d be 99 b5 3d
       0.09173784 0.04781225 0.05593394 0.088672146

lyapunov.layers.2.bias f4 [40]
000000 57 be 57 3e 82 ef 1e be fd d1 7e be b3 54 d7 be
       0.21068703 -0.15521052 -0.24884792 -0.42056808
000010 b4 a9 c1 be 12 a3 80 bd bf 80 77 3e bd b1 c0 3e
       -0.37824786 -0.06281103 0.24170206 0.37635604
000020 11 ab b1 be 92 08 7e bd 3b 8e 9d bd 05 fa ff bc
       -0.34700826 -0.062019892 -0.07693144 -0.031247148
000030 0a 12 96 be b6 72 9c bd 60 7e 77 bd 3c 0e a8 3e
       -0.29310638 -0.07639067 -0.060423255 0.3282336
000040 94 c4 8f 3d 7a 85 02 3c 95 6b 8c be 59 93 05 bd
       0.07019916 0.007966394 -0.2742583 -0.032611225
000050 b9 c1 53 be 35 34 98 be 82 d1 b9 be d9 e4 c7 3e
       -0.20679368 -0.2972733 -0.36292654 0.39041784
000060 4f 9a cf 3e 78 63 c7 be d4 11 6c bc e5 3c c7 3e
       0.40547416 -0.38943076 -0.014408547 0.38913646
000070 ad 19 95 be f0 40 41 be 06 f0 b3 3d e7 77 b2 3e
       -0.29121152 -0.18872428 0.08786015 0.34857103
000080 03 60 ce 3e 51 e9 76 be a6 36 4d be 42 49 a8 3e
       0.40307626 -0.2411244 -0.20040378 0.3286839
000090 45 9d 53 be 44 0e 2c 3e b8 f4 9b 3e 82 e7 f3 bc
       -0.20665462 0.16802317 0.30460143 -0.029773477

lyapunov.layers.4.weight f4 [1, 40]
000000 08 d5 fc 3e 70 b9 a0 be 38 ea 0d bf f8 59 19 bf
       0.4938128 -0.31391478 -0.55435514 -0.59902906
000010 8a 00 fc be fc 26 92 be 23 b5 07 3f e9 9a 06 3f
       -0.4921916 -0.28545368 0.5301077 0.52580124
000020 00 8d f8 be 14 18 bf 3e 9d c2 a2 3e 63 e5 b6 3e
       -0.48545074 0.37323058 0.31789103 0.35721883
000030 31 cb 10 bf 79 69 da be a6 34 21 bf bc 9e 06 3f
       -0.56560045 -0.42658594 -0.6297096 0.5258596
000040 ee 48 87 3e f0 ab e5 be 19 01 04 bf df 04 d8 3e
       0.26422828 -0.4485774 -0.51564175 0.42191216
000050 af 7a ea be 38 15 f0 be 71 c0 0a bf 5e 58 f1 3e
       -0.45796725 -0.4689119 -0.5419989 0.4713773
000060 25 83 ec 3e c1 24 f2 be 27 78 dc be c0 36 17 3f
       0.46193805 -0.47293666 -0.4306042 0.59067917
000070 8a cb 22 bf bb 3b 3c bf 28 a6 da 3e ce ab e8 3e
       -0.63591826 -0.7352864 0.42704892 0.45443577
000080 44 c1 f6 3e 15 1d f6 be e0 93 fe be cc 74 11 3f
       0.48194325 -0.48069063 -0.49722195 0.5681884
000090 cf 95 c7 be fd 4c 0a 3f eb 5b fa 3e ee 7e ab 3e
       -0.38981482 0.54023725 0.48898253 0.33495277

domain f4 [2]
000000 00 00 c0 40 00 00 08 41
       6.0 8.5
