complete_verifier/models/toy/mnist_2_20.pth (torch, 65363 bytes, 4 tensors)

1.weight f4 [20, 784]
000000 05 69 26 34 ec 3d d4 31 87 10 80 3a 84 08 ac 33
       1.549816e-07 6.1770518e-09 0.000977055 8.010923e-08
000010 c2 d6 7c 34 fa df 2e 3c b0 b9 63 34 e3 58 f9 32
       2.3547457e-07 0.010673517 2.1208575e-07 2.9027836e-08
000020 16 01 3a b3 f6 8d f2 b2 98 2e 89 34 2d a7 ed 3a
       -4.3307487e-08 -2.8237064e-08 2.555214e-07 0.0018131487
000030 1a 72 71 33 45 ff 6f 33 32 78 55 33 03 c3 06 33
       5.621596e-08 5.587869e-08 4.9702244e-08 3.137667e-08
000040 bd 9a 80 33 49 be ba 33 a5 89 e1 3b 6e 43 53 3b
       5.988611e-08 8.6959126e-08 0.0068828636 0.0032236236
000050 3a bc 75 33 df a0 be 33 60 23 92 3b da ad db b1
       5.72147e-08 8.876827e-08 0.0044597834 -6.3935035e-09
000060 cd 19 ee b3 49 0c 94 34 85 df 40 33 4c cb c3 31
       -1.1087432e-07 2.7576087e-07 4.4906773e-08 5.698359e-09
000070 26 c3 68 33 36 eb 4c 3c 1c 48 c4 32 a2 5d 00 3c
       5.4194196e-08 0.0125072505 2.2850195e-08 0.007834824
000080 ed 72 f7 3b 44 13 8b 33 fd e9 b9 b3 72 19 33 34
       0.007551542 6.476196e-08 -8.657296e-08 1.6679931e-07
000090 31 b3 89 34 b0 15 9c 32 6f c5 ba 32 3b 31 a5 34
       2.5648617e-07 1.8170653e-08 2.1743032e-08 3.0769465e-07
0000a0 5c c8 68 34 2d a6 6c 33 9c 70 d9 3b 14 3e 2e 3b
       2.1679574e-07 5.5099168e-08 0.0066357385 0.0026587294
0000b0 bc 93 44 33 b6 cd 8d 3b 5a 5f b2 33 d0 d0 65 33
       4.576917e-08 0.004327501 8.306115e-08 5.350813e-08
0000c0 44 6c 5a 30 f9 82 93 33 66 5e 86 b3 a5 f6 13 34
       7.946179e-10 6.869045e-08 -6.257032e-08 1.378017e-07
0000d0 f6 18 1b b2 f0 49 02 b4 d8 9b 84 3b 39 8c 93 3b
       -9.027863e-09 -1.2134092e-07 0.0040468983 0.0045028
0000e0 0a 9b 6f 32 28 6d 09 33 23 6d 28 33 c0 36 e2 33
       1.3946883e-08 3.1997075e-08 3.9214807e-08 1.0533904e-07
0000f0 7c 6c 68 32 d8 9a bb 31 7b c1 71 32 34 3c 47 3c
       1.3528844e-08 5.46002e-09 1.4072039e-08 0.01216035
000100 34 2d 78 b0 44 cd 85 b2 57 74 98 32 f8 09 e7 33
       -9.028611e-10 -1.5576582e-08 1.7748034e-08 1.0758589e-07
000110 98 b4 e2 b2 4a 55 d5 34 73 06 10 32 ad 2d 7a 33
       -2.6391987e-08 3.9736398e-07 8.3833696e-09 5.8249203e-08
000120 cb 7c 0e 33 d1 69 19 34 af 0c a7 34 b1 29 7b 33
       3.317545e-08 1.4287731e-07 3.1115403e-07 5.847841e-08
000130 8a 6b a3 33 9b 98 17 3c 23 ae f7 b3 59 d5 b5 3b
       7.60984e-08 0.009252693 -1.1533509e-07 0.0055491147
000140 e2 67 45 b3 69 bf d0 32 53 20 ef 33 6c f7 62 34
       -4.5962118e-08 2.430143e-08 1.11351845e-07 2.1137902e-07
000150 5b 19 b1 32 57 77 94 b2 63 31 76 b9 aa 82 ad 3b
       2.0617042e-08 -1.7283737e-08 -0.00023478786 0.0052951174
000160 29 67 73 33 55 45 ff 32 c2 f6 3d 32 ba 5f 9f 32
       5.667167e-08 2.9717436e-08 1.1057354e-08 1.8553568e-08
000170 09 96 d2 33 1b 9e 9b 3b f7 f2 18 33 99 ee 74 34
       9.806178e-08 0.0047490722 3.5611233e-08 2.2811072e-07
000180 2c e4 4f 3c f0 fc 8d 3c 49 35 72 3c e4 df 74 3c
       0.012688678 0.017332524 0.014783212 0.014945958
000190 fb ed 0d 3d 71 7a bf 3c ff 73 d8 3c 15 71 46 3c
       0.034650784 0.023373814 0.026422499 0.012111922
0001a0 91 0d 18 34 75 c9 55 b3 e8 f5 40 34 11 fc a2 34
       1.4161039e-07 -4.977615e-08 1.7970854e-07 3.0358254e-07
0001b0 d8 7a db 33 ab 9f f6 3b 0e a3 3a b3 97 94 be 3b
       1.0220327e-07 0.007526358 -4.3454797e-08 0.005816053
0001c0 11 b9 0a 33 48 99 bb 32 cb d2 4b 33 e6 42 f0 3a
       3.2298946e-08 2.183937e-08 4.7456336e-08 0.0018330484
0001d0 fb e3 cc 3b 5c 7e 36 33 6c c9 65 b3 b8 48 1f b3
       0.0062527633 4.24901e-08 -5.350141e-08 -3.708621e-08
0001e0 93 2a f2 33 89 69 18 3c 18 f0 14 3c 64 7f 50 3c
       1.12767474e-07 0.009302505 0.009090446 0.012725685
0001f0 90 db c5 3c d2 54 d3 3c 99 c6 01 3d 28 94 a9 3d
       0.024152547 0.025797281 0.031683538 0.08280212
000200 fe 8d a2 3d be 2b ac 3d 88 77 bb 3c 59 0b 45 34
       0.07937239 0.08406781 0.022884145 1.8351183e-07
000210 8d 75 a8 b7 bb 41 74 b5 22 5c 4a b3 a3 3b e4 b3
       -2.00819e-05 -9.0992734e-07 -4.7115584e-08 -1.0627925e-07
000220 97 9e ba 32 62 8d 5a 33 d2 f5 ab 34 3c bd 71 b3
       2.1725368e-08 5.0885667e-08 3.203009e-07 -5.6284293e-08
000230 34 a8 00 b3 7c f0 0e 33 88 f6 4e 34 a4 f5 10 32
       -2.9955302e-08 3.328067e-08 1.9274933e-07 8.437755e-09
000240 5b cc b5 32 a6 01 e2 33 81 7e 1f 3b c6 78 12 34
       2.1164103e-08 1.0524245e-07 0.0024336877 1.3641247e-07
000250 bd d9 1d 3a e2 20 ee 3c b8 39 ba 3c 63 02 54 3b
       0.000602152 0.029068414 0.0227326 0.0032350055
000260 e2 b4 37 bc 65 ad 5e 3b 36 df 77 3c c7 23 5e 3d
       -0.011212559 0.0033977863 0.015128901 0.05423334
000270 82 82 a5 3d 30 fa 86 3d 66 7d 3e 3d e0 bf a5 ba
       0.08081533 0.06590688 0.046506308 -0.0012645684
000280 4c 2d cc bc ad ec 3d bb a0 8f 64 33 c8 3c 3d 34
       -0.024923943 -0.002898018 5.3216013e-08 1.7624109e-07
000290 55 c3 e6 33 10 65 6d b3 b5 cb 1b 33 71 df 85 33
       1.074574e-07 -5.527278e-08 3.627402e-08 6.233939e-08
0002a0 c9 19 1b 33 49 75 48 31 13 cd 3c 34 c9 3f c3 b3
       3.61122e-08 2.91705e-09 1.758347e-07 -9.0919976e-08
0002b0 ab ed b3 34 21 4e 12 3b 84 c6 7d 3c 3c 2a ff 3b
       3.3514274e-07 0.00223244 0.015489224 0.007787017
0002c0 e8 d7 b9 3c e1 2b 8e 3c 9a 2e 82 3c 45 e5 cf 3c
       0.02268596 0.017354907 0.015891362 0.025377879
0002d0 59 28 06 3d 36 bb 41 3d eb 29 2e 3d d8 0f 2b 3d
       0.032753322 0.04729768 0.042520445 0.041763157
0002e0 8a de d2 3c d1 4a fc 3c 21 d8 a0 bb 7c 63 64 bc
       0.02574088 0.030797394 -0.004908577 -0.013939735
0002f0 40 ae 83 bc 2e bf 4a bc 7b bc 18 3b fd 6d c3 38
       -0.0160743 -0.012374682 0.0023305702 9.3188115e-05
000300 1d 45 8a 33 16 e8 e4 b2 b6 95 9b 33 de 5e 0c b3
       6.4386974e-08 -2.6648234e-08 7.244982e-08 -3.268257e-08
000310 8e 94 0d 34 00 00 e6 b3 b5 fd 9d 3b 90 06 e0 33
       1.3185692e-07 -1.07102096e-07 0.004821504 1.04320065e-07
000320 01 02 bf 34 74 13 a5 34 a0 92 6c 3c 91 80 c8 33
       3.557798e-07 3.07478e-07 0.014439255 9.336612e-08
000330 14 4a 95 3c aa 42 a7 3c 5c b6 6a 3b ce 8e c3 3c
       0.0182238 0.02041753 0.003581426 0.023871806
000340 cc 48 aa 3c b1 2a 4e 3d 98 f9 5c 3d 47 9e 81 3d
       0.020786665 0.050333682 0.05394897 0.06329017
000350 24 30 9f 37 fa 19 40 bc a2 6f ea bc 77 fa 1e bd
       1.8976694e-05 -0.011724943 -0.028617684 -0.03881308
000360 97 3d e0 bc 47 cc 03 bc 4b f0 27 39 54 45 d5 3b
       -0.027373118 -0.008044309 0.00016015877 0.0065085087
000370 6a f8 f2 34 ca 0c 67 3b 0c 8e 7a 32 2b 3c ae 33
       4.5256758e-07 0.0035255426 1.4584213e-08 8.113451e-08
000380 b8 62 a6 b3 5b 18 a6 33 38 21 c0 33 ad 9f 59 33
       -7.747934e-08 7.7344076e-08 8.946739e-08 5.0669474e-08
000390 3e 10 bb 3b 4f 4f 2c 34 d2 1e bf 34 82 89 55 30
       0.0057087233 1.60476e-07 3.5598947e-07 7.768436e-10
0003a0 aa 4e 36 3c f7 34 38 3c f3 bb 0c bc 54 7c 14 3b
       0.011127153 0.011243097 -0.008589732 0.0022657113
0003b0 45 cd 91 3b 80 d1 94 3d 9b 13 c7 3d 4f c7 4c 3d
       0.004449519 0.072665215 0.09720536 0.049994763
0003c0 57 dc 06 bb 87 37 cc bc 99 c5 3e bd 37 54 77 bd
       -0.002057811 -0.024928821 -0.046575163 -0.060383048
0003d0 49 14 11 bd a4 a2 e4 bb 30 29 30 bc bd 47 b9 bb
       -0.035419736 -0.006977396 -0.010752007 -0.005654304
0003e0 81 4c b5 bb 26 c5 0b 32 cd 33 d1 b1 1c 3c 11 b3
       -0.0055328016 8.135691e-09 -6.0885896e-09 -3.3815112e-08
0003f0 bf 1c 8d b1 b5 77 8c 33 24 52 86 33 9d 9d b9 33
       -4.106908e-09 6.5410326e-08 6.2548025e-08 8.6434035e-08

1.bias f4 [20]
000000 f0 e3 7c 3d 64 4c 84 3d 70 25 38 3e ba a6 07 3d
       0.061740816 0.06459883 0.17983031 0.033117987
000010 c5 0f b0 bc a3 b4 76 3d 26 57 66 3d 65 3a b7 3e
       -0.021491894 0.060230862 0.056235455 0.3578674
000020 f1 6d 5a 3d ce 0e da be 53 6d 3f 3d 99 a6 77 3e
       0.053327505 -0.4258942 0.04673512 0.24184646
000030 dc 38 c2 3e aa ad 94 3e bb 96 04 ba 88 60 5a 3e
       0.37934005 0.29038745 -0.0005057861 0.21325886
000040 23 28 b5 3d 6b c8 ba 3d 75 6c 36 be b6 9b 82 3d
       0.08845546 0.09120258 -0.1781481 0.06377356

3.weight f4 [10, 20]
000000 b1 01 81 bd f5 0c 69 3d 09 6c 0b bf 49 df 52 3e
       -0.06299151 0.056897122 -0.54461724 0.20592989
000010 b5 6e 96 3d 4a 55 74 bd 58 b2 fc 3d 23 4d 0f bd
       0.073453344 -0.05965165 0.12338704 -0.034985673
000020 9d 83 fd 3d 42 77 a4 be 4d d8 ed bd d2 c2 67 be
       0.12378619 -0.32122236 -0.11613522 -0.22632912
000030 b2 73 bb bd d2 7b 6c be 1e 37 90 3e ca 4b c5 3e
       -0.091529265 -0.23094109 0.2816705 0.38534385
000040 45 d3 c8 3e 06 9a 10 3e 5a 8b 46 be 23 b5 42 3d
       0.39223686 0.14121255 -0.19389096 0.047536027
000050 53 be c5 3e 0a cf b8 be f3 68 05 3f df d2 1c be
       0.38621768 -0.36095458 0.52113265 -0.15314816
000060 1a d7 a1 3c 00 c6 19 be 1d c1 b6 bd c9 02 42 be
       0.019755889 -0.15016937 -0.08923552 -0.18946375
000070 5f ab 81 be 5e a4 b0 be a7 8e 97 3d 50 3c 6a 3d
       -0.25326058 -0.34500402 0.07400256 0.057186425
000080 65 38 70 be 75 36 bc 3c 79 29 ac be d1 ab 30 be
       -0.23459013 0.022975186 -0.3362539 -0.17253043
000090 a8 b7 e8 3e e3 ab fd 3b c0 d7 b4 3e 08 0d 2b be
       0.4545262 0.0077414378 0.35320854 -0.1670419
0000a0 57 a5 b2 be 9d 65 fb bc 29 44 94 3e 43 90 20 be
       -0.3489177 -0.030688101 0.28958252 -0.15680031
0000b0 8e 56 2e bd f9 90 b1 3e a8 8f 25 3d ff 05 1a 3d
       -0.042563014 0.34680918 0.040420204 0.037603375
0000c0 56 ae 0f 3e 73 cc 68 3e 00 00 fb bd 47 6b c6 3d
       0.14031348 0.22734241 -0.122558594 0.0968843
0000d0 7d 3b 65 be c6 f8 69 bd b3 aa af be 9e f8 94 3e
       -0.22385974 -0.057122014 -0.3430992 0.2909593
0000e0 44 e0 ac 3d b6 24 31 3e ee 77 5c be 2c f7 a2 bd
       0.08441213 0.1729916 -0.21530125 -0.079573005
0000f0 9e 89 9a 3c c5 bb 37 be c7 47 be 3c 5a dd 47 3a
       0.01886445 -0.17942722 0.023227585 0.00076242315
000100 04 bb 38 3e 28 8a c6 3e d1 b6 55 3e 94 eb d9 3e
       0.18040091 0.3877728 0.2087052 0.42562544
000110 45 8c b0 3e 55 2b a3 be 5e a5 fa bc 9c a3 61 be
       0.34482017 -0.31868997 -0.030596431 -0.22035068
000120 10 d6 a3 be 32 bc 2f bd c6 60 32 3d fd 02 4e be
       -0.31999254 -0.042904086 0.04354932 -0.20118327
000130 b7 1f 83 bc 59 f2 3a be 6f 94 af 3e cb e3 15 be
       -0.016006334 -0.18256511 0.34292933 -0.14637677
000140 c5 3c 5e be 06 dd 56 be 86 10 00 be 01 bd c1 3d
       -0.21702869 -0.20982751 -0.12506303 0.09459878
000150 6e b7 da 3d 62 c2 64 bd 2f e8 2d 3d 80 ee 9b 3a
       0.10679518 -0.05584944 0.042457756 0.001189664
000160 bd 2c cc 3b 46 e4 98 bd 1c 32 8f bc 8f 4c c2 bd
       0.006230919 -0.07465415 -0.017479949 -0.09487259
000170 2d 65 c8 3e ef e7 32 be ac fc 64 be 7d f8 7b 3e
       0.3913969 -0.17471288 -0.22362012 0.2460651
000180 a5 ff 11 bf 21 05 ce 3e 7c d3 8c 3e d1 b0 3f be
       -0.5703071 0.40238288 0.275051 -0.18719794
000190 13 7a 07 3e 45 e0 16 3e 4f 3e e5 bc a1 7d 62 3c
       0.13230161 0.1473399 -0.027983813 0.013823898
0001a0 f6 40 ad 3d 48 e7 1b bd 56 5c 52 be 5e c3 1e be
       0.08459656 -0.038062364 -0.20543036 -0.15504214
0001b0 ff ff 83 3e d9 9b 78 bd e0 03 31 be f9 41 75 3f
       0.25781247 -0.060695503 -0.17286634 0.9580379
0001c0 38 f4 08 be 9b b8 66 3f f3 5a 8c 3e 10 e6 8d bd
       -0.13374412 0.90125436 0.2741314 -0.069286466
0001d0 ec 9e 53 bc 71 26 f3 bc 7a 57 c4 3c 39 40 4a 3f
       -0.012916308 -0.029681416 0.023967493 0.79004246
0001e0 51 3a 30 3e eb c6 e3 bd ad 23 b7 bd ec e9 2f 3f
       0.17209746 -0.11121925 -0.089423515 0.6871631
0001f0 3c 33 34 be 8b 8d 7e be fa 74 9a be 36 49 73 3e
       -0.1759767 -0.24858682 -0.3016737 0.23758397
000200 67 90 d8 be f6 ea 03 3f a7 92 bb bc 84 7b 9a 3b
       -0.4229767 0.51530397 -0.022897078 0.0047144312
000210 96 59 be be 89 6c f0 3d 43 da aa 3d 8d a7 79 3c
       -0.37177724 0.117394514 0.08342411 0.015237701
000220 a1 07 01 3d 3c aa ee 3d b7 63 40 bd 25 e1 a2 bc
       0.031501416 0.116535634 -0.046970095 -0.019882748
000230 9c 3f ee 3d 49 60 cf bd 8b 2d 71 3e 7d 7b b6 bd
       0.11633226 -0.10125787 0.2355253 -0.08910272
000240 bb f2 04 3e 6e 0d e9 3e f4 a9 89 3e 09 14 29 3e
       0.1298322 0.4551806 0.26887476 0.16511549
000250 c5 47 01 be 34 bc aa be 36 2a 8e 3d f8 37 9a bd
       -0.12625034 -0.33346713 0.06941645 -0.075302064
000260 7b 4d e5 3e ed c7 de bd 96 39 0e 3d e7 80 74 be
       0.44785675 -0.108779766 0.034722887 -0.23877297
000270 5f 0e 05 3d bf da 93 3d 78 26 0c bf 01 cf 1a bd
       0.03248441 0.07219457 -0.547462 -0.03779507
000280 4b 5a 09 be 94 fa 5e 3e 70 6a 97 3d 6d 49 8c bc
       -0.1341335 0.21775275 0.07393348 -0.017124856
000290 bb 12 9d 3d 31 2e 09 be 1b 97 b3 3e 9a 68 01 bf
       0.07669588 -0.13396527 0.35076222 -0.50550234
0002a0 a7 41 42 3d 7f 91 ce 3e b2 45 53 be fe 82 06 be
       0.047425892 0.4034538 -0.20632055 -0.13135907
0002b0 7e 47 39 be ef e7 c2 bd 1e e3 f0 3d 1e 6a b6 be
       -0.18093678 -0.09516894 0.11762069 -0.35627836
0002c0 5e f8 16 3e 2b 66 2a 3c ee 89 8d 3e c7 29 b2 bb
       0.14743182 0.010400335 0.27644295 -0.005437109
0002d0 ba 63 02 be 93 05 a3 3e ee 3f 1b be f1 a4 41 be
       -0.12733355 0.3184019 -0.15161106 -0.18910576
0002e0 5a eb 3d bd 94 5e d2 be ae 6b b7 be b5 0b 41 bc
       -0.046367027 -0.41087782 -0.3582434 -0.011782576
0002f0 59 52 34 3e 24 6d 4c 3e 20 3c 35 bd 86 25 04 3e
       0.17609538 0.19963509 -0.044246793 0.12904939
000300 5f a9 f7 3e e0 2d 25 be 60 84 81 be a8 9a c2 3e
       0.48371407 -0.16130781 -0.25296307 0.38008618
000310 3a 65 47 3e 67 99 e0 be ad 4e d3 3d 83 fb b6 bd
       0.19472209 -0.43867037 0.103177406 -0.08934691

3.bias f4 [10]
000000 f0 ad 11 3c cf c6 67 3e da 1f 2c 3d e8 9e 66 bd
       0.008891568 0.22634433 0.042022564 -0.05630389
000010 ca 59 82 3e f9 00 2c 3e a4 2b 37 bd ce e7 85 3e
       0.2545913 0.16797246 -0.044719353 0.26153415
000020 dc 5a 25 bf 44 c7 82 be
       -0.64591765 -0.25542653
