complete_verifier/models/oval/cifar_wide.pth (torch_old, 861167 bytes, 8 tensors)

0.weight f4 [16, 3, 4, 4]
-0.00014624617 -0.00019029349 1.9060324e-05 3.2194614e-05 -0.10566642 -0.0018767794 0.10409002 0.023615561
-0.3992718 -0.01967514 0.36346456 0.12937935 -0.105210476 -0.006972958 0.098045275 0.021636594
-0.0015689057 -0.0032252534 1.2838759e-06 -4.025325e-06 -0.14908496 -0.0091848485 0.10257042 0.016870067
-0.3371843 -0.02152131 0.23064363 0.047610987 -0.1314202 -0.012156027 0.09211257 0.012366286
-3.4775112e-05 -3.865794e-05 6.7346875e-05 0.000114158494 -0.19254236 -0.007445194 0.16042216 0.039856367
-0.18669541 -0.003561401 0.17413083 0.026356203 -0.15128262 -0.0020411662 0.17241848 0.046996627
0.0059452043 0.16848318 0.40731257 0.13317187 0.0008925824 0.07617221 0.23678823 0.06362008
-0.036575045 -0.0032786657 -1.01066125e-05 -0.009918964 -0.069124356 -0.043384958 -0.0762329 -0.047982674
-0.031576395 -0.1704489 -0.47075224 -0.14338857 -0.01252208 -0.08376095 -0.30546013 -0.07182481
-8.886018e-06 -4.867005e-05 -0.001282141 -4.928255e-06 0.00022705802 0.00023216325 0.00017936474 0.00021519058
0.012056164 0.00016994785 1.0676431e-05 0.00016044352 0.01674489 0.00015757944 8.806932e-05 0.00016937894
0.046519943 0.009946615 0.016172608 0.012152253 0.08038813 0.04245353 0.05537013 0.049098235
0.00023280704 -0.00016016033 -0.07641936 0.09049705 0.0101804705 -0.0054587806 -0.103770934 0.10338019
0.00884662 -0.046979275 -0.18496715 0.23275083 -5.6042595e-06 -0.014230372 -0.050286904 0.05734987
3.0275867e-06 -0.004696137 -0.07790647 0.041206725 0.012438648 -0.01026089 -0.124482796 0.0991905
0.015665574 -0.022114715 -0.1248523 0.1441589 -1.8519839e-05 -0.010954652 -0.050952394 0.058390945
0.0018999549 -5.5008582e-05 -0.030305574 0.01411505 0.035850324 -0.00016895222 -0.14997251 0.17052361
0.021201216 -0.00050210295 -0.077410616 0.059365924 1.7264969e-06 -0.003331651 -0.06887269 0.095134154
2.5784326e-05 0.031029867 -2.9575667e-05 -0.011768193 4.752971e-05 0.11023342 -1.5868887e-05 -0.100780204
0.014210026 0.38925543 -5.656992e-06 -0.3724941 0.0025971755 0.08371761 -1.3574902e-05 -0.08357321
1.0301367e-05 0.0025893187 -2.8408223e-05 -0.023408288 2.1720285e-05 0.08286194 -1.3513278e-05 -0.104889706
6.148073e-05 0.167598 -1.255599e-05 -0.20509955 4.353233e-05 0.05709338 -2.2247708e-05 -0.07910086
3.6714904e-05 0.0011424 2.87381e-06 -0.0012018298 0.0001278772 0.19644153 9.088682e-06 -0.1891575
0.0018833828 0.087866224 1.0174474e-05 -0.08110048 0.006553155 0.15937728 1.6411709e-06 -0.13453254
-0.050938692 -0.039410733 -0.046646886 -0.034365986 -0.032435592 -0.012484528 -0.016425857 -0.015039582
-0.0109958155 3.7306763e-05 3.738672e-05 -0.005033894 2.2797492e-06 0.00051399635 0.0033184327 1.1969932e-05
-0.021008097 -0.008097841 -0.009099413 -0.0066021592 -0.013860066 -0.0010008265 1.2302911e-05 -0.0048095006
8.2132356e-05 0.016207892 0.043248326 0.0011870299 0.001870527 0.015252095 0.05133215 0.0059122713
-0.0008829781 -0.00020209886 -4.117899e-06 -0.0013680647 0.005769996 0.06535647 0.13646641 0.007224201
0.079250045 0.07696691 0.2477484 0.030544149 0.22132148 0.32031915 0.5243088 0.16065511
0.09818598 0.099908076 0.13540527 0.057566773 0.09953029 0.084743835 0.1459311 0.04658071
0.182104 0.1979631 0.28358713 0.12272135 0.053112235 0.041521378 0.08002572 0.029250348
00000000: a859 19b9 8589 47b9 bce3 9f37 b408 0738
00000010: a367 d8bd 44fe f5ba 262d d53d 6c75 c13c
00000020: 5a6d ccbe c22d a1bc 0718 ba3e 057c 043e
00000030: 9778 d7bd 697d e4bb f6cb c83d 3a3f b13c
00000040: bda3 cdba c65e 53bb a451 ac35 4711 87b6
00000050: baa9 18be 0c7c 16bc 7110 d23d 1833 8a3c
00000060: 6ca3 acbe 754d b0bc d82d 6c3e bd03 433d
00000070: 0493 06be 132a 47bc 84a5 bc3d f69b 4a3c
00000080: 7edb 11b8 a624 22b8 943c 8d38 6068 ef38
00000090: d329 45be d0f6 f3bb b545 243e 6e40 233d
000000a0: 152d 3fbe 6566 69bb 5a4f 323e f7e8 d73c
000000b0: d5e9 1abe 16c5 05bb 788e 303e 897f 403d
000000c0: fdcf c23b db86 2c3e 468b d03e 355e 083e
000000d0: 31fc 693a 2d00 9c3d 9d78 723e 3f4b 823d
000000e0: b7cf 15bd e2de 56bb 928f 29b7 2683 22bc
000000f0: 1291 8dbd 6db4 31bd ff1f 9cbd 7b89 44bd
00000100: 4056 01bd 288a 2ebe 7006 f1be 74d4 12be
00000110: 6929 4dbc dc8a abbd 4565 9cbe e318 93bd
00000120: 2815 15b7 1123 4cb8 830d a8ba 635d a5b6
00000130: 6c16 6e39 d970 7339 db13 3c39 c8a4 6139
00000140: 3887 453c 0734 3239 ec1e 3337 bb3c 2839
00000150: 942c 893c e93b 2539 dbb1 b838 509b 3139
00000160: b28b 3e3d 21f7 223c 6b7c 843c 3e1a 473c
00000170: 88a2 a43d c1e3 2d3d cacb 623d 3b1b 493d
00000180: aa1d 7439 b6f0 27b9 c181 9cbd 8456 b93d
00000190: fdcb 263c 92df b2bb db85 d4bd feb8 d33d
000001a0: 6af1 103c 576d 40bd 0768 3dbe 3c56 6e3e
000001b0: 390c bcb6 8226 69bc a4f9 4dbd b3e7 6a3d
000001c0: 8b2d 4b36 0de2 99bb 6d8d 9fbd 62c8 283d
000001d0: 79cb 4b3c 4b1d 28bc d6f0 febd 6424 cb3d
000001e0: 1755 803c eb29 b5bc 90b2 ffbd 649e 133e
000001f0: 0d5b 9bb7 247b 33bc 75b3 50bd 582b 6f3d
00000200: e807 f93a 04b9 66b8 6543 f8bc d042 673c
00000210: cad7 123d c428 31b9 6592 19be be9d 2e3e
00000220: 2cae ad3c 8f9f 03ba 7589 9ebd af29 733d
00000230: fbb9 e735 d457 5abb 200d 8dbd b2d5 c23d
00000240: 6b4b d837 5932 fe3c 4319 f8b7 61cf 40bc
00000250: a35a 4738 0fc2 e13d 2d1e 85b7 da65 cebd
00000260: 2bd1 683c 7d4c c73e 31d1 bdb6 8cb7 bebe
00000270: 6035 2a3b 2374 ab3d c3bf 63b7 6e28 abbd
00000280: 09d4 2c37 8fb1 293b 324e eeb7 bdc2 bfbc
00000290: f533 b637 85b3 a93d 16b7 62b7 6ad0 d6bd
000002a0: 37ef 8038 cf9e 2b3e 91a7 52b7 9e05 52be
000002b0: 7c96 3638 bfda 693d 97a0 bab7 a2ff a1bd
000002c0: 54fe 1938 95bc 953a aedb 4036 b786 9dba
000002d0: c616 0639 f827 493e 987b 1837 81b2 41be
000002e0: d7db f63a 35f3 b33d 08b3 2a37 0218 a6bd
000002f0: d9bb d63b cc33 233e 3446 dc35 e6c2 09be
00000300: 17a5 50bd 266d 21bd ce10 3fbd 59c3 0cbd
00000310: 2fdb 04bd e88b 4cbc 858f 86bc 9468 76bc
00000320: cb27 34bc d579 1c38 afcf 1c38 5df3 a4bb
00000330: cbfd 1836 b6bd 063a 107a 593b 77d2 4837
00000340: 2c19 acbc cfac 04bc b415 15bc ed56 d8bb
00000350: 5515 63bc 2a2e 83ba 9a68 4e37 0499 9dbb
00000360: 793e ac38 6ac6 843c 2825 313d 1d96 9b3a
00000370: 792c f53a ece3 793c a941 523d babb c13b
00000380: a877 67ba 80ea 53b9 7c2c 8ab6 a250 b3ba
00000390: 3c12 bd3b 9dd9 853d dabd 0b3e feb8 ec3b
000003a0: d94d a23d d4a0 9d3d c2b1 7d3e b937 fa3c
000003b0: 19a2 623e df00 a43e 1a39 063f c682 243e
000003c0: bb15 c93d 9b9c cc3d aea7 0a3e 23cb 6b3d
000003d0: 89d6 cb3d 2d8e ad3d f66e 153e 6acb 3e3d
000003e0: 7979 3a3e d7b6 4a3e 5532 913e 5555 fb3d
000003f0: 378c 593d 5212 2a3d 86e4 a33d 6d9e ef3c

0.bias f4 [16]
-0.36289504 -0.62663364 -0.37959227 -0.24993776 -0.563312 0.46362272 -0.39880306 -0.45453265
-0.45629022 -0.18139192 -0.40504792 -0.41029575 0.5812315 -0.16024427 -0.26640782 -0.17394719
00000000: 61cd b9be 106b 20bf eb59 c2be afef 7fbe
00000010: 3735 10bf f55f ed3e ea2f ccbe 81b8 e8be
00000020: df9e e9be cebe 39be 7162 cfbe 4912 d2be
00000030: 96cb 143f 1317 24be 9b66 88be 361f 32be

2.weight f4 [32, 16, 4, 4]
0.00019141739 -0.0017733981 0.013539705 0.021256281 -0.10478566 -0.11785213 -0.09224007 -0.045280382
-0.17528124 -0.20584565 -0.19334969 -0.12951286 -0.10334232 -0.11447989 -0.07848724 -0.0520755
0.017278098 0.024185574 0.019056825 0.0071656206 -0.030051349 -0.031172918 -0.031527825 -0.026461653
-0.020557432 -0.020914426 -0.020583408 -0.013961233 0.026898066 0.030109236 0.028677043 0.02843212
0.012065986 0.020961352 0.0124821905 0.016494818 -0.044565283 -0.04694547 -0.047829103 -0.012817007
-0.07714517 -0.08129684 -0.09444188 -0.062096395 -0.04958794 -0.037683282 -0.038238984 -0.038993374
0.014101325 0.014883408 0.0029987083 0.0032285373 -0.046779964 -0.084674306 -0.08769237 -0.060278438
-0.11723032 -0.16724086 -0.15257332 -0.111629166 -0.05853292 -0.0822104 -0.07720419 -0.05508207
-0.0067363936 -0.020678002 -0.018529149 -0.0039497907 -0.03155472 -0.03840465 -0.0392979 -0.029623786
-0.04343376 -0.028159117 -0.027355658 -0.040001437 -0.022788908 -0.016062738 -0.014785482 -0.024803407
-0.054492272 -0.07698832 -0.07757938 -0.054145996 -0.0051125637 -0.022537613 -0.017296735 -0.016507743
0.097886704 0.09048137 0.08687409 0.06529334 0.07365181 0.09110757 0.08550344 0.04868962
0.010610997 0.027644247 0.0039050274 1.465485e-05 -0.029165613 -0.061604593 -0.12019425 -0.096922785
-0.098759376 -0.16770011 -0.21311273 -0.17320092 -0.05150907 -0.07778793 -0.118121736 -0.10348635
0.019282982 0.029723674 0.026167313 0.010822974 0.00388889 0.0098682055 0.0053237346 -0.0013531336
-0.0057738475 0.0055275257 -0.00090827956 -0.010044774 0.018377233 0.023254657 0.017935295 0.016118169
0.03055319 0.049700636 0.046638142 0.02341429 0.048361886 0.070507474 0.06377749 0.03938629
-0.01118951 -0.0020885163 -0.0040539214 -0.0075853383 -0.08500991 -0.09407201 -0.09128957 -0.07692449
-0.0016833681 -0.0021457302 -0.0007010934 5.1317387e-05 -0.035663836 -0.03710406 -0.04192269 -0.031764176
-0.042327728 -0.063931264 -0.07536222 -0.061588846 -0.024291987 -0.036702547 -0.036459893 -0.027442904
0.02848272 0.035617527 0.034868628 0.020718465 0.068960674 0.09706713 0.08044106 0.045375925
0.06432036 0.12933093 0.10799653 0.034262307 -0.046394292 -0.05707714 -0.054192036 -0.03747739
0.021357711 0.0512455 0.049022987 0.013541287 0.00031361467 0.003496605 -0.00046554333 -0.0053223604
-0.0005851343 0.0023284308 -0.00023331885 -0.00065419596 -0.0019774903 -0.002436135 -0.0043839696 -0.0014924634
-0.00975799 -0.014104871 -0.012619958 -0.012548832 -0.0070549157 -0.017752541 -0.015090937 -0.010332279
0.03279097 0.03584874 0.03437246 0.02369568 0.044713147 0.04505703 0.0422839 0.030225374
-0.05155495 -0.06923234 -0.07092074 -0.05820538 -0.046189487 -0.060642373 -0.05959819 -0.042341705
0.028508525 0.032730047 0.034884997 0.033691842 0.0549259 0.05829921 0.05972304 0.056509137
0.058760416 0.07283962 0.07134558 0.073682755 -0.0033495703 0.025829034 0.021836264 0.012468991
-0.09675667 -0.07751281 -0.08386079 -0.06296413 -0.04385362 -0.009418196 -0.010121944 -0.033271875
-0.020394307 -0.031576462 -0.030136546 -0.020980464 -0.010826688 -0.020598484 -0.01931843 -0.0114227375
0.022579333 0.019848613 0.019237109 0.017446935 0.03644613 0.034117986 0.030706497 0.028626062
00000000: 37b7 4839 5e71 e8ba a4d5 5d3c a721 ae3c
00000010: dd99 d6bd 755c f1bd 5de8 bcbd ec77 39bd
00000020: ed7c 33be 34c9 52be 76fd 45be 059f 04be
00000030: 23a5 d3bd 6f74 eabd ebbd a0bd 1f4d 55bd
00000040: cc8a 8d3c d320 c63c 0f1d 9c3c 95cd ea3b
00000050: 3f2e f6bc 595e ffbc 5223 01bd 1cc6 d8bc
00000060: 0f68 a8bc bb54 abbc 899e a8bc a8bd 64bc
00000070: 5559 dc3c a5a7 f63c 1eec ea3c 7aea e83c
00000080: 6ab0 453c 24b7 ab3c 1a82 4c3c 2420 873c
00000090: 168a 36bd e549 40bd 73e8 43bd 6cfe 51bc
000000a0: 49fe 9dbd f57e a6bd bf6a c1bd ca58 7ebd
000000b0: b91c 4bbd c959 1abd 7ba0 1cbd 84b7 1fbd
000000c0: 3e09 673c 8ad9 733c fa85 443b de95 533b
000000d0: 599c 3fbd b969 adbd 0f98 b3bd 86e6 76bd
000000e0: 7316 f0bd 3041 2bbe 2e3c 1cbe d59d e4bd
000000f0: 37c0 6fbd ed5d a8bd 3b1d 9ebd bd9d 61bd
00000100: f7bc dcbb ea64 a9bc 71ca 97bc 3f6d 81bb
00000110: 863f 01bd 324e 1dbd d6f6 20bd 95ad f2bc
00000120: 99e7 31bd f3ad e6bc f918 e0bc 8cd8 23bd
00000130: ceaf babc 0196 83bc ce3e 72bc 8430 cbbc
00000140: 4a33 5fbd 0dac 9dbd f0e1 9ebd 31c8 5dbd
00000150: 4b87 a7bb cda0 b8bc e2b1 8dbc 3f3b 87bc
00000160: d378 c83d 4c4e b93d 0beb b13d 84b8 853d
00000170: c3d6 963d 9b96 ba3d 6d1c af3d c46e 473d
00000180: bfd9 2d3c 3076 e23c 7deb 7f3b 1ade 7537
00000190: b9ec eebc 1955 7cbd 6728 f6bd 747f c6bd
000001a0: 5b42 cabd 94b9 2bbe 393a 5abe 955b 31be
000001b0: 2dfb 52bd 474f 9fbd cfe9 f1bd a7f0 d3bd
000001c0: 58f7 9d3c 107f f33c d55c d63c d852 313c
000001d0: bfdc 7e3b 41ae 213c b972 ae3b a15b b1ba
000001e0: 8b32 bdbb 3f20 b53b 9c19 6eba d692 24bc
000001f0: da8b 963c 8d80 be3c 0aed 923c 400a 843c
00000200: af4a fa3c e592 4b3d a307 3f3d 53cf bf3c
00000210: 1d17 463d 3966 903d c69d 823d 8553 213d
00000220: 3554 37bc 7ddf 08bb c2d6 84bb 6e8e f8bb
00000230: ad19 aebd d3a8 c0bd 07f6 babd 968a 9dbd
00000240: 76a4 dcba 619f 0cbb 95c9 37ba a03d 5738
00000250: 3e14 12bd 6dfa 17bd 20b7 2bbd 271b 02bd
00000260: d75f 2dbd 65ee 82bd 8257 9abd 9644 7cbd
00000270: fdff c6bc 6955 16bd f856 15bd f1cf e0bc
00000280: 9854 e93c afe3 113d 68d2 0e3d c5b9 a93c
00000290: 413b 8d3d 22cb c63d 48be a43d 1bdc 393d
000002a0: 65ba 833d 546f 043e 492d dd3d a256 0c3d
000002b0: f107 3ebd b8c9 69bd 78f8 5dbd e481 19bd
000002c0: 5ef6 ae3c cde6 513d 54cc 483d 46dc 5d3c
000002d0: a66c a439 4c27 653b 2b14 f4b9 3267 aebb
000002e0: b363 19ba 9698 183b 0da7 74b9 597e 2bba
000002f0: c898 01bb 90a7 1fbb 67a7 8fbb c39e c3ba
00000300: fadf 1fbc 1e18 67bc f1c3 4ebc 9e99 4dbc
00000310: ec2c e7bb c76d 91bc fa3f 77bc b848 29bc
00000320: d34f 063d 21d6 123d 23ca 0c3d 711d c23c
00000330: 2225 373d b88d 383d e231 2d3d 349b f73c
00000340: 492b 53bd afc9 8dbd e53e 91bd c468 6ebd
00000350: 3031 3dbd 2364 78bd 3b1d 74bd 7f6e 2dbd
00000360: b68a e93c f10f 063d 92e3 0e3d 7500 0a3d
00000370: fbf9 603d 27cb 6e3d 25a0 743d 2076 673d
00000380: c3ae 703d f02c 953d a21d 923d fce6 963d
00000390: 7784 5bbb 6997 d33c f7e1 b23c bd4a 4c3c
000003a0: 5c28 c6bd 09bf 9ebd 35bf abbd 56f3 80bd
000003b0: da9f 33bd c74e 1abc 83d6 25bc 1748 08bd
000003c0: f611 a7bc 5256 01bd ebe0 f6bc 39df abbc
000003d0: 6c62 31bc 27be a8bc af41 9ebc 6f26 3bbc
000003e0: 4bf8 b83c 8f99 a23c 2497 9d3c e0ec 8e3c
000003f0: 8a48 153d 4dbf 0b3d 318c fb3c 3481 ea3c

2.bias f4 [32]
0.08691677 -5.0230705e-05 -2.166725e-07 -8.461069e-05 -0.13792466 0.12823357 -0.16796806 -3.978557e-07
-0.13787137 -0.199302 -0.18292412 -0.03619322 -0.22572112 -0.24366748 0.32013735 0.8776829
0.74230033 -0.23765832 1.2102393 -0.37284487 -0.23993865 -0.22233498 -0.31380132 -6.204695e-08
-3.0320466e-06 -0.16459945 0.26641122 -0.27269337 1.1021308 -2.12298e-05 -0.0017293391 0.45304295
00000000: 6b01 b23d cfae 52b8 7ca6 68b4 0571 b1b8
00000010: 1f3c 0dbe a94f 033e d2ff 2bbe df98 d5b4
00000020: 272e 0dbe d315 4cbe 7650 3bbe 583f 14bd
00000030: 7023 67be f883 79be 0be9 a33e d4af 603f
00000040: 6507 3e3f b45c 73be 1fe9 9a3f 86e5 bebe
00000050: 7ab2 75be c8ab 63be 91aa a0be ac3e 85b3
00000060: 2a7a 4bb6 c28c 28be 0d67 883e 779e 8bbe
00000070: 9f12 8d3f a616 b2b7 feaa e2ba 3ff5 e73e

5.weight f4 [100, 2048]
-0.009593551 -0.022418283 -0.030703498 -0.03409166 -0.029262457 -0.030769253 -0.024920888 -0.012641189
-0.004794803 -0.004420402 -0.011469704 -0.021045001 -0.025020853 -0.0098144235 -0.008050259 -0.0074526696
-0.002215067 -0.005000726 -0.014565063 -0.028769424 -0.030099053 -0.00798279 -0.0040772026 -0.005209088
-0.007453085 -0.010390644 -0.021839969 -0.03153078 -0.028465513 -0.012287482 -0.002193798 -0.0052272077
-0.0027274117 -0.005058635 -0.012191942 -0.012178833 -0.009478254 -0.013813614 -0.0071905223 -0.003701389
0.0026267788 0.006080303 0.0020531914 0.0014895819 0.004231434 0.011090737 0.0069969296 0.002779158
0.004865165 0.004899311 0.008128058 1.93712e-05 -0.00024884567 0.007171035 0.005488217 0.005464719
0.0051104533 0.0150195565 0.005733193 0.0013066576 0.0034069787 0.009162355 0.014055398 0.0037960424
-3.3057233e-05 -5.7043533e-05 -6.2267034e-05 -5.8931037e-05 -6.728537e-05 -5.3549444e-05 -7.007868e-05 -7.092391e-05
-3.7373466e-05 -4.2982167e-05 -5.642305e-05 -2.2620756e-05 -4.5553334e-05 -7.4674645e-05 -7.639765e-05 -4.780479e-05
-3.1681277e-05 -1.852615e-05 -2.8123211e-05 2.4515995e-05 3.813925e-05 -4.5204313e-05 -5.268262e-05 -3.5117977e-05
-2.051808e-05 -9.913201e-06 -3.700254e-05 6.601241e-05 7.224652e-05 1.1161163e-05 -3.7077647e-05 -3.688519e-05
-1.1904417e-05 -3.2383006e-05 -3.130087e-05 4.6628717e-05 8.501852e-05 1.992718e-05 1.0193207e-05 -4.075158e-05
-4.787871e-06 1.148977e-05 -5.1262136e-06 1.0805679e-05 -5.7316356e-06 1.5085199e-06 3.8242815e-06 -3.38892e-05
1.3080597e-06 2.7537357e-05 -8.415899e-06 1.1633225e-05 -7.4474656e-06 -3.1036147e-06 2.7910975e-05 -4.917759e-05
-2.4449542e-05 -6.5524996e-06 -1.8584002e-05 -7.6173965e-06 -8.6459095e-06 4.9389278e-06 -1.428313e-05 -3.601416e-05
-2.1189853e-08 1.0904456e-08 1.5083922e-08 1.588234e-08 8.924625e-09 6.9172383e-09 4.770582e-09 6.0375434e-09
-1.6597935e-08 5.4259663e-09 3.0105458e-08 2.4113104e-08 2.8964037e-08 5.1236736e-08 9.712146e-08 1.9478232e-08
1.2865754e-08 -2.9922024e-08 -5.1624006e-08 -6.2733925e-08 1.1825485e-09 -1.3203659e-08 2.6963335e-08 3.6278652e-10
3.8554013e-08 -4.508437e-08 -8.756789e-08 -7.4935436e-08 1.37802125e-08 -6.652301e-08 1.7098378e-08 -1.627753e-08
6.512119e-08 7.983626e-08 5.5268035e-08 7.938665e-09 9.055782e-09 1.508634e-08 6.879132e-08 7.6220115e-09
5.141078e-08 9.6855075e-08 3.4935756e-08 2.9131815e-08 1.0882687e-07 9.814078e-08 7.874575e-08 -1.45231865e-11
-8.803994e-09 3.897513e-08 -2.0605059e-08 2.2719966e-08 1.7728224e-08 5.1368488e-08 2.0179284e-08 -3.4523882e-08
-1.1555777e-09 1.050938e-08 -4.6525128e-10 -8.281498e-09 9.175127e-09 3.3224705e-08 2.5287905e-09 4.4707997e-09
-4.402596e-06 -7.5825483e-06 -3.1147467e-06 -9.572679e-06 -8.933967e-06 -1.9303614e-05 -1.5921005e-05 -3.0702442e-05
-3.0311821e-06 -6.17846e-06 -5.948622e-06 -6.5164973e-06 -6.3719613e-06 -7.937247e-06 -1.3865888e-05 -3.0669034e-05
-3.9891506e-06 -6.220444e-06 -6.1011065e-07 -1.4009841e-05 6.747375e-06 -4.1240473e-06 -5.1249594e-06 -2.7442913e-05
-3.1378324e-06 -3.5573146e-06 -5.504812e-06 -5.5655873e-06 9.91241e-06 -6.6352113e-06 -1.2518642e-06 -2.2616348e-05
-1.3264739e-06 1.8159735e-06 -8.522032e-06 -3.1328818e-06 2.3013246e-05 3.1061074e-06 -7.968416e-06 -2.4679595e-05
-1.5355772e-06 7.786313e-06 -6.5971635e-06 1.0057654e-05 -3.2639122e-07 3.2790435e-06 2.9443314e-07 -3.3889428e-05
-2.816258e-06 4.6521086e-06 2.514562e-06 4.548262e-06 -1.6103413e-06 -2.302561e-06 -5.8097335e-06 -1.6108319e-05
-2.9223704e-06 8.866406e-06 1.8405653e-06 8.7943425e-07 -1.0072374e-06 -7.150827e-06 -1.8816114e-05 -7.8548765e-06
00000000: 452e 1dbc 8ca6 b7bc e785 fbbc b2a3 0bbd
00000010: d2b7 efbc cd0f fcbc e426 ccbc fd1c 4fbc
00000020: b91d 9dbb 05d9 90bb 6deb 3bbc 9166 acbc
00000030: 88f8 ccbc adcc 20bc 3ce5 03bc 8635 f4bb
00000040: a82a 11bb 21dd a3bb 4da2 6ebc dbad ebbc
00000050: 4a92 f6bc 3fca 02bc 0e9a 85bb ffb0 aabb
00000060: 0239 f4bb 853d 2abc bce9 b2bc 6b26 01bd
00000070: 8230 e9bc 6f51 49bc d3c5 0fbb ff48 abbb
00000080: 60be 32bb e8c2 a5bb b6c0 47bc ba89 47bc
00000090: ae4a 1bbc 7f52 62bc 799e ebbb 0193 72bb
000000a0: 0926 2c3b 473d c73b d68e 063b 133e c33a
000000b0: d7a7 8a3b ecb5 353c 8046 e53b 8922 363b
000000c0: f66b 9f3b 668a a03b 8c2b 053c 567f a237
000000d0: 8077 82b9 00fb ea3b 80d6 b33b 6311 b33b
000000e0: 9775 a73b 9614 763c 82dd bb3b 2744 ab3a
000000f0: 9e47 5f3b b41d 163c 9d48 663c 06c7 783b
00000100: efa6 0ab8 0742 6fb8 5c95 82b8 b82c 77b8
00000110: 8f1b 8db8 479a 60b8 34f7 92b8 fcbc 94b8
00000120: 74c1 1cb8 c047 34b8 caa7 6cb8 b4c1 bdb7
00000130: 8510 3fb8 a59a 9cb8 ad37 a0b8 0182 48b8
00000140: 83e1 04b8 9b68 9bb7 23ea ebb7 b3a7 cd37
00000150: b5f7 1f38 c399 3db8 88f7 5cb8 a44b 13b8
00000160: 3e1e acb7 e050 26b7 2d33 1bb8 2570 8a38
00000170: 0e83 9738 d440 3b37 d283 1bb8 2cb5 1ab8
00000180: 15b9 47b7 fdd2 07b8 0e49 03b8 3493 4338
00000190: f84b b238 4b29 a737 7e03 2b37 adec 2ab8
000001a0: 80a7 a0b6 30c4 4037 d701 acb6 0a4a 3537
000001b0: 6052 c0b6 5978 ca35 5452 8036 4024 0eb8
000001c0: 9790 af35 0600 e737 0332 0db7 522c 4337
000001d0: 3ee5 f9b6 b247 50b6 5d22 ea37 0944 4eb8
000001e0: fe18 cdb7 8bdd dbb6 d7e4 9bb7 f098 ffb6
000001f0: e60d 11b7 11b9 a536 94a1 6fb7 e90d 17b8
00000200: fb04 b6b2 4e56 3b32 e591 8132 a36d 8832
00000210: ea52 1932 acac ed31 7cea a331 cb72 cf31
00000220: 3f93 8eb2 4e6f ba31 4d4d 0133 4721 cf32
00000230: 97cc f832 630f 5c33 1691 d033 1651 a732
00000240: 2f08 5d32 9d83 00b3 32b9 5db3 57b8 86b3
00000250: 3a87 a230 4ed6 62b2 009d e732 aa71 c72f
00000260: 9696 2533 caa2 41b3 f50c bcb3 31ec a0b3
00000270: 04be 6c32 69db 8eb3 bbdf 9232 abd2 8bb2
00000280: c1d8 8b33 7372 ab33 d95f 6d33 9e62 0832
00000290: c093 1b32 3697 8132 6eba 9333 f6f1 0232
000002a0: c0ce 5c33 a4fe cf33 450c 1633 8a3d fa32
000002b0: 34b4 e933 77c1 d233 ef1a a933 9e7e 7fad
000002c0: 6040 17b2 9c65 2733 01ff b0b2 bc29 c332
000002d0: c748 9832 40a0 5c33 b756 ad32 6947 14b3
000002e0: 47d2 9eb0 be8c 3432 4cc6 ffaf 6a46 0eb2
000002f0: a3a0 1d32 f3b2 0e33 f4c6 2d31 929d 9931
00000300: 03ba 93b6 986d feb6 f106 51b6 589a 20b7
00000310: 19e3 15b7 32ee a1b7 198e 85b7 7fc6 00b8
00000320: 506b 4bb6 9150 cfb6 469a c7b6 49a8 dab6
00000330: bbce d5b6 372a 05b7 89a1 68b7 a0a2 00b8
00000340: 8bda 85b6 35b9 d0b6 7cc6 23b5 cf0b 6bb7
00000350: 8367 e236 4c61 8ab6 11f7 abb6 3535 e6b7
00000360: 8d93 52b6 33ba 6eb6 fab5 b8b6 08c0 bab6
00000370: 7a4d 2637 08a4 deb6 ba05 a8b5 3db8 bdb7
00000380: 4c09 b2b5 60bc f335 d9f9 0eb7 803e 52b6
00000390: 920c c137 8572 5036 16b0 05b7 0707 cfb7
000003a0: 081a ceb5 f6a1 0237 345d ddb6 4cbd 2837
000003b0: de3a afb4 8a0d 5c36 9512 9e34 7f24 0eb8
000003c0: f2fe 3cb6 4f19 9c36 d9bf 2836 469d 9836
000003d0: e822 d8b5 b285 1ab6 3bf1 c2b6 5a20 87b7
000003e0: f11d 44b6 ecc0 1437 5809 f735 4312 6c35
000003f0: 6a30 87b5 23f1 efb6 4cd7 9db7 70c8 03b7

5.bias f4 [100]
-0.024752883 0.009595716 0.027809396 0.011157503 0.0143589 0.02173826 -0.010067952 -0.010391162
0.03446091 0.015941627 -0.016710615 0.026843393 0.00046028514 -2.0412312e-09 -1.0047445e-09 -0.013145033
-0.0033211063 -1.0167238e-05 0.019341048 -0.025589528 0.029938828 -0.020758897 0.026982926 -0.035193764
-0.0039390693 0.033223033 -1.6908993e-09 -0.0029734478 -0.035205532 0.025593761 0.03313183 -0.037459638
-0.011284794 -0.01258711 -0.0057005016 0.025751919 -1.2259044e-09 -0.004368551 0.00072827394 0.0013234958
-0.047315463 -0.009213607 0.003282394 0.01960656 -0.026981318 0.057234645 0.13317364 0.06382054
-9.889832e-10 0.017976664 0.043148216 -7.2874834e-10 0.0651845 0.034074776 0.029296637 0.014890877
0.04481389 0.043242205 0.02909211 0.034294914 0.0013684279 -0.0030882596 0.012290977 -0.00891577
0.06475194 -0.012711147 0.028999103 -1.5589e-09 0.013058858 0.0043734605 0.0051416527 0.0014977555
0.018096346 0.018787047 0.019507386 -0.03614753 -0.061078966 -0.009225174 -0.0070575047 0.02851721
0.027716134 0.017106399 -0.00420789 0.123640835 0.028651768 0.03192674 -0.0056251055 0.06873992
-0.0020524075 0.0076988055 -0.012904732 -0.002938527 0.0036389453 0.02592057 0.017257512 0.019904045
-0.019093744 0.0111034205 -0.006198726 0.009227764
00000000: 8fc6 cabc 5a37 1d3c 88d0 e33c f6cd 363c
00000010: 9741 6b3c 6f14 b23c 0df4 24bc b13f 2abc
00000020: e226 0d3d 0498 823c b3e4 88bc ade6 db3c
00000030: 6d52 f139 b845 0cb1 4e17 8ab0 445e 57bc
00000040: eba6 59bb f493 2ab7 1e71 9e3c 21a1 d1bc
00000050: 4642 f53c 900e aabc 4c0b dd3c 5627 10bd
00000060: 4f13 81bb e014 083d 3b65 e8b0 2dde 42bb
00000070: ad33 10bd 02aa d13c 3eb5 073d 476f 19bd
00000080: dbe3 38bc 2a3a 4ebc 46cb babb b0f5 d23c
00000090: ad7c a8b0 1026 8fbb a3e9 3e3a 2679 ad3a
000000a0: dccd 41bd abf4 16bc 6f1d 573b f09d a03c
000000b0: ed07 ddbc e06e 6a3d ac5e 083e 58b4 823d
000000c0: c1ec 87b0 cc43 933c 2fbc 303d 1b51 48b0
000000d0: 737f 853d fe91 0b3d 80ff ef3c ddf8 733c
000000e0: c58e 373d bd1e 313d 9452 ee3c d378 0c3d
000000f0: d25c b33a 6664 4abb 1860 493c 7313 12bc
00000100: aa9c 843d 6a42 50bc 878f ed3c eb40 d6b0
00000110: d2f4 553c 3f4f 8f3b 4f7b a83b 5650 c43a
00000120: ca3e 943c 4be7 993c f4cd 9f3c 6f0f 14bd
00000130: f02d 7abd 2f25 17bc a442 e7bb ed9c e93c
00000140: f20c e33c b822 8c3c 57e2 89bb 6837 fd3d
00000150: 1db7 ea3c 9dc5 023d ce52 b8bb 84c7 8c3d
00000160: af81 06bb 4346 fc3b 5e6e 53bc 4d94 40bb
00000170: 5f7b 6e3b 6057 d43c a05f 8d3c cf0d a33c
00000180: 7c6a 9cbc 1feb 353c af1e cbbb 0c30 173c

7.weight f4 [10, 100]
0.30199856 -0.16199423 -0.120374575 0.09205622 -0.038039446 -0.08146414 0.1546218 0.23929985
-0.0034992935 0.25105348 0.1065299 -0.038612187 0.010043511 -3.6396264e-09 -3.861013e-09 -0.07316537
-0.038777996 6.410946e-06 -0.04808994 -0.04485313 -0.0883853 0.007707431 0.038907655 0.1463527
0.28448397 -0.060497213 5.5437716e-10 0.0046998323 0.15406783 -0.043697372 0.063993394 0.66012776
-0.095024146 0.0042264564 -0.08694924 -0.068312936 3.4089647e-09 0.05668763 -0.101019934 0.13823521
0.02020606 -0.08363406 0.0037889904 0.35574535 0.23171921 0.20034131 0.115186304 -0.048844777
-9.322366e-09 0.22060126 -0.19734028 8.579873e-10 -0.04917464 -0.05327442 -0.04662324 0.020061037
0.17511538 -0.033706404 0.11674921 -0.017566599 0.03927418 -0.04839094 -0.12163002 -0.03851524
-0.1381265 -0.039453436 0.30231908 -4.39086e-10 -0.24398758 -0.010740486 -0.033273626 -0.10639496
0.009835382 -0.04586869 -0.009157815 -0.036612913 -0.08793297 -0.0848731 0.28398937 -0.08416465
-0.123278804 0.28817078 -0.070264205 0.21251667 -0.034865934 0.35150722 0.086886905 -0.05836189
0.02052291 0.14209697 -0.072320685 -0.041913193 0.037735738 -0.08777606 -0.1640811 -0.06350865
-0.04975811 -0.01422207 0.105967976 0.0347023 -0.11534819 -0.2097503 -0.08378164 0.10716616
0.03635523 0.3106952 -0.093396954 -0.11307645 -0.049277704 -0.100239314 -0.11142511 0.50642866
-0.06864238 -3.745838e-09 3.881139e-09 -0.07315739 -0.035132732 -2.969432e-06 -0.04834858 -0.04530317
0.39509705 0.016592592 -0.05408711 0.014471828 -0.08032656 -0.0038212016 1.4333298e-09 -0.0022264146
-0.079379365 -0.043207027 -0.048997425 -0.09126392 0.4095615 0.051723268 -0.27230737 0.036856987
4.6939084e-09 -0.078436494 -0.2834288 -0.14615344 0.020224998 0.40579408 -0.065620445 -0.044278752
-0.08567556 0.071508475 0.3580897 0.28557876 -3.0814948e-10 -0.09083554 -0.2591256 -3.926528e-09
-0.048757732 0.48153245 -0.043000933 -0.06600804 -0.118697114 -0.03656491 0.3361825 -0.07012394
-0.05953328 -0.04800224 -0.024452977 -0.075430274 -0.07655513 -0.01947958 -0.116758816 4.5920303e-09
0.01842329 -0.20402876 -0.039444335 -0.013003104 0.088472374 -0.04612434 -0.032744452 -0.023614105
0.5086352 -0.08487118 -0.0928762 0.3107575 -0.21594225 -0.05441632 -0.07006429 -0.07275595
-0.038524415 -0.03441296 -0.030320162 -0.05842874 -0.048510354 -0.080738015 -0.07233521 -0.041766517
-0.14577039 -0.070991896 -0.007050264 0.11903682 -0.049484458 0.020995248 -0.07375231 -0.0479899
0.063670054 0.14668222 -0.07645556 0.021625364 -0.030973924 -0.081275366 0.20233424 0.0764966
0.044722486 0.07538012 0.23980676 -0.060216207 0.08225518 3.8153156e-09 3.4766063e-09 -0.07316553
-0.034400716 1.38603e-05 -0.048214905 -0.043836735 -0.10836065 -0.112556145 -0.054132614 0.021370985
0.09662994 -0.0818733 -6.343159e-10 0.0047315313 0.03512275 -0.04320899 -0.04902773 -0.06676678
-0.10463885 0.017531086 0.045196544 -0.13291778 3.055981e-09 -0.062399782 0.14445083 0.026428118
0.30830368 -0.104657345 0.0070778984 -0.036368262 -0.07781309 0.07222209 -0.14648533 0.026987527
7.1740907e-09 0.1758174 0.11648237 -1.2150393e-09 -0.048948273 -0.053597733 -0.025736557 -0.025001144
00000000: 8e9f 9a3e d1e1 25be f286 f6bd f987 bc3d
00000010: 40cf 1bbd acd6 a6bd 2d55 1e3e 050b 753e
00000020: 6754 65bb 158a 803e 592c da3d d027 1ebd
00000030: 8a8d 243c fc1c 7ab1 d4a9 84b1 bad7 95bd
00000040: add5 1ebd 9b1d d736 f5f9 44bd eab7 37bd
00000050: 5a03 b5bd 9e8e fc3b a25d 1f3d 7bdd 153e
00000060: e2a7 913e edcb 77bd d362 1830 0d01 9a3b
00000070: f5c3 1d3e 04fc 32bd f80e 833d 22fe 283f
00000080: 059c c2bd 167e 8a3b 7112 b2bd a7e7 8bbd
00000090: 2443 6a31 4a31 683d 8ae3 cebd 888d 0d3e
000000a0: 2e87 a53c 5648 abbd b650 783b 4124 b63e
000000b0: cd47 6d3e 4626 4d3e cce6 eb3d 7611 48bd
000000c0: 3328 20b2 4ce5 613e 9213 4abe 7dd7 6b30
000000d0: 596b 49bd 4736 5abd 03f8 3ebd 0b57 a43c
000000e0: 7251 333e ba0f 0abd 361a ef3d d4e7 8fbc
000000f0: f6dd 203d 9435 46bd 2919 f9bd 28c2 1dbd
00000100: 0971 0dbe ed99 21bd 91c9 9a3e dc63 f1af
00000110: e1d7 79be ddf8 2fbc ed49 08bd 9ae5 d9bd
00000120: 9524 213c cfe0 3bbd a90a 16bc 6cf7 15bd
00000130: 3316 b4bd f3d1 adbd 0e67 913e 845e acbd
00000140: 9979 fcbd 1f8b 933e aee6 8fbd f89d 593e
00000150: 95cf 0ebd c1f8 b33e c3f1 b13d e10c 6fbd
00000160: a91f a83c de81 113e de1c 94bd 2bad 2bbd
00000170: ca90 1a3d efc3 b3bd e004 28be d310 82bd
00000180: 29cf 4bbd af03 69bc bd05 d93d 0024 0e3d
00000190: ac3b ecbd c8c8 56be b595 abbd ef79 db3d
000001a0: 39e9 143d 7113 9f3e e746 bfbd a094 e7bd
000001b0: 6bd7 49bd 454a cdbd d932 e4bd 4fa5 013f
000001c0: 6094 8cbd bdb4 80b1 dc5a 8531 8bd3 95bd
000001d0: 57e7 0fbd 7446 47b6 2909 46bd d18f 39bd
000001e0: 294a ca3e 30ed 873c 728a 5dbd 3f1b 6d3c
000001f0: 4082 a4bd 206d 7abb cffe c430 0ae9 11bb
00000200: a691 a2bd daf9 30bd 86b1 48bd 94e8 babd
00000210: 0cb2 d13e c7db 533d df6b 8bbe 5af7 163d
00000220: 0e48 a131 50a3 a0bd 941d 91be 3fa9 15be
00000230: e5ae a53c 3ec4 cf3e 0364 86bd a35d 35bd
00000240: ab76 afbd 0973 923d 8857 b73e 6137 923e
00000250: 2f68 a9af fc07 babd 1cac 84be 1bea 86b1
00000260: 30b6 47bd 6c8b f63e bf21 30bd 392f 87bd
00000270: 7917 f3bd 16c5 15bd 1d20 ac3e 249d 8fbd
00000280: 2bd9 73bd ff9d 44bd 9c51 c8bc 307b 9abd
00000290: f0c8 9cbd a493 9fbc 3f1f efbd edc7 9d31
000002a0: 71ec 963c eaec 50be 6290 21bd f90a 55bc
000002b0: 0131 b53d e0ec 3cbd 0c1f 06bd 5e72 c1bc
000002c0: eb35 023f f1d0 adbd e135 bebd 9b1b 9f3e
000002d0: f71f 5dbe a6e3 5ebd de7d 8fbd 1201 95bd
000002e0: c7cb 1dbd 9bf4 0cbd fd61 f8bc f952 6fbd
000002f0: cbb2 46bd f959 a5bd 7c24 94bd 5e13 2bbd
00000300: d544 15be 3364 91bd e705 e7bb 94c9 f33d
00000310: 37b0 4abd 3afe ab3c 730b 97bd 0f91 44bd
00000320: 7265 823d dd33 163e bc94 9cbd ad27 b13c
00000330: 07bd fdbc b373 a6bd b530 4f3e 40aa 9c3d
00000340: ed2e 373d e460 9a3d e78f 753e 45a5 76bd
00000350: 6775 a83d df17 8331 1be9 6e31 cfd7 95bd
00000360: c4e7 0cbd 8989 6837 fe7c 45bd 268e 33bd
00000370: 30ec ddbd d683 e6bd 29ba 5dbd 3412 af3c
00000380: ebe5 c53d 30ad a7bd 035c 2eb0 f60a 9b3b
00000390: dfdc 0f3d e9fb 30bd 4dd1 48bd 06bd 88bd
000003a0: e54c d6bd 5a9d 8f3c 0320 393d 991b 08be
000003b0: 6301 5231 ea96 7fbd ebea 133e c87f d83c
000003c0: fbd9 9d3e 9756 d6bd b7ed e73b e3f6 14bd
000003d0: 785c 9fbd 2de9 933d 4000 16be f214 dd3c
000003e0: f87f f631 7a09 343e 4f8e ee3d 65fe a6b0
000003f0: fc7d 48bd 4c89 5bbd 79d5 d2bc 33cf ccbc

7.bias f4 [10]
-0.0673837 -0.061668806 -0.034577638 0.07569891 0.028994756 -0.027172118 -0.0050790757 -0.081631795
0.064128734 0.108690724
00000000: 7700 8abd 6e98 7cbd 48a1 0dbd 0808 9b3d
00000010: 6986 ed3c 1098 debc 606e a6bb 922e a7bd
00000020: ed55 833d 3e99 de3d
