complete_verifier/models/custom_op/cifar_wide_adv.pth (torch, 939976 bytes, 17 tensors)

conv1.weight f4 [16, 3, 4, 4]
000000 72 51 61 3b 84 98 3d 3d 85 4b a6 3c b8 38 b5 3c
       0.003438082 0.04628803 0.020299682 0.022121772
000010 48 1d 8b 3d 7e 46 05 3d 22 ed 08 3e f2 c4 9a 3c
       0.06792694 0.03253793 0.13371709 0.018892739
000020 24 18 20 3d 02 65 42 3e 33 53 6c 3d f1 16 f6 3d
       0.039085522 0.18983844 0.057696532 0.120160945
000030 15 6f 3b 3d 02 7d 92 3c 6d 19 96 3d 09 00 12 3c
       0.045760233 0.017881874 0.07329068 0.008911141
000040 0a 68 20 39 7a ad 81 3c 75 d1 cd 3b 5b 42 6c 3b
       0.00015297547 0.01582979 0.0062810727 0.0036050293
000050 8c f8 2a 3d 5f 19 95 3c 13 3d b2 3d 29 ae 08 3c
       0.04174094 0.018200574 0.08703055 0.008342304
000060 53 c2 87 3c c5 e5 d8 3d 80 ae a7 3c a9 9a 70 3d
       0.016572153 0.105907 0.02046895 0.058741245
000070 5b 4e 1d 3d e3 12 2f 3c ad cf 33 3d 00 e6 8c 3b
       0.038404804 0.010685655 0.043899227 0.004299879
000080 4f d9 5c b8 c4 fc e0 3b cf b4 9a 3b a5 9c cf 3b
       -5.265447e-05 0.0068660695 0.004721261 0.006335812
000090 32 d3 4d 3d 66 66 04 3d 68 81 bf 3d 6d 69 98 3c
       0.05025024 0.032324217 0.09350854 0.018604958
0000a0 f2 f6 aa 3c 2c bd da 3d bb 7e c7 3c 8d 7b 8c 3d
       0.020869706 0.10680613 0.024352422 0.06859503
0000b0 c7 e8 5c 3d c3 06 9c 3c 86 87 42 3d f1 26 60 3c
       0.05393293 0.019046193 0.047492526 0.013681159
0000c0 ca 6e 81 bd 29 78 ca be cb a0 07 bd a9 47 88 3d
       -0.063199595 -0.395448 -0.03311233 0.06654293
0000d0 9f d3 aa be ef 0c df bd 69 70 08 3e 6d 68 85 3d
       -0.3336458 -0.10891139 0.13324131 0.06514058
0000e0 df b4 d5 bd 0e 28 4b bd 4f 13 39 3e 16 49 b5 3e
       -0.10434889 -0.049598746 0.18073772 0.35407323
0000f0 ce f0 f0 bc 1c 5a 32 3d 31 8a 91 3e 17 80 a3 3c
       -0.0294117 0.043542966 0.28425744 0.019958539
000100 5a f5 26 bd d1 d7 b5 be 4b 30 ad bc 70 2a 42 3d
       -0.04076133 -0.35516217 -0.021141192 0.047403753
000110 3c c3 b9 be 30 29 cb bd d7 96 14 3e d9 d1 6c 3d
       -0.36281765 -0.09919965 0.14510666 0.057817314
000120 fb 54 79 bd e5 2c 32 bd 4b fc d4 3d a6 3b 8d 3e
       -0.06087206 -0.043499846 0.103996836 0.2758457
000130 8d ad 47 bd 8c ec 0e 3d 63 bc 90 3e 37 05 73 3c
       -0.048749495 0.034893557 0.28268728 0.014832786
000140 27 f7 09 bd 14 52 92 be ec e3 c6 bc d6 d4 82 3c
       -0.03368297 -0.28578246 -0.024278603 0.015970629
000150 5b c2 a4 be 7a 31 16 be 1b 8f f5 3d 93 a6 a8 3d
       -0.3217953 -0.14667311 0.11990186 0.082348965
000160 12 24 5a bd 0d c3 e3 bc a3 74 cd 3d 23 36 79 3e
       -0.053257056 -0.027802968 0.10032012 0.24337058
000170 8b cc 21 bd 90 d9 61 3d a9 1c 94 3e 82 b9 d9 3c
       -0.039501708 0.055139124 0.28928116 0.026577715
000180 93 d3 d4 3d b9 75 19 3f c2 2b 23 3e 22 2f 8c 3e
       0.10391917 0.59945256 0.15934661 0.2737971
000190 39 c0 72 bc 3c fe 85 bc ef 71 5f be 4d f9 6f bd
       -0.014816337 -0.01635658 -0.21820806 -0.05858736
0001a0 84 ca 4e bd 9d 51 cd be 3b 88 14 be 18 2c 8f be
       -0.050486103 -0.40101328 -0.14505093 -0.27963328
0001b0 f9 84 c3 bc 0e 49 91 ba 89 aa ca 3c 5a 88 fb 3b
       -0.023867117 -0.0011084394 0.02473952 0.0076761665
0001c0 08 79 55 3d ba 85 e4 3e c4 3f a8 3d 45 81 38 3e
       0.052117378 0.44633275 0.08215287 0.18018062
0001d0 4a 73 57 bc cd dd 71 bc d2 67 6b be d2 3b 4f bd
       -0.013150046 -0.014762354 -0.22988823 -0.05059416
0001e0 d9 4e c6 bc dc 8d 96 be 97 d2 98 bd e1 17 48 be
       -0.02420752 -0.29405105 -0.07462042 -0.19540359
0001f0 24 23 20 bc e0 d4 a5 3b 1b 69 86 3d c3 ad 71 3c
       -0.009774003 0.005060777 0.06563016 0.014750901
000200 d1 22 4d 3d fa 62 c0 3e 35 e0 a1 3d 36 bd 2d 3e
       0.05008203 0.37575513 0.07904092 0.1696671
000210 8d b9 7f bc ce b6 b0 bc ec ce 39 be d8 ad 8a bd
       -0.015608204 -0.021571543 -0.1814534 -0.06771439
000220 d3 be a8 bc ac 17 54 be c1 7c 60 bd d7 ff 03 be
       -0.020598805 -0.20712155 -0.054806475 -0.12890564
000230 20 62 a2 3b 79 3b ab 3c e8 d1 cc 3d 1c 60 b7 3c
       0.004955545 0.020902382 0.10000974 0.022384696
000240 ae 07 0c 34 a5 21 cb 32 38 92 98 34 73 7d d8 32
       1.304131e-07 2.364761e-08 2.8418594e-07 2.5202757e-08
000250 d2 05 26 34 70 5a 08 34 6b 24 86 b3 35 58 42 b3
       1.5462072e-07 1.2698888e-07 -6.2464856e-08 -4.524937e-08
000260 81 7b bf 32 86 bf 79 32 56 77 86 34 71 72 10 b4
       2.229149e-08 1.4537255e-08 2.5046273e-07 -1.3452679e-07
000270 db 3b 34 34 cb 2c 33 34 d2 c2 7f 34 cf 4b 0a 34
       1.6785582e-07 1.668697e-07 2.3819601e-07 1.287983e-07
000280 6c 16 7d b3 bd 3f 5a b4 14 7b 57 34 39 9c b8 33
       -5.8926545e-08 -2.032602e-07 2.0068211e-07 8.5965844e-08
000290 51 4a 8d b4 ef cf 4b 33 4f 17 a3 b4 b6 6a f2 31
       -2.631737e-07 4.7453735e-08 -3.0378075e-07 7.0552586e-09
0002a0 6e ec 89 b3 b5 82 0c b4 71 3c 2e 34 81 a5 99 b4
       -6.422566e-08 -1.3086067e-07 1.6227001e-07 -2.861889e-07
0002b0 99 32 08 b3 bf da 90 33 93 88 e1 33 8a b6 94 33
       -3.1710986e-08 6.745312e-08 1.0502222e-07 6.924991e-08
0002c0 1b d8 d3 b2 09 a8 9e b3 ec 2b 82 34 3d d0 77 34
       -2.4661906e-08 -7.388014e-08 2.4246344e-07 2.3079424e-07
0002d0 6a 89 12 b4 12 45 6f 32 07 d7 18 b4 04 3c 85 b3
       -1.36473e-07 1.3927336e-08 -1.423433e-07 -6.204212e-08
0002e0 00 86 e4 33 5c 4c 27 33 55 12 62 34 3b 01 82 b4
       1.0641452e-07 3.8952166e-08 2.105456e-07 -2.4215282e-07
0002f0 3e ec 6d 34 ce 99 21 34 35 5a 2d 34 d1 c9 4f 33
       2.215829e-07 1.5050247e-07 1.6144698e-07 4.8379494e-08
000300 32 22 24 bd 06 77 cb 3d a0 48 0f 3e 7c 1e a4 3e
       -0.040071674 0.09934811 0.13992548 0.32054508
000310 d7 a6 99 be 62 05 6f bd 7a 86 92 3e 06 e9 aa 3d
       -0.300101 -0.058354743 0.28618222 0.08345227
000320 bf b6 bd bd ca e1 e5 be 1d 21 21 bb ca 4c 34 3e
       -0.09263372 -0.44898826 -0.0024586387 0.17607418
000330 26 63 28 bd 8c 3f 1e bd e6 93 54 bd b7 12 1e 3c
       -0.04111018 -0.03863482 -0.05189886 0.009648017
000340 0e e1 de bc ff e9 9f 3d 20 ae a4 3d bb 81 88 3e
       -0.027206924 0.07808303 0.08041024 0.26661476
000350 be 35 a9 be d5 3f 5a bd a7 ae 9d 3e 3a 09 95 3d
       -0.33048815 -0.05328353 0.30797312 0.072771505
000360 72 17 78 bd 6f da cc be 9b 46 94 bb 35 96 fa 3d
       -0.060569234 -0.40010402 -0.0045250184 0.12235681
000370 03 4a 8c bd a0 bf 2c bd 5b 1b 8d bd 76 8f cc 3b
       -0.06850054 -0.042174935 -0.06889983 0.006242688
000380 75 1f be bc d0 6f 9f 3d e7 41 96 3d d0 0e 62 3e
       -0.02320836 0.077849984 0.073367886 0.22075963
000390 d8 d9 8f be 2a d4 94 bd 6b bb 8f 3e 2d e5 df 3d
       -0.2809589 -0.072670296 0.28072676 0.10932384
0003a0 be 5e 43 bd 71 61 9a be c9 5e bb bb fa 00 cf 3d
       -0.047697775 -0.30152467 -0.0057180864 0.10107608
0003b0 36 e9 29 bd 98 14 54 bd d0 b5 76 bd cf 86 19 3c
       -0.041482173 -0.051777452 -0.060231984 0.00937052
0003c0 37 5b 44 bd 08 b7 a7 bd 30 37 e5 bc a3 3d 1b be
       -0.04793855 -0.08189207 -0.027980417 -0.15160231
0003d0 76 6f aa bd 6f e9 0f bd cc 40 ad bd ec f5 27 bc
       -0.08322041 -0.03513473 -0.08459625 -0.010251503
0003e0 3f 17 63 bc ae cc 20 be 55 9e 42 bd 1d 69 29 bd
       -0.013860523 -0.15703079 -0.04751428 -0.04136001
0003f0 8f 1c 91 bd 00 15 a9 bb 7d 48 a6 bd 78 99 13 bd
       -0.07085525 -0.005159974 -0.08119295 -0.03603503

conv1.bias f4 [16]
000000 85 89 19 3f ba 40 7c be b8 19 d7 be 58 bd cd b6
       0.59975463 -0.24634066 -0.4201181 -6.1315186e-06
000010 d4 02 cb be a9 13 34 bd 48 c8 37 bf fb cc 26 be
       -0.39650595 -0.043964062 -0.7178998 -0.16289131
000020 a0 59 a7 be c7 e5 7e bd 37 90 92 3e bb 9a 2f be
       -0.32685566 -0.06223085 0.28625652 -0.17148869
000030 ec 9a d9 be ba 45 25 bb f2 c7 ef bd ee e5 00 bf
       -0.4250101 -0.0025218562 -0.117080584 -0.50350845

conv2.weight f4 [32, 16, 4, 4]
000000 13 10 6c ba 57 bb fa b9 c8 da 79 38 8d bb f1 38
       -0.0009005081 -0.00047823295 5.9569982e-05 0.000115267096
000010 cb be 5f ba e2 48 89 ba 5f 5d d3 b9 5b d1 89 39
       -0.0008535205 -0.0010473991 -0.00040314623 0.00026286658
000020 79 fe 26 b9 8e 58 40 ba 0e ba 54 ba 0f 8f 89 b9
       -0.00015925792 -0.00073374144 -0.00081148825 -0.00026237263
000030 ae b6 7e b6 a2 ab 4d b9 4c c4 05 ba 5e c4 ee b9
       -3.7955283e-06 -0.00019614262 -0.0005102798 -0.00045541202
000040 76 4c 34 b9 10 f8 b1 b9 de 12 dc b9 24 93 9c b9
       -0.00017194622 -0.00033944892 -0.00041975727 -0.00029864267
000050 c5 42 51 b9 f3 2e 42 b9 76 83 51 b9 98 94 52 b9
       -0.00019956667 -0.00018518772 -0.00019980766 -0.00020082516
000060 3c 0a f5 b8 9e 56 01 b9 4b df 42 b8 ae c8 61 38
       -0.00011684417 -0.00012334666 -4.6461162e-05 5.3831078e-05
000070 7a d0 c7 b8 2d e6 7d b9 b8 5e 49 b8 9d 4e b3 37
       -9.527891e-05 -0.00024213707 -4.8010348e-05 2.137507e-05
000080 94 c4 db 38 36 04 d8 38 5b 55 e3 b8 bc 6c 68 b9
       0.00010479349 0.00010300467 -0.00010840102 -0.00022165751
000090 e9 65 29 b9 94 c0 b9 b8 a9 db 0e b9 d1 d2 59 b9
       -0.0001615506 -8.857358e-05 -0.00013624005 -0.00020773268
0000a0 81 c8 71 b9 cd 2a 20 b9 61 b9 0b b9 fe 79 42 b8
       -0.00023058245 -0.00015274734 -0.00013325132 -4.636682e-05
0000b0 70 62 2d b8 cf e9 a4 b8 62 64 52 b9 9d 65 76 b9
       -4.133809e-05 -7.86368e-05 -0.00020064556 -0.00023498242
0000c0 e9 69 98 b5 52 24 07 b6 9f 92 e9 b5 00 5c ef b5
       -1.1355706e-06 -2.0137709e-06 -1.7402525e-06 -1.7833663e-06
0000d0 80 39 53 b5 e5 40 b7 b5 1a 3c e3 b5 46 4f eb b5
       -7.86873e-07 -1.3653449e-06 -1.693031e-06 -1.7531936e-06
0000e0 fb 05 90 b5 6c 16 d1 b5 07 0c d8 b5 67 b4 10 b6
       -1.0730577e-06 -1.5578239e-06 -1.6096755e-06 -2.156268e-06
0000f0 1b eb 4e b5 6e 95 90 b5 71 1b b5 b5 05 34 14 b6
       -7.7083104e-07 -1.0772326e-06 -1.3493537e-06 -2.2083998e-06
000100 83 2f 08 39 bd 07 f2 38 95 11 65 b8 ca 50 37 b9
       0.0001298767 0.000115409006 -5.461423e-05 -0.00017482336
000110 be 64 ad b8 13 39 15 38 6b ef a2 37 86 21 a7 38
       -8.2680475e-05 3.5577523e-05 1.9423393e-05 7.969425e-05
000120 ac 63 67 b9 3a 62 d8 b8 4c 17 19 b7 9e cd ee 38
       -0.00022067007 -0.00010317979 -9.124935e-06 0.000113870236
000130 4c f7 dc b8 ef 0c 1d b9 2e 0d 9a b8 c6 83 db b7
       -0.0001053648 -0.00014977505 -7.345747e-05 -2.6168196e-05
000140 fb cd be b8 10 7d 12 b8 e7 72 9f 37 c6 1e 7e 38
       -9.098273e-05 -3.4925586e-05 1.9007783e-05 6.058698e-05
000150 02 bc 9a b8 43 0f 16 b9 68 56 41 b8 df c8 8e 38
       -7.3783114e-05 -0.000143108 -4.6095258e-05 6.808503e-05
000160 dc 8e 30 38 52 c5 06 b9 32 cf ca b8 16 6a 85 b8
       4.2094718e-05 -0.00012852743 -9.670704e-05 -6.361694e-05
000170 5f 6c 7a 38 eb e4 d2 37 d5 85 48 b8 dd e7 a5 b8
       5.9705573e-05 2.5140549e-05 -4.7808357e-05 -7.911001e-05
000180 5b c7 15 b9 af 0c f6 b9 48 3d 9f b9 eb 4c 6a b9
       -0.00014284013 -0.00046930226 -0.000303725 -0.00022344633
000190 cc 53 dd 37 48 3e b8 b9 89 89 ea b9 6f 36 9e b9
       2.6384274e-05 -0.00035141618 -0.0004473443 -0.00030176665
0001a0 18 07 90 b8 04 98 91 b9 d0 cc b3 b9 22 bb cf b9
       -6.8677764e-05 -0.00027769816 -0.00034294138 -0.00039621542
0001b0 d5 a0 ad b9 a5 17 29 b9 ec 7f 6c b9 5b 0e 97 b9
       -0.0003311696 -0.00016125904 -0.00022554368 -0.0002881166
0001c0 01 b7 5f b9 7f ac 76 b9 ca e3 46 b9 9a e3 12 b8
       -0.00021335112 -0.00023524648 -0.0001896761 -3.5021083e-05
0001d0 4b 4e f1 b8 46 1c be b8 c6 d7 ff b8 a8 8d eb b7
       -0.00011506359 -9.065172e-05 -0.000121995385 -2.8080147e-05
0001e0 ae ba 50 b9 3f 52 0a b9 63 ba 9c b7 21 58 96 b7
       -0.0001990597 -0.00013191345 -1.8683442e-05 -1.7922432e-05
0001f0 ae b7 69 b9 c9 bd 01 b9 c2 86 f3 b6 cf 2d 42 b6
       -0.00022289038 -0.00012373099 -7.257652e-06 -2.8934917e-06
000200 b4 7e d0 b7 9e cb 4b 38 23 28 8c b8 9f ee 06 b9
       -2.4854533e-05 4.8588605e-05 -6.683196e-05 -0.00012868129
000210 a7 cf 84 36 64 4b 66 38 f9 3a 94 37 2d 79 af b7
       3.9580805e-06 5.4906486e-05 1.7670436e-05 -2.0918053e-05
000220 67 9d eb b7 8d 6d 45 38 15 a0 6c 38 0b 83 18 38
       -2.808748e-05 4.7070487e-05 5.6415873e-05 3.6361667e-05
000230 98 c3 55 b8 07 01 0a b8 3b b0 95 36 56 fc 1b 38
       -5.096532e-05 -3.290272e-05 4.461062e-06 3.7189886e-05
000240 e9 26 de b8 fe b9 9c b7 43 d7 12 37 25 46 9e 37
       -0.000105930325 -1.8683259e-05 8.752398e-06 1.8867731e-05
000250 5e a7 e4 b7 0b d4 99 38 b5 39 82 36 a5 b2 14 38
       -2.7257654e-05 7.3351046e-05 3.88102e-06 3.5452325e-05
000260 4c d1 30 b9 7e 7a 2d b8 e3 c4 b8 37 87 d2 a2 b8
       -0.00016862637 -4.1360494e-05 2.2026192e-05 -7.763976e-05
000270 0b 1c 8b b8 0b 2f e2 b7 d5 a8 5b b8 ff 5f 14 b9
       -6.63326e-05 -2.6963206e-05 -5.2370906e-05 -0.00014150141
000280 78 53 22 b9 77 f9 3a b9 d0 91 3b b9 c9 8c 6b b9
       -0.00015480618 -0.00017831275 -0.00017888029 -0.00022463793
000290 37 bc 20 b9 d0 54 75 b9 b9 dc 6b b9 ef 72 37 b9
       -0.00015328905 -0.00023396616 -0.00022493572 -0.00017495056
0002a0 e5 6f a0 37 58 d2 9a b8 33 cc 86 b9 26 5b 74 b9
       1.9125591e-05 -7.382472e-05 -0.00025710612 -0.00023303609
0002b0 f0 a1 94 b7 07 74 0b 37 dc 21 9c b8 ce 9e 37 b9
       -1.7718383e-05 8.31206e-06 -7.4449665e-05 -0.000175114
0002c0 18 f4 79 b9 8f b7 dd b9 07 f7 83 b8 98 d3 cb b8
       -0.00023837422 -0.00042289167 -6.292579e-05 -9.719207e-05
0002d0 0f ac 18 39 60 9d fe b6 e6 42 7c b9 ef e6 d2 b8
       0.00014559946 -7.5881107e-06 -0.00024057514 -0.00010056595
0002e0 97 12 ca b8 e7 d0 7d 38 a9 7c 1c b8 d3 72 01 b9
       -9.635573e-05 6.0514456e-05 -3.7309397e-05 -0.00012345174
0002f0 e8 1c 4e b9 09 dc 1e b9 76 9a cd b8 e1 33 d5 b8
       -0.0001965646 -0.00015150024 -9.803932e-05 -0.00010166295
000300 8d 9e 83 b8 49 e7 19 37 21 89 b9 b8 cd c3 91 b9
       -6.276099e-05 9.173361e-06 -8.84703e-05 -0.00027802438
000310 56 0f 55 b9 a5 05 9b b8 51 58 04 b9 90 f9 6c b9
       -0.00020318976 -7.392027e-05 -0.00012621401 -0.00022599683
000320 f0 a2 f8 b8 77 b6 28 b9 f6 7a 71 b9 e4 1d 9c b9
       -0.00011855911 -0.00016089702 -0.00023029358 -0.0002977691
000330 ba 7d df b8 37 24 29 b9 e0 71 48 b9 eb 66 bd b9
       -0.00010656887 -0.00016130587 -0.00019115908 -0.0003612557
000340 24 70 40 38 44 5c 29 39 38 5d a2 38 81 08 04 b9
       4.5880806e-05 0.00016151468 7.742125e-05 -0.00012591669
000350 55 18 48 b9 3a 8c c9 b8 83 21 cf 38 6b 6e d7 38
       -0.0001908255 -9.610546e-05 9.876771e-05 0.00010272566
000360 23 2b 35 b9 94 ab 5e b9 ab 41 83 b8 67 25 80 37
       -0.00017277575 -0.00021235488 -6.2587984e-05 1.5276206e-05
000370 09 9c af b8 0d 19 13 b9 7a 4f 28 b9 67 8e e9 b7
       -8.373714e-05 -0.00014028345 -0.00016051336 -2.7842076e-05
000380 ef 8e 94 b9 05 b6 09 b9 ee c2 4b b9 09 74 02 ba
       -0.00028335254 -0.00013133146 -0.00019432206 -0.0004976397
000390 25 2e e1 b9 61 1e 8a b9 1a a1 62 b8 74 67 9b b9
       -0.00042949725 -0.00026344045 -5.4032636e-05 -0.00029640982
0003a0 70 be f2 b9 2b 46 c4 b9 62 17 3f b9 58 5e 5d b9
       -0.00046299724 -0.00037436312 -0.0001822389 -0.00021111348
0003b0 17 cc ac b9 27 44 d6 b9 c6 47 d3 b9 e2 02 b2 b9
       -0.00032958455 -0.00040868038 -0.00040298532 -0.00033952954
0003c0 e0 70 08 b9 c3 70 42 b9 35 e9 aa b7 ad e0 c5 38
       -0.0001301202 -0.00018543289 -2.0374175e-05 9.435541e-05
0003d0 70 83 97 38 6a b2 62 b6 2b 41 4a b9 a3 51 b1 38
       7.224723e-05 -3.3780475e-06 -0.00019288498 8.455224e-05
0003e0 f5 b5 c5 38 c6 80 76 b8 d5 e2 3a b8 62 79 4b b9
       9.427584e-05 -5.87709e-05 -4.455711e-05 -0.00019404807
0003f0 cf 6b 0a b8 84 16 00 39 3f 65 c8 38 7b ce f0 b8
       -3.300217e-05 0.00012215419 9.555602e-05 -0.00011482552

conv2.bias f4 [32]
000000 3a 50 9b b8 c7 ef 9a be 15 95 34 be c2 3a 98 ae
       -7.405919e-05 -0.3026106 -0.17634995 -6.922597e-11
000010 73 9f d7 3d 0a 54 bc 3b a9 81 8b 3f 1e 83 99 3f
       0.105284594 0.005747323 1.0898944 1.1993139
000020 a8 91 6d 3f f3 40 ea be e1 63 c1 be 26 fe 9e 3f
       0.9280038 -0.45752677 -0.37771514 1.242131
000030 26 53 8f ae 79 71 3f 3e 15 fe bd b1 28 be 2d af
       -6.517657e-11 0.1869563 -5.5295097e-09 -1.5801815e-10
000040 27 50 5f be 4f 91 84 af 7a e1 f2 af 0a a5 b7 be
       -0.2180792 -2.4113908e-10 -4.4179754e-10 -0.35868102
000050 0d 1d 8a 3c 30 80 d8 3f 62 f8 42 bd f2 7d 1e 3f
       0.016859556 1.691412 -0.047600158 0.6191093
000060 e7 95 ec be ea 7c 8b be 4d 67 9c 3d ad 34 c5 bd
       -0.46208116 -0.2724374 0.076368906 -0.09629188
000070 c5 d7 dd 3f 71 1a 39 be a8 ab 8a 3e ea b3 dc be
       1.7331473 -0.18076493 0.27084088 -0.43106014

linear1.weight f4 [100, 2048]
000000 2c 1b d9 b7 b2 87 7d 36 2b 86 90 b7 71 4b 42 38
       -2.5881069e-05 3.7778923e-06 -1.7228615e-05 4.6323465e-05
000010 eb 27 a9 b6 6d 1b 36 37 7c 15 01 b9 56 ba cf 36
       -5.0412395e-06 1.0854431e-05 -0.00012310402 6.190773e-06
000020 79 fe b0 36 02 8d b3 38 c1 70 bb b6 92 d3 e6 b6
       5.2748333e-06 8.56165e-05 -5.5861606e-06 -6.879164e-06
000030 41 53 29 39 c9 04 ae 37 9c 67 b9 b8 72 1b 2c b9
       0.0001614811 2.0744645e-05 -8.840786e-05 -0.00016413422
000040 c5 21 86 b8 b3 0a 1b 39 1e 23 89 38 b8 2b 82 39
       -6.395908e-05 0.00014785938 6.53921e-05 0.00024828105
000050 30 82 56 b8 21 c8 aa 38 5f ce 14 38 a4 00 9f b8
       -5.1142822e-05 8.1435086e-05 3.5478148e-05 -7.58183e-05
000060 c8 cb 13 38 9f fe 9b b7 92 0f f5 38 59 cb 9d 38
       3.5237317e-05 -1.8596007e-05 0.000116854106 7.52422e-05
000070 b0 b2 22 39 95 2b 3e b8 0a db 87 37 69 3c 58 b8
       0.0001551609 -4.534012e-05 1.6195252e-05 -5.1554674e-05
000080 39 13 5d 38 ab 4a 7a 38 52 a1 85 38 66 46 28 b7
       5.270841e-05 5.9674185e-05 6.3719825e-05 -1.0029971e-05
000090 7e 00 81 38 62 2b a0 38 2d d7 40 38 94 0a fa b7
       6.151291e-05 7.637475e-05 4.5976765e-05 -2.9807248e-05
0000a0 f4 13 00 39 7e e4 12 39 19 6b f0 37 7b 84 a0 38
       0.00012214464 0.00014008765 2.86601e-05 7.654071e-05
0000b0 23 b1 ae 36 cb eb 3f 38 d5 ca 35 38 f7 4e fd 37
       5.2062255e-06 4.5757548e-05 4.3342665e-05 3.0196721e-05
0000c0 7d f6 3b b7 6c b6 6c 38 9a 1b 8f 37 01 65 ad 38
       -1.1203459e-05 5.643668e-05 1.7059781e-05 8.268096e-05
0000d0 99 83 4b 39 7d f1 cc 37 9c 66 56 38 c8 46 08 37
       0.00019408613 2.4431147e-05 5.111714e-05 8.122712e-06
0000e0 84 22 c3 b8 ea 00 f4 36 5c 2b a1 b8 51 1c 05 b8
       -9.3047536e-05 7.271873e-06 -7.6851546e-05 -3.1736043e-05
0000f0 8c 64 b4 36 d6 c5 d9 b7 a2 1b 04 b8 a1 de 27 38
       5.376123e-06 -2.596054e-05 -3.1496988e-05 4.0023242e-05
000100 4a 07 63 3d 84 19 80 3d 74 32 b8 3d 4e 5b 86 3d
       0.055426873 0.06254867 0.08993998 0.06560384
000110 e4 c8 94 3c df c9 5b bc d1 92 04 bb ed 44 e9 bc
       0.018162198 -0.013414829 -0.002022911 -0.02847525
000120 b7 ce 35 3b 6e a7 06 bd 57 e9 bc bc d2 8d 21 bb
       0.002774162 -0.032874517 -0.023060484 -0.0024651182
000130 99 83 0d bd f2 5d 89 bc fd 0f 64 bc 70 69 51 bb
       -0.03454933 -0.01676843 -0.0139198275 -0.0031953715
000140 68 c1 0c bd 72 5b 47 bd 9c 37 19 bd a1 0c 1c bd
       -0.034364134 -0.048671193 -0.03740655 -0.03809798
000150 a3 1d 06 bd 73 c5 2f 3c de db 2a 3d dd bc cf 3c
       -0.032743108 0.010728228 0.041713588 0.025358612
000160 36 cd 89 bb f0 df 5b bc 81 8d 49 bb 41 69 d9 3b
       -0.0042053713 -0.01342009 -0.003075451 0.0066348617
000170 21 e1 d5 3c 47 a4 5b 3d 50 dd 34 3d a5 50 9c bb
       0.026108326 0.053623464 0.044156373 -0.0047703558
000180 ec db 07 3d 86 7d 30 3c bd 45 11 bb 8c b6 0b bd
       0.03316872 0.010772115 -0.0022166811 -0.034109637
000190 f6 18 27 bc fd 86 19 3c bb 86 85 bc 3d 99 20 bd
       -0.010198822 0.009370563 -0.016299596 -0.03920864
0001a0 be 63 1e 3d f7 b2 06 3d 16 84 ab bb 3e 0e 08 bd
       0.03866934 0.032885518 -0.0052342517 -0.033216707
0001b0 26 ae 4a bd fb 41 35 bd 2b 69 4b bd 50 17 5b bd
       -0.049482487 -0.044252377 -0.049660843 -0.05348903
0001c0 b9 2a 5c 3c d1 fd f6 3b 69 a7 ac 3c c1 55 9d bc
       0.01343792 0.0075375815 0.021075921 -0.01920593
0001d0 8b b0 78 bd c7 2d 84 bd bd be 93 bd eb 9f a2 bd
       -0.06071524 -0.06454044 -0.07214115 -0.07940658
0001e0 c9 08 95 bc 62 da cf bb 45 0a 2c 3b 2b 0a 65 bc
       -0.018192666 -0.006343172 0.0026251238 -0.013979475
0001f0 f6 c6 f2 bc 3e f7 80 bd fa 19 6f bd 4a b4 bb 3b
       -0.029635888 -0.06297158 -0.058374383 0.0057282792
000200 e1 47 6b 3b 7d ba 33 39 b6 69 a0 bb b3 18 41 37
       0.0035900997 0.00017140243 -0.004895414 1.1509447e-05
000210 f9 65 7d 3b 24 10 a3 bb 36 f5 13 bb 4c e0 a0 bc
       0.0038665517 -0.0049762893 -0.0022576577 -0.019638203
000220 cf 29 23 bb 8b 25 cc bb af 8d 80 3c 4a b5 83 3d
       -0.0024896746 -0.0062300614 0.01569256 0.064310625
000230 fa b9 c0 3d a3 72 91 3d ec d8 b8 3c b7 82 e4 bc
       0.09410472 0.07101943 0.022564374 -0.027894361
000240 8c 4d 9e bc ed ed b3 bb 46 1d 26 3d c4 5b d6 3d
       -0.019324087 -0.0054910094 0.04055526 0.10466722
000250 96 c1 d6 3d 33 05 bd 3d 19 b4 23 3d c8 c5 3d bc
       0.10486142 0.09229507 0.039966676 -0.011582799
000260 51 29 33 bc fa 03 a5 bb 3c 9e 15 3d d0 c6 f0 3d
       -0.010935144 -0.0050358744 0.036527857 0.117566705
000270 1d f4 f6 3d b0 fe b3 3d ff ec b9 3c bc 79 28 3c
       0.1205828 0.08788812 0.022696016 0.01028293
000280 25 5a 87 3c 46 1e e7 bb 10 a2 77 3c a1 a2 19 3d
       0.016522476 -0.0070531694 0.015114322 0.03750861
000290 72 7d 58 3d 19 b0 bc 3c dd 63 de bc 8c 5e b2 3b
       0.05285401 0.023033189 -0.027147228 0.0054434
0002a0 66 c9 a6 3c 16 48 82 3b 71 2a c4 ba 4c 29 90 3c
       0.020359706 0.0039758785 -0.0014966262 0.017597817
0002b0 d7 aa 30 3c 78 6e 90 bc 16 18 ef bc fd 01 84 bc
       0.010782919 -0.0176308 -0.02918629 -0.01611423
0002c0 1d 49 14 3c aa ab 76 3a fc b7 0a 3c 12 3a d6 3c
       0.009050635 0.0009409735 0.008466717 0.026150737
0002d0 0a 09 f4 3b b9 30 a0 ba ea 73 f2 bc c9 5e b4 bc
       0.0074473666 -0.0012221552 -0.029596288 -0.022017853
0002e0 56 fd 54 bb 32 8c 21 bd 5d fc 06 3a 86 ce a1 3c
       -0.0032499633 -0.03944034 0.00051492994 0.019751798
0002f0 af af 2c 3c 29 08 f7 bb f6 e2 0a bd dc 75 4e ba
       0.010539933 -0.0075388146 -0.033907853 -0.0007875839
000300 b4 63 87 ad 48 72 25 ad fc 6c 72 ac d1 fc 03 ad
       -1.5392e-11 -9.40454e-12 -3.4450767e-12 -7.502624e-12
000310 08 46 17 2d ec c0 c2 ad 5e 8a 81 ad bc fa d6 ac
       8.598906e-12 -2.2140921e-11 -1.472705e-11 -6.110083e-12
000320 f1 07 9b ad 31 c8 73 ad d1 16 d3 ad c8 4b 89 2c
       -1.7624987e-11 -1.3857402e-11 -2.3998055e-11 3.9021876e-12
000330 51 7a 86 ad b8 ef 4b 2d ca a8 8e 2d ca b5 90 ad
       -1.5288356e-11 1.1592442e-11 1.6218488e-11 -1.6451635e-11
000340 a3 bf 98 2d bb 74 a9 ac 0b 0c 8c 2d 64 3e 6c 2c
       1.7365503e-11 -4.8162286e-12 1.5921505e-11 3.357225e-12
000350 f2 52 03 2d 73 4c 08 ad 36 ef 2c 2c f7 96 4a ac
       7.464905e-12 -7.74768e-12 2.4575459e-12 -2.8789729e-12
000360 16 2d c0 2c 32 25 06 2c 03 ed 9a ad aa 40 8c 2d
       5.4619738e-12 1.9063193e-12 -1.7613027e-11 1.5944874e-11
000370 d5 bf b9 ad bc 72 92 2d bc e0 97 ad 00 99 94 2c
       -2.1117256e-11 1.664923e-11 -1.7266515e-11 4.2233994e-12
000380 2f b4 8e 2d a7 31 99 ad ad 03 7a ad b7 76 92 2d
       1.6223549e-11 -1.7416136e-11 -1.4211671e-11 1.6650998e-11
000390 26 42 93 ad 85 b0 2e 2d 5d d9 4c 2d b8 2b 83 ad
       -1.6741341e-11 9.92995e-12 1.1644322e-11 -1.491239e-11
0003a0 c8 52 7d ad 26 4f b8 ad 20 45 02 ad 6e c1 25 ad
       -1.4399766e-11 -2.0953527e-11 -7.404993e-12 -9.422114e-12
0003b0 06 c0 3c 2d 6c 1b b3 ad 3f f6 d1 ad e5 e0 0d 2c
       1.07292005e-11 -2.0362122e-11 -2.3869904e-11 2.0162147e-12
0003c0 1b 7f e9 ac f5 8f 9c 2d ed 27 9c 2d 7a 89 1a 2c
       -6.63637e-12 1.7799076e-11 1.7752877e-11 2.196103e-12
0003d0 fe 86 b2 2c 60 48 99 2d 1b e3 85 2b 9e 56 65 2d
       5.0740514e-12 1.7426227e-11 9.513253e-13 1.3036376e-11
0003e0 45 f9 b8 2d b8 3a aa ad e6 55 85 2d 28 33 3f 2d
       2.1029076e-11 -1.9352839e-11 1.5158496e-11 1.0868452e-11
0003f0 72 4e e7 ab 90 d6 03 2d e8 ee 9f 2d b9 1a db ac
       -1.643531e-12 7.49413e-12 1.8182303e-11 -6.227321e-12

linear1.bias f4 [100]
000000 39 34 b9 bc 26 b8 f7 3c 82 01 cf 3b 6d 6a 50 3d
       -0.02260791 0.030239176 0.0063173184 0.050882746
000010 f0 39 1f 3d cc a6 cb 3b 1b 17 22 3c 72 d9 df 3c
       0.038873613 0.006214952 0.009893204 0.027325366
000020 b9 35 9b 3d e9 20 91 3c c9 d4 64 bd fa 4c 96 3c
       0.07578606 0.017715888 -0.05586699 0.018347252
000030 ac aa 85 3e 4a 82 7f 3d ef d5 a8 bd 08 49 7d 3e
       0.26106775 0.062380113 -0.082439296 0.2473489
000040 a2 fd 0b 3e b8 4c fa 3b 1d 91 00 bc e6 0e 0c 3e
       0.13670972 0.00763854 -0.007847098 0.13677558
000050 c3 b5 d9 bd 4e 08 b2 3d ea 8d b5 bd 8c c7 3a 3e
       -0.106303714 0.0869299 -0.088649586 0.18240184
000060 33 c0 ad bd 38 ad 50 3d de 09 17 3e 6a 22 8d bd
       -0.08483925 0.050946444 0.14749858 -0.068913296
000070 0b 7e 89 3d 01 7d cb 3d 36 16 c3 3d f1 a9 d8 3d
       0.06713494 0.09935952 0.09525721 0.10579289
000080 75 ae 74 3d b7 a1 2c 3e b1 a8 3f 3e f0 bb f1 3d
       0.059736688 0.16858564 0.18716694 0.11803424
000090 5a 57 56 bd 65 79 9e 3e 1a ec ea bd f2 2c fa 3b
       -0.0523294 0.30951992 -0.11470814 0.0076347524
0000a0 12 8c 9e bd 24 ce 8c ba 9d e5 6c 3c 82 b8 c1 3d
       -0.0774156 -0.0010742587 0.014459041 0.0945902
0000b0 07 04 37 3d 65 ba 8d 3d fc 5c 0d bd 94 60 38 3e
       0.044681575 0.069203176 -0.034512505 0.18005592
0000c0 7f 0e 4f bd 76 fc d3 bb f3 ac d0 3d 91 d2 22 be
       -0.050550934 -0.0064693047 0.101892374 -0.15900637
0000d0 17 79 94 3d 39 d2 34 bd 02 65 b1 3c b1 8d d9 bb
       0.072496586 -0.044145796 0.02165461 -0.0066392054
0000e0 a0 db 9b 3d 7e 52 55 3d be 6b 90 3d 18 e2 ce 3c
       0.076102495 0.052080624 0.070518 0.025254294
0000f0 6d e9 31 3e 72 3f 13 3e e5 f1 18 3e 62 8c ab 3d
       0.17374201 0.14379671 0.14936025 0.08376385
000100 a1 e9 fb 3d 52 33 74 3e 92 81 eb 3c 4c 23 7e 3e
       0.123004206 0.23847702 0.028748307 0.24818152
000110 21 c3 aa bd c7 d0 96 3d 31 86 1c 3e c4 c4 bb 3c
       -0.08337999 0.0736404 0.15285565 0.022920974
000120 a6 6b 03 3e 42 72 95 bd bd f2 02 3d 24 1d 15 3e
       0.12834033 -0.072971836 0.031969775 0.14561898
000130 cf be 01 3e 7f 0c d5 3d 83 86 c2 ba a8 4a f5 39
       0.12670444 0.10402774 -0.0014841113 0.00046785665
000140 31 db 12 3b 51 ea d5 bd 10 38 c5 3d d0 cf 1f 3d
       0.002240848 -0.10445083 0.09629834 0.039016545
000150 d7 92 af bd 42 d9 ae bc 1a 4d 94 3e 98 42 0a be
       -0.08572929 -0.021343831 0.28965074 -0.13501966
000160 d2 0e 9f bd 6f 05 d3 3c a1 a3 aa bd 86 74 d4 bd
       -0.077664986 0.025759427 -0.08331991 -0.103737876
000170 56 f2 2e 3e 44 ee 84 ba 71 a9 59 3c 7d 0d 97 3d
       0.17084631 -0.001014181 0.013285027 0.073756196
000180 d5 2a 28 3e 3f 64 4b 3e 27 4c 03 3e fb 11 4a be
       0.16422589 0.1986246 0.12822019 -0.19733422

linear2.weight f4 [10, 100]
000000 8f 9f 7f bc 14 50 7c bd 9c 30 a4 bd 4e 0e b8 bb
       -0.015602007 -0.061599806 -0.08017084 -0.0056169396
000010 fe f4 3e 3e f9 e0 9e bb b4 23 63 bd 67 e5 07 be
       0.18648145 -0.004848596 -0.05545397 -0.13271104
000020 30 cb a2 bd 7d b1 96 bd 2f 1f 3c 3e 32 88 9f 3e
       -0.07948911 -0.07358072 0.1837127 0.31158596
000030 fa 58 1a be 92 1e ae 3b a8 13 36 3e b5 41 c9 3d
       -0.15073004 0.005313703 0.17780936 0.09826986
000040 9c cf e1 bd c0 96 24 bd 20 46 a3 bd ef fe 65 3c
       -0.110259265 -0.04018283 -0.0797236 0.014037832
000050 de 9d 9d bd 20 7b df 3c d2 75 13 3e 98 ad 77 3e
       -0.076961264 0.02728039 0.14400414 0.24187315
000060 c1 8b fc 3d e8 81 a3 3e e8 07 26 3e ff 7a 94 bd
       0.123313434 0.31935048 0.16213953 -0.07250022
000070 b2 91 66 3e e8 dd a3 bd af 0b 14 bd db e8 51 bd
       0.22516516 -0.0800131 -0.036143955 -0.05124746
000080 07 6f 28 be 81 53 44 3d b7 2c 9c bd 5d 5c ce 3e
       -0.16448604 0.047931198 -0.07625716 0.40304843
000090 56 44 68 3c 2a cf b4 be 45 4e 58 bd 55 7d c5 3e
       0.014176449 -0.35314304 -0.05280902 0.38572183
0000a0 b0 61 89 3a 39 9a b2 bd 96 bf 97 bd d6 f8 b9 bd
       0.0010481384 -0.08720822 -0.07409589 -0.09080665
0000b0 c3 50 e9 bd 74 b6 18 bc 85 90 93 3c 15 58 d2 bd
       -0.11392357 -0.009320844 0.018013248 -0.102707066
0000c0 83 87 74 bd 96 d1 70 bd b8 fb 68 be 4a ca 8a bd
       -0.059699547 -0.058793627 -0.22752273 -0.06776865
0000d0 a9 ee 86 bd da 9e 73 3e 98 ba a9 3e 46 c9 b3 bd
       -0.065884896 0.23791066 0.33150172 -0.08778624
0000e0 fd 35 34 3e b0 83 b1 3e fe 82 fc 3b 4f ec da bd
       0.1759872 0.34670782 0.007706045 -0.106896035
0000f0 e0 13 6f bd 33 bd 14 be ce c2 8a 3d 2f 76 32 be
       -0.058368564 -0.14525299 0.06775437 -0.17427896
000100 41 7f 93 bd 77 9f 16 be 40 5c 0a bd ad 9c 68 3e
       -0.07202006 -0.14709269 -0.033779383 0.22716017
000110 12 a3 86 3d e2 1e 7b bd 16 10 99 bc ab 02 32 3e
       0.06574072 -0.06130875 -0.018684428 0.1738383
000120 f6 3c ee bd 74 34 c0 3d 18 14 87 3c b0 ad dc bd
       -0.11632721 0.09385005 0.016489074 -0.10775316
000130 00 b8 08 be b8 7d 07 be f1 6e 11 3d 53 3f 8d 3d
       -0.1335144 -0.13231552 0.035506193 0.06896844
000140 9a 33 0a bd d9 69 02 3a af bb 20 bd 35 3c fc bd
       -0.033740617 0.0004974879 -0.03924149 -0.12316171
000150 8a c9 99 3d df 69 08 bd 58 dc 8e 3d 72 21 f8 bb
       0.07509144 -0.03330409 0.06975621 -0.0075723464
000160 55 a4 b5 3d e0 1b c3 bd c2 85 57 3e 5b 29 bb bd
       0.088692345 -0.09526801 0.21047118 -0.09138747
000170 75 6d 7f be 4a 48 52 be 2b b4 c9 3d e9 5e e5 3d
       -0.24944098 -0.20535389 0.098488174 0.11199743
000180 98 71 c4 bd 1f 7d c7 bc de ae 21 3d d1 3e 2f 3f
       -0.09591979 -0.024351655 0.039473407 0.68455225
000190 ce 3e 27 be 0d 11 32 be 3a d1 61 bd e6 45 5c be
       -0.16332552 -0.17389317 -0.055131175 -0.21511039
0001a0 01 c7 84 be 77 1d 0f 3f 5d f6 d0 3e 74 1b 09 be
       -0.25933078 0.55904335 0.4081296 -0.13389379
0001b0 33 22 08 be 97 4c 36 bd f3 e4 d4 bd 7f 6b 95 bd
       -0.13294296 -0.044506636 -0.10395231 -0.07295894
0001c0 7a 9f 37 bd d4 0e cb 3e 2e 71 00 be e2 e1 13 3d
       -0.044829823 0.3965975 -0.12543175 0.03610409
0001d0 24 ed bd bd 6b c5 c1 bd 38 6d 13 3f d2 e6 fe bd
       -0.092737466 -0.094614826 0.5758853 -0.12446369
0001e0 da 65 f4 bd 03 e9 57 be 7c c9 67 3d ba 5f e1 bd
       -0.11933489 -0.2108498 0.056588635 -0.110045865
0001f0 8b 93 f6 bd d0 a7 fc bd cc 6f 0a 3e 6f da dd 3e
       -0.1203986 -0.12336695 0.1351921 0.43330714
000200 05 bc f4 3b 41 d0 4c 3e 95 9e 82 be 06 45 3a be
       0.0074687027 0.20001318 -0.25511613 -0.18190393
000210 ba f7 d4 bc 27 34 ba 3d 4c 52 be 3e 6a 8a f3 bd
       -0.025997031 0.090919785 0.37172163 -0.11891635
000220 80 b5 0b 3e 6d 92 26 be 9c 47 34 bd d7 f9 c0 bd
       0.13643456 -0.16266795 -0.044013605 -0.09422653
000230 5c fe 25 3e 1e d7 ee 3d 62 f2 ae bd 69 7a 1c 3c
       0.16210312 0.11662124 -0.085423246 0.009550669
000240 b5 89 3c be 75 e6 b1 bd 59 e6 c5 bd 0f 25 b1 3e
       -0.18411906 -0.08686534 -0.09663076 0.34598586
000250 a9 71 05 be 26 35 88 bd ca f3 6c be d7 74 38 be
       -0.13031639 -0.06650762 -0.23139873 -0.18013321
000260 13 b6 87 bc 08 72 72 bb ff 71 39 3e 70 b5 f6 3c
       -0.016566312 -0.0036994237 0.18109892 0.030115813
000270 56 0d 4a 3e 73 3c 5e bd c4 8c 8a bc 86 05 12 3f
       0.1973165 -0.054256868 -0.016912825 0.5703968
000280 59 ab 88 bd 7c 5c 35 bd 8d 46 38 3e 81 44 2b bd
       -0.06673307 -0.044277653 0.17995663 -0.041813377
000290 51 9c f9 bd 47 34 fa bc 8f 68 5c 3d c7 c5 32 3e
       -0.12188018 -0.030542506 0.053810652 0.17458259
0002a0 ce 49 f8 bd 1c 1d 76 bd a2 14 45 3d 2f 11 b6 bd
       -0.12123452 -0.060086355 0.04811538 -0.08889996
0002b0 f3 4e 66 be 95 5f e0 bd 9d 18 ad bd 77 11 ea bd
       -0.22491054 -0.10955731 -0.0845196 -0.114291124
0002c0 80 37 15 be b3 48 b2 3c 94 fd 09 3f 35 54 15 3f
       -0.14571953 0.021763181 0.53902555 0.58331615
0002d0 78 ce 38 be f9 95 ca bc c9 34 b3 3d 60 c5 06 be
       -0.18047512 -0.024729716 0.08750302 -0.1316123
0002e0 3d 44 53 be ec 0a ca bd 82 8d 03 bd 8a ef f4 bd
       -0.206315 -0.098653644 -0.032117374 -0.11959751
0002f0 e5 08 bf bc cc 31 ae 3e 2e fb ed bd 24 c8 16 3f
       -0.02331967 0.34022367 -0.11620174 0.5889914
000300 b2 16 8f bc 27 a0 30 ba 19 49 80 bd 96 70 94 3d
       -0.017466877 -0.0006737732 -0.06263942 0.072480366
000310 5a 90 cd 3e fd 68 0e bd eb c1 56 be 2d b5 4c be
       0.40149194 -0.034768093 -0.20972411 -0.19990988
000320 0a 59 01 3e 86 12 cf bd d8 fb 25 bd 81 92 a4 3d
       0.12631622 -0.10110955 -0.04052338 0.08035756
000330 59 6d 3c 3e 56 13 26 bd 1c fb 21 be 2a b8 0b be
       0.18401088 -0.040545784 -0.15818447 -0.13644472
000340 28 82 60 bc 39 cd fd bb ee 4a 16 be 87 48 40 3d
       -0.013702907 -0.0077454117 -0.14677021 0.046944167
000350 2a b4 7e 3d bb ff e9 bd 83 6b c1 3e ef 12 1f be
       0.062183537 -0.1142573 0.37777337 -0.15534566
000360 fa 0c 03 bd 18 35 b4 bd c8 db 04 be e6 26 7b bd
       -0.031994797 -0.08799189 -0.12974465 -0.061316393
000370 e4 62 93 3e 0d 1c a4 3d 61 a6 c7 bc 6c 49 98 39
       0.28786385 0.08013163 -0.024371328 0.00029046403
000380 f2 51 dc 3e 10 36 de 3d 63 80 63 3d 8b ba 39 be
       0.4303127 0.10850155 0.05554236 -0.18137567
000390 07 0c 12 be 5d 4c 72 bd 86 bf 35 3e d5 8a 7f 3e
       -0.142624 -0.059154857 0.17748842 0.24955304
0003a0 87 a1 d5 bd a9 f2 37 bb 3a 07 05 be 6f 4d 35 3d
       -0.104311995 -0.002806822 -0.12991038 0.0442633
0003b0 36 c3 52 bd 06 ad 98 3d e9 cf 62 3e 16 ed cf 3b
       -0.0514557 0.074548766 0.22149624 0.0063454015
0003c0 da 78 f9 3c b6 3a 2c 3e ca d3 91 bd b0 b8 09 be
       0.030453134 0.16819271 -0.07120474 -0.13449359
0003d0 ff e1 df bd 18 98 9e bc 28 11 a4 bd 9d db bf bd
       -0.10931777 -0.019359633 -0.08011085 -0.0936806
0003e0 3a 32 c7 3c fd 19 d9 bb 96 fa 6e 3c 25 8e 68 3e
       0.024315942 -0.0066254125 0.0145861115 0.22710474
0003f0 ea e4 67 bd 66 7c 7e 3e 45 2a 20 be 3b d6 24 be
       -0.056614794 0.24852142 -0.15641125 -0.16097347

linear2.bias f4 [10]
000000 c9 d0 b4 be 75 df a9 be 83 a8 91 be e7 be b3 3e
       -0.3531554 -0.33178297 -0.28448877 0.35106584
000010 c9 95 b6 3e 9e b6 84 3e 79 7f 6d be 77 8b b6 3e
       0.35661152 0.25920576 -0.23193158 0.35653278
000020 35 6b 9d be 1e d8 3d 3e
       -0.30745855 0.18539473

linear_masked_relu1.mask f4 [16, 16, 16]
000000 00 00 00 00 00 00 00 00 00 00 00 00 00 00 00 00
       0.0 0.0 0.0 0.0
000010 00 00 00 00 00 00 00 00 00 00 00 00 00 00 00 00
       0.0 0.0 0.0 0.0
000020 00 00 00 00 00 00 00 00 00 00 00 00 00 00 00 00
       0.0 0.0 0.0 0.0
000030 00 00 00 00 00 00 00 00 00 00 00 00 00 00 00 00
       0.0 0.0 0.0 0.0
000040 00 00 00 00 00 00 00 00 00 00 00 00 00 00 00 00
       0.0 0.0 0.0 0.0
000050 00 00 00 00 00 00 00 00 00 00 00 00 00 00 00 00
       0.0 0.0 0.0 0.0
000060 00 00 00 00 00 00 00 00 00 00 00 00 00 00 00 00
       0.0 0.0 0.0 0.0
000070 00 00 00 00 00 00 00 00 00 00 00 00 00 00 00 00
       0.0 0.0 0.0 0.0
000080 00 00 00 00 00 00 00 00 00 00 00 00 00 00 00 00
       0.0 0.0 0.0 0.0
000090 00 00 00 00 00 00 00 00 00 00 00 00 00 00 00 00
       0.0 0.0 0.0 0.0
0000a0 00 00 00 00 00 00 00 00 00 00 00 00 00 00 00 00
       0.0 0.0 0.0 0.0
0000b0 00 00 00 00 00 00 00 00 00 00 00 00 00 00 00 00
       0.0 0.0 0.0 0.0
0000c0 00 00 00 00 00 00 00 00 00 00 00 00 00 00 00 00
       0.0 0.0 0.0 0.0
0000d0 00 00 00 00 00 00 00 00 00 00 00 00 00 00 00 00
       0.0 0.0 0.0 0.0
0000e0 00 00 00 00 00 00 00 00 00 00 00 00 00 00 00 00
       0.0 0.0 0.0 0.0
0000f0 00 00 00 00 00 00 00 00 00 00 00 00 00 00 00 00
       0.0 0.0 0.0 0.0
000100 00 00 00 00 00 00 00 00 00 00 00 00 00 00 00 00
       0.0 0.0 0.0 0.0
000110 00 00 00 00 00 00 00 00 00 00 00 00 00 00 00 00
       0.0 0.0 0.0 0.0
000120 00 00 00 00 00 00 00 00 00 00 00 00 00 00 00 00
       0.0 0.0 0.0 0.0
000130 00 00 00 00 00 00 00 00 00 00 00 00 00 00 00 00
       0.0 0.0 0.0 0.0
000140 00 00 00 00 00 00 00 00 00 00 00 00 00 00 00 00
       0.0 0.0 0.0 0.0
000150 00 00 00 00 00 00 00 00 00 00 00 00 00 00 00 00
       0.0 0.0 0.0 0.0
000160 00 00 00 00 00 00 00 00 00 00 00 00 00 00 00 00
       0.0 0.0 0.0 0.0
000170 00 00 00 00 00 00 00 00 00 00 00 00 00 00 00 00
       0.0 0.0 0.0 0.0
000180 00 00 00 00 00 00 00 00 00 00 00 00 00 00 00 00
       0.0 0.0 0.0 0.0
000190 00 00 00 00 00 00 00 00 00 00 00 00 00 00 00 00
       0.0 0.0 0.0 0.0
0001a0 00 00 00 00 00 00 00 00 00 00 00 00 00 00 00 00
       0.0 0.0 0.0 0.0
0001b0 00 00 00 00 00 00 00 00 00 00 00 00 00 00 00 00
       0.0 0.0 0.0 0.0
0001c0 00 00 00 00 00 00 00 00 00 00 00 00 00 00 00 00
       0.0 0.0 0.0 0.0
0001d0 00 00 00 00 00 00 00 00 00 00 00 00 00 00 00 00
       0.0 0.0 0.0 0.0
0001e0 00 00 00 00 00 00 00 00 00 00 00 00 00 00 00 00
       0.0 0.0 0.0 0.0
0001f0 00 00 00 00 00 00 00 00 00 00 00 00 00 00 00 00
       0.0 0.0 0.0 0.0
000200 00 00 00 00 00 00 00 00 00 00 00 00 00 00 00 00
       0.0 0.0 0.0 0.0
000210 00 00 00 00 00 00 00 00 00 00 00 00 00 00 00 00
       0.0 0.0 0.0 0.0
000220 00 00 00 00 00 00 00 00 00 00 00 00 00 00 00 00
       0.0 0.0 0.0 0.0
000230 00 00 00 00 00 00 00 00 00 00 00 00 00 00 00 00
       0.0 0.0 0.0 0.0
000240 00 00 00 00 00 00 00 00 00 00 00 00 00 00 00 00
       0.0 0.0 0.0 0.0
000250 00 00 00 00 00 00 00 00 00 00 00 00 00 00 00 00
       0.0 0.0 0.0 0.0
000260 00 00 00 00 00 00 00 00 00 00 00 00 00 00 00 00
       0.0 0.0 0.0 0.0
000270 00 00 00 00 00 00 00 00 00 00 00 00 00 00 00 00
       0.0 0.0 0.0 0.0
000280 00 00 00 00 00 00 00 00 00 00 00 00 00 00 00 00
       0.0 0.0 0.0 0.0
000290 00 00 00 00 00 00 00 00 00 00 00 00 00 00 00 00
       0.0 0.0 0.0 0.0
0002a0 00 00 00 00 00 00 00 00 00 00 00 00 00 00 00 00
       0.0 0.0 0.0 0.0
0002b0 00 00 00 00 00 00 00 00 00 00 00 00 00 00 00 00
       0.0 0.0 0.0 0.0
0002c0 00 00 00 00 00 00 00 00 00 00 00 00 00 00 00 00
       0.0 0.0 0.0 0.0
0002d0 00 00 00 00 00 00 00 00 00 00 00 00 00 00 00 00
       0.0 0.0 0.0 0.0
0002e0 00 00 00 00 00 00 00 00 00 00 00 00 00 00 00 00
       0.0 0.0 0.0 0.0
0002f0 00 00 00 00 00 00 00 00 00 00 00 00 00 00 00 00
       0.0 0.0 0.0 0.0
000300 00 00 00 00 00 00 00 00 00 00 00 00 00 00 00 00
       0.0 0.0 0.0 0.0
000310 00 00 00 00 00 00 00 00 00 00 00 00 00 00 00 00
       0.0 0.0 0.0 0.0
000320 00 00 00 00 00 00 00 00 00 00 00 00 00 00 00 00
       0.0 0.0 0.0 0.0
000330 00 00 00 00 00 00 00 00 00 00 00 00 00 00 00 00
       0.0 0.0 0.0 0.0
000340 00 00 00 00 00 00 00 00 00 00 00 00 00 00 00 00
       0.0 0.0 0.0 0.0
000350 00 00 00 00 00 00 00 00 00 00 00 00 00 00 00 00
       0.0 0.0 0.0 0.0
000360 00 00 00 00 00 00 00 00 00 00 00 00 00 00 00 00
       0.0 0.0 0.0 0.0
000370 00 00 00 00 00 00 00 00 00 00 00 00 00 00 00 00
       0.0 0.0 0.0 0.0
000380 00 00 00 00 00 00 00 00 00 00 00 00 00 00 00 00
       0.0 0.0 0.0 0.0
000390 00 00 00 00 00 00 00 00 00 00 00 00 00 00 00 00
       0.0 0.0 0.0 0.0
0003a0 00 00 00 00 00 00 00 00 00 00 00 00 00 00 00 00
       0.0 0.0 0.0 0.0
0003b0 00 00 00 00 00 00 00 00 00 00 00 00 00 00 00 00
       0.0 0.0 0.0 0.0
0003c0 00 00 00 00 00 00 00 00 00 00 00 00 00 00 00 00
       0.0 0.0 0.0 0.0
0003d0 00 00 00 00 00 00 00 00 00 00 00 00 00 00 00 00
       0.0 0.0 0.0 0.0
0003e0 00 00 00 00 00 00 00 00 00 00 00 00 00 00 00 00
       0.0 0.0 0.0 0.0
0003f0 00 00 00 00 00 00 00 00 00 00 00 00 00 00 00 00
       0.0 0.0 0.0 0.0

linear_masked_relu1.slope f4 [16, 16, 16]
000000 00 00 00 00 00 00 00 00 00 00 00 00 00 00 00 00
       0.0 0.0 0.0 0.0
000010 00 00 00 00 00 00 00 00 00 00 00 00 00 00 00 00
       0.0 0.0 0.0 0.0
000020 00 00 00 00 00 00 00 00 00 00 00 00 00 00 00 00
       0.0 0.0 0.0 0.0
000030 00 00 00 00 00 00 00 00 00 00 00 00 00 00 00 00
       0.0 0.0 0.0 0.0
000040 00 00 00 00 00 00 00 00 00 00 00 00 00 00 00 00
       0.0 0.0 0.0 0.0
000050 00 00 00 00 00 00 00 00 00 00 00 00 00 00 00 00
       0.0 0.0 0.0 0.0
000060 00 00 00 00 00 00 00 00 00 00 00 00 00 00 00 00
       0.0 0.0 0.0 0.0
000070 00 00 00 00 00 00 00 00 00 00 00 00 00 00 00 00
       0.0 0.0 0.0 0.0
000080 00 00 00 00 00 00 00 00 00 00 00 00 00 00 00 00
       0.0 0.0 0.0 0.0
000090 00 00 00 00 00 00 00 00 00 00 00 00 00 00 00 00
       0.0 0.0 0.0 0.0
0000a0 00 00 00 00 00 00 00 00 00 00 00 00 00 00 00 00
       0.0 0.0 0.0 0.0
0000b0 00 00 00 00 00 00 00 00 00 00 00 00 00 00 00 00
       0.0 0.0 0.0 0.0
0000c0 00 00 00 00 00 00 00 00 00 00 00 00 00 00 00 00
       0.0 0.0 0.0 0.0
0000d0 00 00 00 00 00 00 00 00 00 00 00 00 00 00 00 00
       0.0 0.0 0.0 0.0
0000e0 00 00 00 00 00 00 00 00 00 00 00 00 00 00 00 00
       0.0 0.0 0.0 0.0
0000f0 00 00 00 00 00 00 00 00 00 00 00 00 00 00 00 00
       0.0 0.0 0.0 0.0
000100 00 00 00 00 00 00 00 00 00 00 00 00 00 00 00 00
       0.0 0.0 0.0 0.0
000110 00 00 00 00 00 00 00 00 00 00 00 00 00 00 00 00
       0.0 0.0 0.0 0.0
000120 00 00 00 00 00 00 00 00 00 00 00 00 00 00 00 00
       0.0 0.0 0.0 0.0
000130 00 00 00 00 00 00 00 00 00 00 00 00 00 00 00 00
       0.0 0.0 0.0 0.0
000140 00 00 00 00 00 00 00 00 00 00 00 00 00 00 00 00
       0.0 0.0 0.0 0.0
000150 00 00 00 00 00 00 00 00 00 00 00 00 00 00 00 00
       0.0 0.0 0.0 0.0
000160 00 00 00 00 00 00 00 00 00 00 00 00 00 00 00 00
       0.0 0.0 0.0 0.0
000170 00 00 00 00 00 00 00 00 00 00 00 00 00 00 00 00
       0.0 0.0 0.0 0.0
000180 00 00 00 00 00 00 00 00 00 00 00 00 00 00 00 00
       0.0 0.0 0.0 0.0
000190 00 00 00 00 00 00 00 00 00 00 00 00 00 00 00 00
       0.0 0.0 0.0 0.0
0001a0 00 00 00 00 00 00 00 00 00 00 00 00 00 00 00 00
       0.0 0.0 0.0 0.0
0001b0 00 00 00 00 00 00 00 00 00 00 00 00 00 00 00 00
       0.0 0.0 0.0 0.0
0001c0 00 00 00 00 00 00 00 00 00 00 00 00 00 00 00 00
       0.0 0.0 0.0 0.0
0001d0 00 00 00 00 00 00 00 00 00 00 00 00 00 00 00 00
       0.0 0.0 0.0 0.0
0001e0 00 00 00 00 00 00 00 00 00 00 00 00 00 00 00 00
       0.0 0.0 0.0 0.0
0001f0 00 00 00 00 00 00 00 00 00 00 00 00 00 00 00 00
       0.0 0.0 0.0 0.0
000200 00 00 00 00 00 00 00 00 00 00 00 00 00 00 00 00
       0.0 0.0 0.0 0.0
000210 00 00 00 00 00 00 00 00 00 00 00 00 00 00 00 00
       0.0 0.0 0.0 0.0
000220 00 00 00 00 00 00 00 00 00 00 00 00 00 00 00 00
       0.0 0.0 0.0 0.0
000230 00 00 00 00 00 00 00 00 00 00 00 00 00 00 00 00
       0.0 0.0 0.0 0.0
000240 00 00 00 00 00 00 00 00 00 00 00 00 00 00 00 00
       0.0 0.0 0.0 0.0
000250 00 00 00 00 00 00 00 00 00 00 00 00 00 00 00 00
       0.0 0.0 0.0 0.0
000260 00 00 00 00 00 00 00 00 00 00 00 00 00 00 00 00
       0.0 0.0 0.0 0.0
000270 00 00 00 00 00 00 00 00 00 00 00 00 00 00 00 00
       0.0 0.0 0.0 0.0
000280 00 00 00 00 00 00 00 00 00 00 00 00 00 00 00 00
       0.0 0.0 0.0 0.0
000290 00 00 00 00 00 00 00 00 00 00 00 00 00 00 00 00
       0.0 0.0 0.0 0.0
0002a0 00 00 00 00 00 00 00 00 00 00 00 00 00 00 00 00
       0.0 0.0 0.0 0.0
0002b0 00 00 00 00 00 00 00 00 00 00 00 00 00 00 00 00
       0.0 0.0 0.0 0.0
0002c0 00 00 00 00 00 00 00 00 00 00 00 00 00 00 00 00
       0.0 0.0 0.0 0.0
0002d0 00 00 00 00 00 00 00 00 00 00 00 00 00 00 00 00
       0.0 0.0 0.0 0.0
0002e0 00 00 00 00 00 00 00 00 00 00 00 00 00 00 00 00
       0.0 0.0 0.0 0.0
0002f0 00 00 00 00 00 00 00 00 00 00 00 00 00 00 00 00
       0.0 0.0 0.0 0.0
000300 00 00 00 00 00 00 00 00 00 00 00 00 00 00 00 00
       0.0 0.0 0.0 0.0
000310 00 00 00 00 00 00 00 00 00 00 00 00 00 00 00 00
       0.0 0.0 0.0 0.0
000320 00 00 00 00 00 00 00 00 00 00 00 00 00 00 00 00
       0.0 0.0 0.0 0.0
000330 00 00 00 00 00 00 00 00 00 00 00 00 00 00 00 00
       0.0 0.0 0.0 0.0
000340 00 00 00 00 00 00 00 00 00 00 00 00 00 00 00 00
       0.0 0.0 0.0 0.0
000350 00 00 00 00 00 00 00 00 00 00 00 00 00 00 00 00
       0.0 0.0 0.0 0.0
000360 00 00 00 00 00 00 00 00 00 00 00 00 00 00 00 00
       0.0 0.0 0.0 0.0
000370 00 00 00 00 00 00 00 00 00 00 00 00 00 00 00 00
       0.0 0.0 0.0 0.0
000380 00 00 00 00 00 00 00 00 00 00 00 00 00 00 00 00
       0.0 0.0 0.0 0.0
000390 00 00 00 00 00 00 00 00 00 00 00 00 00 00 00 00
       0.0 0.0 0.0 0.0
0003a0 00 00 00 00 00 00 00 00 00 00 00 00 00 00 00 00
       0.0 0.0 0.0 0.0
0003b0 00 00 00 00 00 00 00 00 00 00 00 00 00 00 00 00
       0.0 0.0 0.0 0.0
0003c0 00 00 00 00 00 00 00 00 00 00 00 00 00 00 00 00
       0.0 0.0 0.0 0.0
0003d0 00 00 00 00 00 00 00 00 00 00 00 00 00 00 00 00
       0.0 0.0 0.0 0.0
0003e0 00 00 00 00 00 00 00 00 00 00 00 00 00 00 00 00
       0.0 0.0 0.0 0.0
0003f0 00 00 00 00 00 00 00 00 00 00 00 00 00 00 00 00
       0.0 0.0 0.0 0.0

linear_masked_relu1.bias f4 [16, 16, 16]
000000 00 00 00 00 00 00 00 00 00 00 00 00 00 00 00 00
       0.0 0.0 0.0 0.0
000010 00 00 00 00 00 00 00 00 00 00 00 00 00 00 00 00
       0.0 0.0 0.0 0.0
000020 00 00 00 00 00 00 00 00 00 00 00 00 00 00 00 00
       0.0 0.0 0.0 0.0
000030 00 00 00 00 00 00 00 00 00 00 00 00 00 00 00 00
       0.0 0.0 0.0 0.0
000040 00 00 00 00 00 00 00 00 00 00 00 00 00 00 00 00
       0.0 0.0 0.0 0.0
000050 00 00 00 00 00 00 00 00 00 00 00 00 00 00 00 00
       0.0 0.0 0.0 0.0
000060 00 00 00 00 00 00 00 00 00 00 00 00 00 00 00 00
       0.0 0.0 0.0 0.0
000070 00 00 00 00 00 00 00 00 00 00 00 00 00 00 00 00
       0.0 0.0 0.0 0.0
000080 00 00 00 00 00 00 00 00 00 00 00 00 00 00 00 00
       0.0 0.0 0.0 0.0
000090 00 00 00 00 00 00 00 00 00 00 00 00 00 00 00 00
       0.0 0.0 0.0 0.0
0000a0 00 00 00 00 00 00 00 00 00 00 00 00 00 00 00 00
       0.0 0.0 0.0 0.0
0000b0 00 00 00 00 00 00 00 00 00 00 00 00 00 00 00 00
       0.0 0.0 0.0 0.0
0000c0 00 00 00 00 00 00 00 00 00 00 00 00 00 00 00 00
       0.0 0.0 0.0 0.0
0000d0 00 00 00 00 00 00 00 00 00 00 00 00 00 00 00 00
       0.0 0.0 0.0 0.0
0000e0 00 00 00 00 00 00 00 00 00 00 00 00 00 00 00 00
       0.0 0.0 0.0 0.0
0000f0 00 00 00 00 00 00 00 00 00 00 00 00 00 00 00 00
       0.0 0.0 0.0 0.0
000100 00 00 00 00 00 00 00 00 00 00 00 00 00 00 00 00
       0.0 0.0 0.0 0.0
000110 00 00 00 00 00 00 00 00 00 00 00 00 00 00 00 00
       0.0 0.0 0.0 0.0
000120 00 00 00 00 00 00 00 00 00 00 00 00 00 00 00 00
       0.0 0.0 0.0 0.0
000130 00 00 00 00 00 00 00 00 00 00 00 00 00 00 00 00
       0.0 0.0 0.0 0.0
000140 00 00 00 00 00 00 00 00 00 00 00 00 00 00 00 00
       0.0 0.0 0.0 0.0
000150 00 00 00 00 00 00 00 00 00 00 00 00 00 00 00 00
       0.0 0.0 0.0 0.0
000160 00 00 00 00 00 00 00 00 00 00 00 00 00 00 00 00
       0.0 0.0 0.0 0.0
000170 00 00 00 00 00 00 00 00 00 00 00 00 00 00 00 00
       0.0 0.0 0.0 0.0
000180 00 00 00 00 00 00 00 00 00 00 00 00 00 00 00 00
       0.0 0.0 0.0 0.0
000190 00 00 00 00 00 00 00 00 00 00 00 00 00 00 00 00
       0.0 0.0 0.0 0.0
0001a0 00 00 00 00 00 00 00 00 00 00 00 00 00 00 00 00
       0.0 0.0 0.0 0.0
0001b0 00 00 00 00 00 00 00 00 00 00 00 00 00 00 00 00
       0.0 0.0 0.0 0.0
0001c0 00 00 00 00 00 00 00 00 00 00 00 00 00 00 00 00
       0.0 0.0 0.0 0.0
0001d0 00 00 00 00 00 00 00 00 00 00 00 00 00 00 00 00
       0.0 0.0 0.0 0.0
0001e0 00 00 00 00 00 00 00 00 00 00 00 00 00 00 00 00
       0.0 0.0 0.0 0.0
0001f0 00 00 00 00 00 00 00 00 00 00 00 00 00 00 00 00
       0.0 0.0 0.0 0.0
000200 00 00 00 00 00 00 00 00 00 00 00 00 00 00 00 00
       0.0 0.0 0.0 0.0
000210 00 00 00 00 00 00 00 00 00 00 00 00 00 00 00 00
       0.0 0.0 0.0 0.0
000220 00 00 00 00 00 00 00 00 00 00 00 00 00 00 00 00
       0.0 0.0 0.0 0.0
000230 00 00 00 00 00 00 00 00 00 00 00 00 00 00 00 00
       0.0 0.0 0.0 0.0
000240 00 00 00 00 00 00 00 00 00 00 00 00 00 00 00 00
       0.0 0.0 0.0 0.0
000250 00 00 00 00 00 00 00 00 00 00 00 00 00 00 00 00
       0.0 0.0 0.0 0.0
000260 00 00 00 00 00 00 00 00 00 00 00 00 00 00 00 00
       0.0 0.0 0.0 0.0
000270 00 00 00 00 00 00 00 00 00 00 00 00 00 00 00 00
       0.0 0.0 0.0 0.0
000280 00 00 00 00 00 00 00 00 00 00 00 00 00 00 00 00
       0.0 0.0 0.0 0.0
000290 00 00 00 00 00 00 00 00 00 00 00 00 00 00 00 00
       0.0 0.0 0.0 0.0
0002a0 00 00 00 00 00 00 00 00 00 00 00 00 00 00 00 00
       0.0 0.0 0.0 0.0
0002b0 00 00 00 00 00 00 00 00 00 00 00 00 00 00 00 00
       0.0 0.0 0.0 0.0
0002c0 00 00 00 00 00 00 00 00 00 00 00 00 00 00 00 00
       0.0 0.0 0.0 0.0
0002d0 00 00 00 00 00 00 00 00 00 00 00 00 00 00 00 00
       0.0 0.0 0.0 0.0
0002e0 00 00 00 00 00 00 00 00 00 00 00 00 00 00 00 00
       0.0 0.0 0.0 0.0
0002f0 00 00 00 00 00 00 00 00 00 00 00 00 00 00 00 00
       0.0 0.0 0.0 0.0
000300 00 00 00 00 00 00 00 00 00 00 00 00 00 00 00 00
       0.0 0.0 0.0 0.0
000310 00 00 00 00 00 00 00 00 00 00 00 00 00 00 00 00
       0.0 0.0 0.0 0.0
000320 00 00 00 00 00 00 00 00 00 00 00 00 00 00 00 00
       0.0 0.0 0.0 0.0
000330 00 00 00 00 00 00 00 00 00 00 00 00 00 00 00 00
       0.0 0.0 0.0 0.0
000340 00 00 00 00 00 00 00 00 00 00 00 00 00 00 00 00
       0.0 0.0 0.0 0.0
000350 00 00 00 00 00 00 00 00 00 00 00 00 00 00 00 00
       0.0 0.0 0.0 0.0
000360 00 00 00 00 00 00 00 00 00 00 00 00 00 00 00 00
       0.0 0.0 0.0 0.0
000370 00 00 00 00 00 00 00 00 00 00 00 00 00 00 00 00
       0.0 0.0 0.0 0.0
000380 00 00 00 00 00 00 00 00 00 00 00 00 00 00 00 00
       0.0 0.0 0.0 0.0
000390 00 00 00 00 00 00 00 00 00 00 00 00 00 00 00 00
       0.0 0.0 0.0 0.0
0003a0 00 00 00 00 00 00 00 00 00 00 00 00 00 00 00 00
       0.0 0.0 0.0 0.0
0003b0 00 00 00 00 00 00 00 00 00 00 00 00 00 00 00 00
       0.0 0.0 0.0 0.0
0003c0 00 00 00 00 00 00 00 00 00 00 00 00 00 00 00 00
       0.0 0.0 0.0 0.0
0003d0 00 00 00 00 00 00 00 00 00 00 00 00 00 00 00 00
       0.0 0.0 0.0 0.0
0003e0 00 00 00 00 00 00 00 00 00 00 00 00 00 00 00 00
       0.0 0.0 0.0 0.0
0003f0 00 00 00 00 00 00 00 00 00 00 00 00 00 00 00 00
       0.0 0.0 0.0 0.0
