complete_verifier/examples_abcrown/vnnlib_example_dependency/cifar_base_kw.onnx (onnx, 424700 bytes, 8 tensors)

0.bias f4 [8]
0	0xbeb703b4	-0.35745013
1	0x3ec74d9c	0.389264
2	0xbe374bff	-0.17900084
3	0xbf2b8f1f	-0.6701526
4	0xbe81d665	-0.25358883
5	0xbe8bab16	-0.27278966
6	0x3f02935c	0.510061
7	0x3fca7cfe	1.5819395

0.weight f4 [8, 3, 4, 4]
0	0x3a8be311	0.001067253
1	0x3f31b04f	0.6940965
2	0x3a867a93	0.0010259919
3	0x3db595d5	0.08866469
4	0x38abbcea	8.1891034e-05
5	0x388ee075	6.812896e-05
6	0x38364646	4.345763e-05
7	0x382bc6a1	4.0954565e-05
8	0xba398915	-0.0007077617
9	0xbf24c3b7	-0.6436114
10	0xba8e45a5	-0.0010854496
11	0xbdef2706	-0.11677365
12	0xb8c1772f	-9.225157e-05
13	0xbcdfcb6c	-0.027318679
14	0xb881bc0e	-6.186227e-05
15	0xb99f856f	-0.0003042626
16	0x3a1e79b9	0.000604536
17	0x3ef0f0fc	0.47058856
18	0x3a165e0a	0.0005736059
19	0x3d34a6c5	0.044104356
20	0xb768de50	-1.3880039e-05
21	0x3881c865	6.188526e-05
22	0xb8170838	-3.600886e-05
23	0xb728c45d	-1.00593e-05
24	0xb9c57931	-0.00037665063
25	0xbee323fe	-0.44363397
26	0xba2474cf	-0.00062735094
27	0xbd4b96df	-0.04970443
28	0xb8b5dfb7	-8.672423e-05
29	0xbb7ec38f	-0.0038873886
30	0xb893a0e5	-7.039475e-05
31	0xb8bca9c8	-8.996163e-05
32	0x3956722b	0.00020451161
33	0x3de796fa	0.11308093
34	0x3975c653	0.00023438902
35	0x3b400816	0.0029301695
36	0xb8313a19	-4.2254196e-05
37	0xb8e6333a	-0.00010976796
38	0xb8b7d76b	-8.766245e-05
39	0xb9050029	-0.00012683928
40	0xb95c38d4	-0.00021002005
41	0xbdb33ee0	-0.08752227
42	0xb97be053	-0.00024020793
43	0xbae2fd15	-0.0017317856
44	0xb8d89d32	-0.000103289625
45	0xb9c17e54	-0.0003690595
46	0xb87c4318	-6.0143968e-05
47	0xb8b6c9ab	-8.716e-05
48	0xb939426c	-0.00017667719
49	0xbe00dc31	-0.12583996
50	0xb935bd21	-0.00017331961
51	0xbd809b39	-0.06279606
52	0xb90e9e14	-0.00013601064
53	0xbd6b2ed3	-0.057417702
54	0xb920c7cb	-0.00015333218
55	0xbc4c88df	-0.0124838045
56	0xb9ea0926	-0.00044638774
57	0xbe7715f9	-0.24129476
58	0xba138c42	-0.0005628505
59	0xbdc2d8fe	-0.09514044
60	0xb90ee902	-0.00013628977
61	0xbd399e17	-0.04531678
62	0xb95100cd	-0.00019932092
63	0xbcac8b29	-0.02106245
64	0x37fde2df	3.0265595e-05
65	0xb99596cd	-0.0002853185
66	0x383af9ae	4.4578388e-05
67	0xbcb6feec	-0.022338353
68	0xb774365e	-1.4556192e-05
69	0xb86939c4	-5.5605327e-05
70	0xb7a57487	-1.9723795e-05
71	0xb99ac15c	-0.00029517233
72	0xb87cfb35	-6.0315437e-05
73	0xb9b46114	-0.00034404604
74	0xb8b6f815	-8.724645e-05
75	0xba328fab	-0.00068115693
76	0xb859d918	-5.1939016e-05
77	0xbab29a52	-0.0013626313
78	0xb8995cc6	-7.312889e-05
79	0xbb064052	-0.0020485115
80	0x393bfdc9	0.00017928252
81	0x3df4b884	0.11949256
82	0x393644e5	0.00017382538
83	0x3c0059c2	0.0078339
84	0x3bdfa8a0	0.0068255216
85	0x3f994a40	1.1975784
86	0x3c39740c	0.011319172
87	0x3e36f2fa	0.17866126
88	0x39198d29	0.00014643803
89	0x3e36f850	0.17868161
90	0x395dd497	0.00021155398
91	0x3d04d0b5	0.0324256
92	0xb8bfb6cd	-9.141639e-05
93	0x3c9f808a	0.019470472
94	0xb9673407	-0.00022049258
95	0xb992e4bf	-0.0002801772
96	0xb90945e8	-0.0001309138
97	0xbdd4f608	-0.10398489
98	0xb98388ea	-0.00025088276
99	0xb9146fef	-0.00014156078
100	0xb9b6bd7a	-0.00034854916
101	0xbe2187ac	-0.15774411
102	0xba03cb10	-0.0005027512
103	0xbca47960	-0.020077407
104	0x38b41368	8.5866835e-05
105	0x390fd98b	0.00013718584
106	0x3881a62a	6.18215e-05
107	0x3946c466	0.00018955916
108	0x3a0996b6	0.0005248593
109	0x3e70f7a3	0.23531966
110	0x3a16c390	0.0005751187
111	0x3c2763f0	0.010216698
112	0xb83db399	-4.5228375e-05
113	0xbd83b069	-0.06430132
114	0xb903133c	-0.00012500299
115	0xb8345b6a	-4.300048e-05
116	0xb9440c28	-0.00018696545
117	0xbd083253	-0.033251118
118	0xb9995514	-0.00029245822
119	0xba86c625	-0.001028244
120	0x37b9dde2	2.215704e-05
121	0x393f082a	0.00018218221
122	0xb315e58c	-3.4900538e-08
123	0x39717d2c	0.00023030181
124	0x395d114b	0.00021082645
125	0x3d3bd7c5	0.04586007
126	0x39752378	0.00023378234
127	0x396a0a4f	0.00022319819
128	0xb9133855	-0.00014039998
129	0xbd55dae8	-0.05221072
130	0xb9672f75	-0.00022047556
131	0xbb1eaada	-0.0024210722
132	0xbb3cdd9b	-0.002881861
133	0xbeccf09d	-0.40027323
134	0xbb96b6ae	-0.004599414
135	0xbdd4a8a2	-0.10383727
136	0xb7c3f567	-2.3360086e-05
137	0x39bc74eb	0.00035945265
138	0xb7442b86	-1.1692644e-05
139	0x39ec88d5	0.00045115376
140	0x3bc78cbd	0.0060897754
141	0x3f4cbefe	0.7997893
142	0x3befa034	0.007312799
143	0x3dd7bb7c	0.10533807
144	0xba937426	-0.0011249825
145	0xbd7ec16d	-0.062196184
146	0xba9b237a	-0.0011836134
147	0xbda8b01a	-0.08236714
148	0xb6373ece	-2.7305682e-06
149	0x3c2e3816	0.010633489
150	0x391553f1	0.00014241018
151	0x381edda9	3.7876573e-05
152	0x3a57d0f4	0.00082327356
153	0x3f296484	0.66169
154	0x3d7ee494	0.062229708
155	0x3de31301	0.11087609
156	0x38403530	4.5825902e-05
157	0x3d9ce183	0.076602004
158	0x3959c429	0.00020767808
159	0xb5c047b8	-1.4325988e-06
160	0x39c3e3a3	0.000373629
161	0x3942282d	0.00018516248
162	0x39bea131	0.0003635972
163	0x39d0510c	0.00039733236
164	0xb89a22a5	-7.349745e-05
165	0xbcfcfc53	-0.030882036
166	0xb8aa78bd	-8.128721e-05
167	0xb71cd22b	-9.347258e-06
168	0xbb88fac8	-0.004180286
169	0xbf3c7a28	-0.73623896
170	0xbe069e39	-0.13146295
171	0xbe18788d	-0.14889736
172	0xb90cd431	-0.00013430488
173	0xbe01da2c	-0.12680882
174	0xba15685d	-0.000569945
175	0xb89c11df	-7.4419884e-05
176	0x3a2f5a2c	0.0006689157
177	0x3d7cc498	0.061710924
178	0x39d98d91	0.0004149494
179	0x3d8600fd	0.06543157
180	0x3aca27e6	0.0015423268
181	0x3d6679e8	0.056268603
182	0x3a1b0508	0.00059135305
183	0x3d9481c5	0.07251314
184	0x3914f00d	0.00014203806
185	0x38bf230a	9.114116e-05
186	0x38f71069	0.000117809344
187	0x398e7720	0.00027173106
188	0x3a1158e8	0.0005544559
189	0x3b9383a8	0.0045017786
190	0x39d427a5	0.00040465328
191	0x3d15952a	0.036519207
192	0x393e625d	0.00018156455
193	0x3a22ee48	0.0006215316
194	0x3908ada9	0.00013034664
195	0x3926ec7a	0.00015919088
196	0x39c8350d	0.000381865
197	0x3da969c9	0.0827213
198	0x38b1dd33	8.481219e-05
199	0xbd62b49e	-0.05534803
200	0x3a88cb2d	0.0010436528
201	0x3f213694	0.62973905
202	0x3917acab	0.00014464806
203	0xbefa92c2	-0.48940092
204	0x39a61a50	0.00031681592
205	0x3d9d804a	0.07690485
206	0x38e0ee1f	0.00010725506
207	0xbd53874c	-0.0516427
208	0x378d9b50	1.6880833e-05
209	0x375808c4	1.2876644e-05
210	0x368c2dd7	4.1776616e-06
211	0x37172b4d	9.010383e-06
212	0x38dc3fd5	0.00010502307
213	0x3c63b9da	0.013899291
214	0x3863a217	5.4271975e-05
215	0xbca83b05	-0.020535955
216	0x39bf9d58	0.0003654759
217	0x3ec5e956	0.38654584
218	0x384214e4	4.627266e-05
219	0xbf0c4aea	-0.5480181
220	0x38e0b230	0.00010714342
221	0x3c4badcc	0.012431573
222	0x38c594e3	9.421424e-05
223	0xbc89ace9	-0.016806083
224	0x36bbca11	5.596558e-06
225	0xb88bdd4b	-6.6692555e-05
226	0xb73202d1	-1.06102825e-05
227	0xb88cc5ad	-6.71254e-05
228	0x3a90afba	0.0011038699
229	0x3e0d6337	0.13807379
230	0xb7aec238	-2.0832857e-05
231	0xbe20d243	-0.15705208
232	0x395c62cb	0.00021017638
233	0x3df22a46	0.11824469
234	0x382d9d57	4.139295e-05
235	0xbdf4ad1f	-0.11947083
236	0x3a462436	0.00075584964
237	0x3e06644b	0.13124196
238	0x3811b4bb	3.4739012e-05
239	0xbdd94789	-0.106093474
240	0x3a171fc6	0.00057649275
241	0x3e941579	0.28922632
242	0x39b647a0	0.0003476711
243	0x3bf873be	0.007582157
244	0x3a45af78	0.00075411005
245	0x3e8069d1	0.25080732
246	0x3a0ec15e	0.0005445684
247	0x3bd448c2	0.0064784
248	0x3a665218	0.00087860366
249	0x3eeecd44	0.4664098
250	0x39ffb1db	0.00048769903
251	0x3d4fddc6	0.05074861
252	0x383193bd	4.233768e-05
253	0x389f5055	7.596674e-05
254	0x37f190e1	2.8796903e-05
255	0x38093d13	3.2720225e-05

2.bias f4 [16]
0	0x3e259a4a	0.16172138
1	0x3ea539b1	0.32270578
2	0x3f99a5ba	1.2003701
3	0xbcd74366	-0.026277255
4	0xbd46e9f1	-0.048562948
5	0xbe6e1662	-0.23250726
6	0x3eca1a04	0.39472973
7	0x3d8f8795	0.07008282
8	0xbe5b447b	-0.21412842
9	0xbdbf9d8f	-0.09356224
10	0xbf105779	-0.5638347
11	0xbe9107f5	-0.28326383
12	0x3c6770d2	0.01412602
13	0xbde22fa9	-0.11044247
14	0x3fdf1827	1.7429246
15	0x3f7bdb9a	0.9838196

2.weight f4 [16, 8, 4, 4]
0	0xbb1be1ca	-0.0023785704
1	0xbacf07fe	-0.0015795229
2	0xbb2b3de3	-0.0026129417
3	0x3b094dfe	0.0020951028
4	0xbc240dc3	-0.010013047
5	0xbc3bae49	-0.011455127
6	0xbc3c40b3	-0.011490035
7	0xbc0f0012	-0.008728044
8	0xbc3dfc60	-0.011595815
9	0xbc6d6cc5	-0.014491265
10	0xbc8d5a38	-0.017254934
11	0xbc24f14f	-0.010067298
12	0x3acff4b8	0.0015865779
13	0x3b87e95a	0.0041476907
14	0x3bca02bc	0.0061648767
15	0x3a571a03	0.0008205475
16	0xbb2db31a	-0.0026504458
17	0x389ad042	7.382083e-05
18	0xbbe0ffbe	-0.0068664243
19	0xbae1c652	-0.0017225242
20	0xba919c69	-0.0011109236
21	0xbcd8580e	-0.026409175
22	0xbd0ba6d4	-0.034094647
23	0xbc6c7096	-0.014431139
24	0x398a891f	0.00026423574
25	0x38434ed6	4.6565045e-05
26	0xbb36f47c	-0.002791672
27	0xba26c5fb	-0.0006361899
28	0x37524fab	1.2535525e-05
29	0x3c41be5e	0.011825172
30	0x3cb7dbb5	0.022443632
31	0x3ac124ea	0.0014735733
32	0xbc09dc2e	-0.008414311
33	0xbc9af910	-0.01891759
34	0xbcd1ecf8	-0.02562569
35	0xbc80f3a6	-0.01574118
36	0xbb8461f1	-0.004039996
37	0xbc5f62ce	-0.013634397
38	0xbca97504	-0.02068568
39	0xbc518b64	-0.012789581
40	0xb9424a32	-0.00018528922
41	0xb9734146	-0.00023198602
42	0xba8a4fab	-0.0010552307
43	0x3a5ea0f9	0.0008492615
44	0xb919f51c	-0.00014682527
45	0x3a2223d6	0.00061851495
46	0x3a9a214d	0.0011759192
47	0x390a1314	0.00013167813
48	0x3e4f4555	0.20241292
49	0x3e87403e	0.264162
50	0x3e875f68	0.26439977
51	0x3e46a6fb	0.19399635
52	0x3e83514e	0.25647968
53	0x3eaa32ce	0.33241886
54	0x3ea9e77a	0.33184415
55	0x3e811687	0.252125
56	0x3e2ba17f	0.16760825
57	0x3e694fb1	0.22784306
58	0x3e6b5672	0.22982195
59	0x3e27fa1f	0.16404007
60	0x3d5a15e0	0.053243518
61	0x3db22937	0.08699267
62	0x3db27e6b	0.087155186
63	0x3d52d664	0.05147399
64	0xbcd14856	-0.025547188
65	0xbcc12c54	-0.023580708
66	0xbd00a7c0	-0.03140998
67	0xbc32b61b	-0.010907675
68	0xbc7d522f	-0.015461489
69	0xbc0b54ba	-0.008504087
70	0xbcc3a646	-0.023882996
71	0xbc06cdcd	-0.008227778
72	0xbb7a7055	-0.0038213928
73	0x3c06942c	0.008214038
74	0xbb8610ad	-0.0040913434
75	0xb9c051aa	-0.00036681938
76	0xb9ad4b1a	-0.00033053086
77	0x3c4fa573	0.0126737235
78	0x3a6f92f8	0.00091390265
79	0xb7eba87c	-2.809264e-05
80	0x3d6d5c97	0.05794963
81	0x3e029150	0.12750745
82	0x3e2481a8	0.16065085
83	0x3db2a37e	0.0872259
84	0x3dfb739e	0.122779116
85	0x3e6de736	0.23232731
86	0x3e8d9af0	0.2765727
87	0x3e2df0fb	0.16986458
88	0x3dc0395c	0.093859404
89	0x3e3a1792	0.18173054
90	0x3e685cb3	0.22691612
91	0x3e013aa9	0.12620033
92	0x3bf4851a	0.007462156
93	0x3d39e820	0.045387387
94	0x3d770a77	0.060312714
95	0x3c87dc67	0.016584588
96	0xbc96ee44	-0.01842416
97	0xbcfaa3ca	-0.030595679
98	0xbc4014e0	-0.011723727
99	0xba4bbf85	-0.0007772374
100	0xbd2f3949	-0.04277924
101	0xbd88bda2	-0.066767946
102	0xbcdfed84	-0.027334936
103	0x3b4980ea	0.0030747005
104	0xbd0213dc	-0.03175722
105	0xbd85d47c	-0.06534669
106	0xbc996eb7	-0.01872955
107	0x383e7450	4.5407854e-05
108	0xbc987550	-0.018610626
109	0xbd154e9f	-0.036451932
110	0xbbf17c9b	-0.0073695905
111	0xba1aa14f	-0.00058986706
112	0x3cb5dbc9	0.022199528
113	0x3cdc3fae	0.026885834
114	0x3d12f656	0.035879456
115	0x3c56157f	0.0130666485
116	0x3d037ff0	0.032104433
117	0x3d068518	0.03284177
118	0x3d63eaa3	0.05564369
119	0x3cc9594e	0.024578717
120	0xbba70c11	-0.005097874
121	0xbc8ae7fe	-0.016956326
122	0x3be042ec	0.006843915
123	0xbb93d151	-0.0045110364
124	0xba410539	-0.0007363144
125	0xbadba976	-0.0016758877
126	0x3c5fc299	0.013657236
127	0x3b4d2969	0.00313052
128	0x3c9f0224	0.0194102
129	0x3b87ccad	0.0041442723
130	0xbc4e576e	-0.012594087
131	0xbc6e6ef4	-0.0145528205
132	0xba216fec	-0.000615834
133	0xbc8750d0	-0.016518027
134	0xbccbbb02	-0.024869446
135	0xbcb13671	-0.021632405
136	0x35a7db0a	1.2506218e-06
137	0xbcca638b	-0.024705669
138	0xb973b851	-0.00023242949
139	0x3ba65ffe	0.005077361
140	0xb98d867f	-0.00026993823
141	0x3a173367	0.00057678524
142	0x3c12d9c2	0.00896305
143	0x3c4ad12e	0.012378974
144	0x381acb02	3.6905527e-05
145	0xbe329eb2	-0.1744335
146	0xbe0856a4	-0.13314301
147	0x3b596652	0.003317256
148	0xbdae5dea	-0.085140064
149	0xbee13576	-0.439861
150	0xbdbdc7a6	-0.092665955
151	0x3db19000	0.08670044
152	0xbe0ab1b7	-0.13544355
153	0xbe58aa9d	-0.21158834
154	0x3c91a4cb	0.017778775
155	0x3e36f11d	0.17865415
156	0xbd41f55c	-0.047353134
157	0xbd3dec1d	-0.046367753
158	0x3ceeb4ec	0.029139005
159	0x3dcdc5a1	0.1004746
160	0xbce31dfa	-0.027724255
161	0xbd7c150e	-0.061543517
162	0x3c1893d6	0.009312591
163	0x3cc1a40c	0.023637794
164	0xbd03ba16	-0.032159887
165	0xb96c8b95	-0.00022558712
166	0x3cc587f0	0.024112672
167	0x3d01fd20	0.03173554
168	0x3d398d31	0.045300666
169	0x3d5dad60	0.05412042
170	0x3d1e300b	0.038620036
171	0x3b8c6c70	0.0042853877
172	0x3d7e41db	0.062074523
173	0x3d3f79fe	0.0467472
174	0x3d415989	0.047204528
175	0x3c388c04	0.011263851
176	0xbc867189	-0.01641156
177	0xbd2f9206	-0.04286387
178	0xbd1ba830	-0.038002193
179	0xbc6ca600	-0.014443874
180	0xbcc2984f	-0.023754267
181	0xbd32adae	-0.043622665
182	0xbd1d4df9	-0.03840444
183	0xbcf8ac04	-0.030355461
184	0xbc7f869c	-0.015596058
185	0xbcbfc08f	-0.023407249
186	0xbcdf8f38	-0.027289972
187	0xbd178abe	-0.03699755
188	0xbbd76e16	-0.0065744026
189	0xbbefdcd8	-0.007320028
190	0xbca93a96	-0.020657819
191	0xbd02b86e	-0.031914167
192	0xba08dd27	-0.00052209425
193	0x3ce53d75	0.027983407
194	0xba624263	-0.0008631108
195	0xbc19bfce	-0.009384109
196	0x398fd92e	0.00027436897
197	0xb7e5e0ff	-2.74037e-05
198	0xbb6eb89b	-0.0036425951
199	0x39150411	0.00014211262
200	0xbb000c84	-0.001953871
201	0xb8c11189	-9.206223e-05
202	0x3b6f7c37	0.0036542544
203	0x3c0e5001	0.008686067
204	0xbb6047d5	-0.0034222503
205	0x3a478140	0.00076105073
206	0x3c4fc2d4	0.012680728
207	0x3c36b0b5	0.011150529
208	0x3c1bd9ec	0.009512406
209	0x3d06b0d6	0.032883488
210	0x3b2e43d6	0.0026590726
211	0xbc3bf5ec	-0.011472207
212	0x3d26d8c9	0.040734086
213	0x3d6aa1c4	0.057283178
214	0x3c0e40c7	0.008682436
215	0xbc7247e2	-0.014787646
216	0x3d10bbf4	0.035335496
217	0x3cce24aa	0.025163967
218	0x3952273b	0.00020041775
219	0xbc76c653	-0.015061933
220	0x381acedf	3.6909125e-05
221	0x39ba3baa	0.00035521138
222	0xbbfc591a	-0.0077010514
223	0xbcbed1be	-0.023293372
224	0xbcfe8856	-0.03107087
225	0xbd8f4728	-0.06995994
226	0x3ceac9c9	0.028660672
227	0x3e17b07e	0.1481342
228	0xbe1b5228	-0.15168059
229	0xbcabe0a8	-0.020981148
230	0x3df3544c	0.11881313
231	0x3e97ed1d	0.2967309
232	0xbcd52592	-0.026018891
233	0x3d03cd23	0.032178055
234	0x3e070a1b	0.13187449
235	0x3e813b97	0.25240776
236	0x3d2df007	0.042465236
237	0x3d31e872	0.043434568
238	0x3d5d841d	0.05408107
239	0x3d3f0d4b	0.046643537
240	0x3cae3374	0.02126477
241	0xbe88121f	-0.26576325
242	0xbe1ef37f	-0.15522574
243	0x3d3ce44d	0.046116162
244	0xbe29b815	-0.16574128
245	0xbee33662	-0.44377428
246	0xbda74852	-0.08168091
247	0x3e45dbb6	0.19322094
248	0xbe1d2e3f	-0.15349673
249	0xbe5c7ac7	-0.21531211
250	0x3d4d4698	0.05011615
251	0x3e81650b	0.25272402
252	0xbcc8d59f	-0.024515925
253	0xbd57e74b	-0.052710813
254	0x3d01fdca	0.031736173
255	0x3dbed3e5	0.093177594

5.bias f4 [100]
0	0xbbfb06b2	-0.0076607103
1	0x3d837a51	0.064198144
2	0xbd1b10df	-0.037857886
3	0x3c68df13	0.014213341
4	0x3c425396	0.011860749
5	0x3dd2d8a0	0.10295224
6	0xbd4ef256	-0.05052408
7	0x3dcf47af	0.101210944
8	0x3b913101	0.0044308905
9	0x3d144fdb	0.03620897
10	0x3b8618de	0.00409232
11	0x3dad2b13	0.084554814
12	0x3d6447d8	0.055732578
13	0xbd2aff0d	-0.04174714
14	0x3cd8ed29	0.026480274
15	0xbc392e2f	-0.011302515
16	0xbd68d40a	-0.05684284
17	0x3d48c8cd	0.049019624
18	0x39cef246	0.0003947189
19	0x34318d10	1.6535728e-07
20	0x3c316826	0.010828054
21	0xbd841417	-0.06449144
22	0xbc1d794e	-0.009611441
23	0x3ca5bd65	0.020231912
24	0x3c544987	0.012956983
25	0xbd57f2fd	-0.052721966
26	0xbcddfe5e	-0.02709883
27	0x3d25c438	0.040470332
28	0x3e32fc4f	0.1747906
29	0xbbc04649	-0.0058677536
30	0xbcabfce1	-0.020994605
31	0x3d544edd	0.051833022
32	0xb5abaab8	-1.2790179e-06
33	0xb59f75e3	-1.1880733e-06
34	0x3b43cf42	0.0029878174
35	0x3cbdf1a5	0.023186514
36	0xbd2597bc	-0.04042791
37	0x3c971ccb	0.018446347
38	0x3b1b0ae7	0.0023657621
39	0x3d68476a	0.05670873
40	0xbc02168f	-0.007939949
41	0xbc026dc0	-0.007960737
42	0xbc84f46c	-0.01622983
43	0x3d120cea	0.035656847
44	0x3d245351	0.04011852
45	0x3d281548	0.04103592
46	0x3c2598a6	0.010107195
47	0x3c966c3f	0.018362163
48	0x3de8b8e4	0.1136339
49	0x3d5c3af2	0.053767152
50	0xbd624e7d	-0.055250634
51	0x3b5f6e47	0.003409283
52	0x3e103622	0.1408315
53	0xbd9f4038	-0.07775921
54	0xbc682f7e	-0.014171479
55	0xbd1f4c9e	-0.038891427
56	0xbcf1ee4c	-0.029532574
57	0x3c8cd1a2	0.017189804
58	0xb58f83d2	-1.0692695e-06
59	0xbbe6905c	-0.007036252
60	0x3d821680	0.06351948
61	0x3d8efddf	0.06982016
62	0xbb668196	-0.0035172454
63	0xbd335d4b	-0.043790143
64	0x3d4391bc	0.047746405
65	0x3ca51d84	0.020155676
66	0x3e029c5f	0.12754963
67	0xb5b19965	-1.3232171e-06
68	0xbd0125a1	-0.031530026
69	0xb5031ed7	-4.884618e-07
70	0xbd8a2048	-0.067444384
71	0x3da222df	0.079168074
72	0x3bbd71a5	0.0057813697
73	0x3afbba32	0.0019205271
74	0xbc59ee29	-0.013301411
75	0xbd06a369	-0.032870684
76	0xba5745e4	-0.00082120136
77	0x3d30660b	0.043066066
78	0x3dac1153	0.08401742
79	0x3c380a0d	0.011232865
80	0x3c0d49f5	0.00862359
81	0x3d4aaa49	0.049478803
82	0xb5e9b3a2	-1.7412133e-06
83	0x3d462658	0.04837641
84	0x3d5ea223	0.054353844
85	0x3b34b67a	0.0027574585
86	0x3e78ecaf	0.24309038
87	0x3e070c66	0.13188323
88	0xbda3003b	-0.07959028
89	0x3c9057a8	0.017619923
90	0x3d4d0262	0.0500511
91	0x3d823015	0.06356827
92	0x3d5d5123	0.054032456
93	0xbd8ddd26	-0.06926946
94	0x3c91d421	0.017801346
95	0xbc01ece5	-0.007930015
96	0x3a10a2bf	0.0005517415
97	0x3d820933	0.06349411
98	0x3c1573e8	0.0091218725
99	0xbcf08308	-0.029359356

5.weight f4 [100, 1024]
0	0x3b8ec0c8	0.0043564774
1	0xb9b0b493	-0.00033703874
2	0xbb6eec0e	-0.0036456618
3	0xbbabb8d3	-0.0052405386
4	0xbb3e620f	-0.0029050147
5	0x39ff4c83	0.00048694396
6	0xbb1b072f	-0.0023655405
7	0xba6dfea6	-0.0009078778
8	0x3c548773	0.012971747
9	0x3a8e07fb	0.0010836119
10	0xba95688d	-0.0011398956
11	0xbba7fad1	-0.005126335
12	0xba4a1778	-0.00077091856
13	0x3b31e442	0.002714411
14	0x3abe2a07	0.0014508375
15	0x3a673305	0.0008819553
16	0x3c6f9a9b	0.014624263
17	0x3b28d0da	0.002575925
18	0xbaa833ad	-0.0012832783
19	0xbc25f94a	-0.010130236
20	0xbc0561c8	-0.008140989
21	0xbab94746	-0.0014135621
22	0x3bb94c97	0.005654882
23	0x3b425c3e	0.0029657031
24	0x3c5f50a8	0.01363007
25	0x39e11176	0.00042928354
26	0x3b5dafc2	0.0033826684
27	0xbc1b66cc	-0.009484958
28	0xbc878ecc	-0.016547583
29	0xbb76067d	-0.0037540488
30	0x3c213759	0.009839856
31	0x3bb7bb80	0.0056070685
32	0x3c486165	0.012230252
33	0xba21cfa2	-0.00061726023
34	0x3b16d41a	0.0023014606
35	0xbbbbc721	-0.005730525
36	0xbc3637a0	-0.0111216605
37	0x3b2e36a8	0.002658287
38	0x3c961429	0.01832016
39	0x3c0ac27f	0.008469223
40	0x3c29946e	0.01035033
41	0xbb611cbb	-0.00343494
42	0xba72064b	-0.0009232505
43	0xbb67289f	-0.0035272015
44	0xbc173417	-0.009228728
45	0x3b8c74a7	0.004286367
46	0x3c65b844	0.014020983
47	0x3bd64042	0.006538422
48	0x3c4b1ed7	0.0123974895
49	0xbaf20c18	-0.0018466739
50	0x3ac29494	0.0014845305
51	0xbaaa65d8	-0.0013000323
52	0xbb5017b9	-0.003175242
53	0x3b33eebd	0.0027455532
54	0x3c059002	0.00815201
55	0x3b5af5db	0.0033410701
56	0x3be624a8	0.0070234127
57	0x3987bd14	0.0002589008
58	0x3b6c2dc9	0.0036038032
59	0x3a0d5e4e	0.00053927756
60	0xb903a2ad	-0.00012553735
61	0xb9bfd173	-0.0003658641
62	0x3b448b84	0.0029990384
63	0x3b55caf8	0.00326222
64	0xbc721631	-0.014775799
65	0xbbec364a	-0.00720862
66	0xbbfbfdd8	-0.0076901726
67	0xbc073038	-0.008251242
68	0xbc531f7f	-0.012885927
69	0xbc4e2e6e	-0.012584312
70	0xbb969740	-0.004595667
71	0xba6c233e	-0.0009007937
72	0xbce18b50	-0.02753225
73	0xbc8d504d	-0.017250204
74	0xbba015b6	-0.0048854006
75	0xbc21ebba	-0.009882862
76	0xbb8cfcb3	-0.004302585
77	0xbc24f4cc	-0.01006813
78	0xbc4fc06d	-0.012680155
79	0xb9db6c6d	-0.0004185172
80	0xbd21d8e3	-0.03951348
81	0xbc7992e2	-0.0152327735
82	0x3bbb2997	0.005711745
83	0x3b6236ca	0.003451752
84	0xbb9d3849	-0.0047979695
85	0xbca8f822	-0.020626131
86	0xbcd88d21	-0.026434483
87	0xbb9d2b89	-0.0047964496
88	0xbd6dceb6	-0.058058463
89	0xbcc643f7	-0.02420233
90	0x3d0c4231	0.034242813
91	0x3d494379	0.049136613
92	0x3a69df2a	0.00089214987
93	0xbd1b0567	-0.03784695
94	0xbd4bcb1b	-0.049754243
95	0xbc1e68b2	-0.009668516
96	0xbdaafe59	-0.08349294
97	0xbd0fe35e	-0.035128944
98	0x3d61aab0	0.05509442
99	0x3d9a091f	0.07521271
100	0x3bfe981e	0.0077695986
101	0xbd9b969b	-0.07597085
102	0xbd8d18d3	-0.068895005
103	0xbc44840d	-0.011994374
104	0xbd973cf7	-0.07384675
105	0xbccf9ec7	-0.025344266
106	0x3d05534e	0.03255015
107	0x3d0de35e	0.034640662
108	0xbd1cbe61	-0.038267497
109	0xbde372e0	-0.11105895
110	0xbd940c1b	-0.072288714
111	0xbb702c77	-0.0036647597
112	0xbd313836	-0.043266498
113	0xbaaadff0	-0.0013036709
114	0x3bd7f33f	0.0065902765
115	0x3a5a3862	0.0008324442
116	0xbd6381f5	-0.05554386
117	0xbdfb45ac	-0.12269148
118	0xbd844295	-0.06458012
119	0x3c324151	0.01087983
120	0xbcc6d676	-0.024272185
121	0x3b2807b7	0.0025639364
122	0xbae0b1b3	-0.0017142802
123	0x3bb320be	0.0054665497
124	0xbc8b7955	-0.017025629
125	0xbd9958a7	-0.07487612
126	0xbd184b9f	-0.037181493
127	0x3cb39f71	0.021926614
128	0xbca838f1	-0.020534964
129	0xbafb6bdd	-0.0019181926
130	0xbb8c62b0	-0.0042842254
131	0xbbe991d5	-0.0071279802
132	0xbbf69ad7	-0.0075257826
133	0xbc0481c7	-0.008087582
134	0xbc31b5e0	-0.010846585
135	0x3c22a7fe	0.009927748
136	0xbcc9f2ba	-0.024651874
137	0x3b999a6e	0.004687599
138	0xbbbd2c6f	-0.005773119
139	0xbc26c46f	-0.010178669
140	0xbb6ab2ad	-0.0035812065
141	0x3a306917	0.0006729527
142	0x3bc819ca	0.00610659
143	0x3cb6721a	0.022271205
144	0xbcc15957	-0.02360217
145	0x3b98c204	0.0046618003
146	0xbc3549c3	-0.011064949
147	0xbc736b8a	-0.014857182
148	0xbb7646c6	-0.0037578805
149	0x3c2fc393	0.010727781
150	0x3c439a17	0.011938593
151	0x3cb26cb4	0.02178035
152	0xbd2a448f	-0.04156929
153	0xbb9ce7c9	-0.004788373
154	0x38d0e3fa	9.960677e-05
155	0x3b2b428f	0.0026132201
156	0x387f23bb	6.0830014e-05
157	0xbbaefd8a	-0.005340283
158	0x3ac78733	0.0015222788
159	0x3caf3992	0.021389756
160	0xbd749a62	-0.059717543
161	0xbc1d9f49	-0.009620496
162	0x3be07311	0.0068496545
163	0x3c81f33f	0.01586306
164	0xbb629d39	-0.0034578575
165	0xbc9c4ed5	-0.019080559
166	0x3b2c1db5	0.0026262824
167	0x3cd0f82b	0.02550896
168	0xbd514a5e	-0.051096313
169	0xbbf868f3	-0.0075808703
170	0x3a1978a5	0.0005854464
171	0x3b9dd2c2	0.004816384
172	0xbc8c102e	-0.017097559
173	0xbc7b6911	-0.015344874
174	0x3b7688ee	0.0037618238
175	0x3cee0527	0.029055191
176	0xbcdb9ec9	-0.026809113
177	0xba08b3ec	-0.0005214799
178	0x39349fab	0.00017225619
179	0x3a9ee7f5	0.0012123572
180	0xbc1457f8	-0.0090541765
181	0xbbf09ecf	-0.00734315
182	0x3b10621b	0.0022031132
183	0x3cc9e823	0.024646824
184	0xbc1af940	-0.00945884
185	0x384d0c25	4.888712e-05
186	0x3b9d1ae1	0.004794464
187	0x3a130134	0.0005607784
188	0xbb90f305	-0.0044235014
189	0xbb5094dc	-0.0031827008
190	0x3b1fb8bb	0.0024371583
191	0x3c9c265b	0.019061258
192	0xb98196dd	-0.000247172
193	0xb9f5f1e4	-0.00046910264
194	0xb8b9326f	-8.8308814e-05
195	0x3a339d55	0.00068517524
196	0x39db0cdb	0.00041780513
197	0x3934ddb5	0.0001724873
198	0xb89056b7	-6.882607e-05
199	0xb90221bb	-0.00012410332
200	0xbab42eae	-0.0013746822
201	0x39a001ae	0.0003051883
202	0x3aabbb6e	0.0013102123
203	0x3b202076	0.002443341
204	0x3ad83b91	0.0016497244
205	0x3a19b308	0.00058631646
206	0x3a194372	0.0005846537
207	0x3a15d664	0.00057158456
208	0xbaee2202	-0.0018168094
209	0xbae6d356	-0.001761059
210	0x3ab47e31	0.0013770518
211	0x3ab5c0e7	0.0013866693
212	0xba4c4e13	-0.00077936164
213	0xbb412673	-0.002947238
214	0xbab34c3f	-0.0013679339
215	0xbabc9428	-0.0014387416
216	0xbb408a5c	-0.0029379344
217	0xbb0981a7	-0.002098182
218	0x3b7d9438	0.0038693082
219	0x3b2e02bc	0.0026551923
220	0xba44850b	-0.00074966316
221	0xbb1726fa	-0.0023064003
222	0xba61f304	-0.0008619281
223	0xbad81924	-0.0016486985
224	0xbaf99594	-0.001904177
225	0xbac51dd8	-0.0015038801
226	0xbaafd637	-0.0013415281
227	0xba8f0e67	-0.0010914326
228	0xbaa7fd60	-0.00128166
229	0xbad6908e	-0.0016369985
230	0xbaa37969	-0.0012472096
231	0xbaa88786	-0.0012857772
232	0xb9e746e0	-0.0004411256
233	0xba6b200d	-0.00089693145
234	0xbafb85dd	-0.0019189675
235	0xbafdfc38	-0.0019377535
236	0xbb1b4898	-0.0023694392
237	0xbadffbc9	-0.0017088588
238	0xbaa2c981	-0.0012419672
239	0xb9dce9cd	-0.00042135865
240	0x3a95980b	0.001141311
241	0x3aaa1896	0.0012977298
242	0x3886ddc4	6.430925e-05
243	0xba47f30a	-0.0007627463
244	0xba662cee	-0.0008780499
245	0xb8a9d3c2	-8.097991e-05
246	0x38768801	5.8777634e-05
247	0xba52016e	-0.00080110773
248	0x3ab8d7c2	0.0014102387
249	0x3ae8a808	0.0017750273
250	0xbacb848a	-0.0015527171
251	0xbafb6fa6	-0.0019183054
252	0xb95f7c6b	-0.00021313287
253	0x3a819ca8	0.0009888606
254	0xba94d9ec	-0.001135645
255	0xbb80d6ca	-0.003931855

7.bias f4 [10]
0	0xbe3ce986	-0.18448457
1	0x3c4df314	0.012570161
2	0xbe1db758	-0.15401971
3	0xbcdae07b	-0.026718369
4	0xbd9fefe6	-0.07809429
5	0xbc155bc6	-0.009116119
6	0x3e92e3bd	0.28689376
7	0xbc4e76c1	-0.012601555
8	0xbd0a5255	-0.033769924
9	0x3e4c20b9	0.19934358

7.weight f4 [10, 100]
0	0x3dbe72b2	0.0929922
1	0xbde345bf	-0.110972874
2	0xbd1a779d	-0.03771173
3	0xbcb107c5	-0.02161015
4	0xbd96cf28	-0.07363731
5	0x3d7cddf8	0.061735123
6	0xbd02a1d6	-0.03189262
7	0x3e134632	0.14382246
8	0xbb0f5b69	-0.0021874553
9	0x3d237f69	0.03991643
10	0xbd5476e3	-0.05187119
11	0x3e09971e	0.13436553
12	0x3e9d939c	0.3077668
13	0xbd5ed178	-0.054398984
14	0xbd5496cc	-0.051901624
15	0x3d3f9707	0.04677489
16	0xbdf879bb	-0.12132593
17	0xbc65cf76	-0.014026513
18	0xbd3daf6f	-0.046309885
19	0x3583f7ae	9.832345e-07
20	0x3eb0f10f	0.34558913
21	0x3ecbdbcf	0.39816138
22	0x3dfb0ca9	0.12258274
23	0xbd665775	-0.05623575
24	0xbdd4be28	-0.10387832
25	0x3f2cdef7	0.6752772
26	0xbd4834eb	-0.04887859
27	0xbc9363ea	-0.017991979
28	0x3e8c31fc	0.27381885
29	0xbdd395be	-0.103312954
30	0xbe5c64e9	-0.21522869
31	0xbdbc6d35	-0.09200517
32	0xb584417f	-9.853828e-07
33	0xb549d36a	-7.5185983e-07
34	0xbd9665de	-0.073436484
35	0xbd37c472	-0.04486508
36	0x3e440070	0.19140792
37	0xbd56b1c5	-0.052415628
38	0x3eaca192	0.33717018
39	0xbdc13a48	-0.094349444
40	0xbe46d148	-0.19415772
41	0x3e0e6163	0.13904338
42	0x3a602b92	0.00085514144
43	0x3d3af0cf	0.04563981
44	0x3e2d6564	0.16933209
45	0x3e60d762	0.21957162
46	0xbd95be95	-0.07311741
47	0xbe18478f	-0.14871047
48	0xbdac0ab7	-0.08400481
49	0xbc62bb06	-0.013838535
50	0xbbdb30b7	-0.006689157
51	0x3e0b902c	0.13629216
52	0xbe6a6dbb	-0.22893421
53	0x3e06ab0e	0.1315119
54	0xbd2b50bd	-0.041825045
55	0x3b2084bf	0.0024493185
56	0x3d066098	0.032806963
57	0x3da5e748	0.08100754
58	0x35133578	5.4839575e-07
59	0xbd95949a	-0.07303734
60	0xbd29a68e	-0.041418605
61	0x3eae221e	0.34010404
62	0xbd914c14	-0.07094589
63	0xbdebfc4a	-0.1152273
64	0xbdc4e4c2	-0.096139446
65	0xbe37af60	-0.17937994
66	0xbd8ca9c4	-0.06868318
67	0x3461f738	2.1044696e-07
68	0xbd95fd19	-0.07323665
69	0xb68d5e1c	-4.2130832e-06
70	0x3e500552	0.2031453
71	0xbd03bcc0	-0.032162428
72	0xbc850609	-0.01623823
73	0xbd5b7ed9	-0.05358777
74	0x3c68f984	0.014219645
75	0xbcb07ad5	-0.021542946
76	0xbd92e0b9	-0.07171769
77	0x3e54a6bd	0.2076673
78	0xbd506c84	-0.05088474
79	0xbd011779	-0.031516526
80	0xbd459ddb	-0.048246246
81	0x3da8ce3c	0.08242461
82	0xb60378aa	-1.9590757e-06
83	0xbe1f03d4	-0.15528804
84	0x3e26e1b6	0.1629704
85	0x3a48b2c3	0.0007656032
86	0x3e1b34f7	0.15156923
87	0x3d8b2da3	0.06795814
88	0xbdaa675a	-0.08320494
89	0xbd22daf4	-0.03975959
90	0x3d16ebbf	0.03684592
91	0xbda8a7b2	-0.0823511
92	0xbd58619f	-0.052827474
93	0x3d1cc941	0.03827787
94	0xbbaf705e	-0.0053539714
95	0xbb19f20b	-0.0023490216
96	0x3a04d336	0.0005066873
97	0x3ebd9ea1	0.37035087
98	0x3e23d54e	0.15999338
99	0x3d0e71d5	0.034776527
100	0xbde8dab7	-0.113698415
101	0x3ed31572	0.412273
102	0xbd3781e6	-0.044801615
103	0xbe86b47f	-0.26309583
104	0xbd96e998	-0.07368773
105	0xbd69eb12	-0.057108946
106	0x3ed923de	0.42410177
107	0x3e0920ed	0.13391466
108	0xbba99576	-0.005175288
109	0xbd719779	-0.058982346
110	0xbd03c515	-0.032170374
111	0xbdc1245d	-0.09430764
112	0xbd7ecd3b	-0.06220744
113	0xbd640d07	-0.055676486
114	0xbd971540	-0.073771
115	0xbe1073b9	-0.14106645
116	0x3efa8240	0.48927498
117	0xbd81208b	-0.06305035
118	0xbd84cd93	-0.06484523
119	0x3610ef4b	2.159696e-06
120	0xbdc14f22	-0.094389215
121	0xbdf7a44e	-0.120918855
122	0xbe32a14f	-0.17444347
123	0x3ca2cb55	0.019872347
124	0x3ee56e31	0.44810632
125	0xbde27f24	-0.110594064
126	0xbd5c196d	-0.053735185
127	0xbd857be4	-0.06517771
128	0xbd8cdd4c	-0.068781465
129	0x3eef99b9	0.4679697
130	0x3a9b0ce9	0.0011829409
131	0xbd9ef465	-0.07761458
132	0xb63437f7	-2.6854666e-06
133	0x35a7623e	1.2471062e-06
134	0xbd96722d	-0.07345996
135	0xbd395bac	-0.04525344
136	0xbe33332d	-0.17499991
137	0xbd881a1a	-0.066456035
138	0xbd7e3686	-0.062063716
139	0x3eb53fd7	0.35400268
140	0xbd32281f	-0.043495294
141	0xbd89d54b	-0.067301355
142	0x3d31fab0	0.043451965
143	0x3efa3d43	0.48874864
144	0xbd9c712d	-0.07638774
145	0xbdd997cd	-0.10624657
146	0xbd9526f9	-0.07282824
147	0xbe881204	-0.26576245
148	0xbd3cde98	-0.04611072
149	0x3b96bf5b	0.004600448
150	0xbe009483	-0.12556653
151	0xbdb3a8ee	-0.08772455
152	0xbe6d64de	-0.23183009
153	0x3a11a3e0	0.00055557303
154	0x3c783c2e	0.015151067
155	0xbdc7377a	-0.09727378
156	0x3ae651a2	0.0017571936
157	0xbe3c0d35	-0.18364413
158	0x362e3092	2.5956292e-06
159	0x3d2f9093	0.042862486
160	0x3ebebeed	0.3725504
161	0xbe03439f	-0.12818764
162	0xbdbf1cb1	-0.09331644
163	0x3ee84ab4	0.45369494
164	0xbde24469	-0.110482045
165	0x3c308c99	0.010775709
166	0x3e7d6a8a	0.24747673
167	0xb661ec78	-3.3665256e-06
168	0x3d830fd5	0.06399504
169	0xb5b205ef	-1.326376e-06
170	0xbd350078	-0.0441899
171	0x3ecca40f	0.39968917
172	0x3ecada70	0.3961978
173	0xbd3728d0	-0.044716656
174	0xbdcb7a6d	-0.0993546
175	0xbda9a084	-0.08282569
176	0xbd0c6117	-0.03427228
177	0xbdaf5173	-0.08560457
178	0xbd50fac1	-0.051020388
179	0xbd747c5e	-0.05968892
180	0xbd5c653b	-0.05380748
181	0x3a8f671c	0.0010940763
182	0xb5db1f7f	-1.6325938e-06
183	0xbe17d7e8	-0.14828455
184	0x3e859171	0.26087525
185	0xbab714e4	-0.0013968018
186	0x3eb3ce1a	0.3511818
187	0xbd8e623a	-0.06952329
188	0xbda60bd5	-0.081077255
189	0xbd21cf9a	-0.039504625
190	0xba0b6467	-0.00053173903
191	0x3ec5ead9	0.38655737
192	0xbd20a66b	-0.03922121
193	0xbd3ec535	-0.04657479
194	0xbe307c6e	-0.17234966
195	0xbdf28c87	-0.1184321
196	0xbbf120ab	-0.0073586307
197	0xbb41590c	-0.002950254
198	0xbdd655d5	-0.1046559
199	0x3db87e9a	0.09008522
200	0x3e93f56b	0.28898177
201	0xbde642d1	-0.11243213
202	0xbd2174af	-0.03941792
203	0x3dc525cd	0.096263506
204	0xbd96cc71	-0.07363213
205	0xbd590024	-0.05297865
206	0xbd74b333	-0.05974121
207	0xbddd0478	-0.10791868
208	0x3b48e65c	0.0030654883
209	0xbd1001f9	-0.03515813
210	0xbd01472c	-0.031562015
211	0x3d24748c	0.04015021
212	0xbcd13631	-0.025538536
213	0x3eaaece2	0.33383852
214	0xbc4d474b	-0.012529205
215	0x3e5f0a61	0.21781303
216	0xbdf74029	-0.120727845
217	0xbe039a43	-0.12851815
218	0xbd31a764	-0.043372527
219	0xb662e49a	-3.3809688e-06
220	0xbd8bef60	-0.068327665
221	0x3e1d1f49	0.15343966
222	0x3e034681	0.12819864
223	0xbdfbd185	-0.12295822
224	0xbde60709	-0.112318106
225	0xbd6f91c5	-0.058488626
226	0xbd335308	-0.043780357
227	0xbd96e5eb	-0.07368072
228	0xbd80a8e0	-0.0628221
229	0xbde2180f	-0.11039745
230	0xbd3bef5a	-0.04588256
231	0xbd16faed	-0.036860395
232	0x35ec6546	1.7612845e-06
233	0x347275f7	2.2580922e-07
234	0xbd965b85	-0.07341675
235	0xbd31d740	-0.04341817
236	0x3dfec89b	0.12440606
237	0xbd8413b4	-0.064490706
238	0x3de85f57	0.1134631
239	0xbdc10ec4	-0.094266444
240	0xbd57885d	-0.05262028
241	0xbd88a8e6	-0.0667284
242	0x3d1a6b7a	0.037700154
243	0xbda4b7a2	-0.08042838
244	0x3befa94c	0.007313883
245	0x3e0f39fa	0.1398696
246	0xbd9372a2	-0.07199599
247	0x3e0cfbba	0.13767901
248	0x3c8d0780	0.01721549
249	0xbd108c49	-0.035290036
250	0x3e8ba7d5	0.27276483
251	0x3e9eec4a	0.3103965
252	0x3db149a6	0.086566254
253	0x3ea73d58	0.3266399
254	0xbca12c4e	-0.019674446
255	0x3a8386b6	0.0010034654
