complete_verifier/models/marabou_cifar10/cifar_marabou_medium.pth (torch, 665609 bytes, 8 tensors)

0.weight f4 [16, 3, 4, 4]
000000 86 12 d3 3d 86 a4 06 be f1 53 bd 3a 07 12 97 bd
       0.103062674 -0.13148698 0.0014444572 -0.07376485
000010 26 62 e3 3c 28 22 13 3e c2 b0 8a 3d 4d d0 6a bc
       0.027756762 0.14368498 0.06771995 -0.014331889
000020 22 3e ae 3d 01 64 aa 3a 1d 08 93 3d 33 db bc 3d
       0.08507945 0.0012999774 0.07179282 0.092214964
000030 5e d9 4e 3c fb cf e0 bd c4 2b 60 3d aa 24 48 bd
       0.012625067 -0.10977169 0.05472924 -0.04886309
000040 99 9b 81 ba ce b8 7a 3b a7 cf 0f be cd 91 9a bd
       -0.0009888291 0.0038257125 -0.14044057 -0.075473405
000050 5e 84 fd bc 41 a3 c9 bd 73 9b 03 be 7c 10 4f be
       -0.030946907 -0.09845591 -0.12852268 -0.20221132
000060 50 16 8c 3d e0 3b fe 3d 6f 5a e4 3d d8 b3 d0 bc
       0.06840193 0.12413764 0.11150061 -0.025476381
000070 aa 2a 5b bc 57 81 f9 3d 67 2e 98 bd 02 18 70 bd
       -0.013376871 0.12182873 -0.074307255 -0.058616646
000080 c9 80 17 3e a5 3e 04 3e 53 3d 6e 3d 18 81 c9 3c
       0.14795221 0.12914522 0.058163952 0.02459769
000090 59 ad f3 3d 01 05 31 3e 7e da 20 3e c2 49 ca bd
       0.11898298 0.17287065 0.15708348 -0.098773494
0000a0 8f 7a 32 3e 80 eb 97 bd c2 13 c3 3b ab 05 12 be
       0.17429565 -0.07417965 0.005953283 -0.14259975
0000b0 97 1b 41 3c 59 25 ad 3d ca cb dc 3d dc 04 c8 bd
       0.011786363 0.08454389 0.10781057 -0.09766552
0000c0 ed ca 95 bd 4d a4 22 bc 42 8c cc 3d 3c 67 98 3d
       -0.07314096 -0.009926868 0.099876896 0.074415654
0000d0 12 fc 51 bc 78 c0 f9 3d b0 ea 35 3d 85 bf 2d bd
       -0.012816446 0.121949136 0.04441327 -0.042418975
0000e0 3f c4 ca 3d 79 1c 1b 3e 2b 08 a9 bd dc 4e a4 3d
       0.09900712 0.1514758 -0.08253511 0.08022854
0000f0 ff 02 3a 3d 13 cf 29 3e 36 9c 08 3e 42 a2 c3 3d
       0.045413014 0.16582899 0.1334084 0.095524326
000100 66 75 5e 3d cb 74 d9 3c 1e 9f a5 3d 46 ef ca bb
       0.05431118 0.026544949 0.0808699 -0.0061930744
000110 72 c7 93 bd dd 8e 67 3d 90 46 80 bc a5 10 b8 3d
       -0.072157755 0.05653273 -0.015658647 0.0898755
000120 88 57 86 bd 9f 82 c2 bd 45 70 9e 3d 98 84 30 3d
       -0.06559664 -0.0949757 0.077362575 0.0430952
000130 a2 95 63 bd 79 ca 00 be 20 8d 07 be 14 39 5b 3d
       -0.055562623 -0.12577237 -0.13237429 0.05352123
000140 ed d8 48 bc 08 cb ed 3c 32 68 ea bd df b3 d4 3d
       -0.01225875 0.029027477 -0.11445655 0.1038587
000150 ba 66 fc bd 89 5e b6 bd 19 c7 75 bc 6d be 18 be
       -0.12324281 -0.0890475 -0.015001082 -0.14916392
000160 d8 d1 d6 bc 7f a1 8b bd af f9 aa bd 80 2c 17 3d
       -0.026223108 -0.06817912 -0.083484046 0.036907673
000170 37 40 59 be 51 c6 92 3c e8 0b 4d 3c 37 58 b9 bd
       -0.21215902 0.01791683 0.012515046 -0.09050029
000180 fd e4 08 3d fb 94 64 bd 56 60 70 bd 14 b2 05 3e
       0.033421505 -0.05580614 -0.058685623 0.13056213
000190 aa 6f e0 3d 4d bb 83 3d 7b 02 46 3d 84 f8 90 bd
       0.10958798 0.06432209 0.04834221 -0.070786506
0001a0 16 0a 28 3e 6b 07 8a bd 10 15 ee 3d 36 b9 95 bd
       0.16410097 -0.06739696 0.11625111 -0.07310717
0001b0 65 07 d5 3d a6 f2 8d bd f6 b2 4a bd 26 df ba bd
       0.10401801 -0.06931047 -0.049487077 -0.091245934
0001c0 18 b3 59 bd 20 83 0e be ff b1 ab bd a9 fd 4c be
       -0.053149313 -0.13917208 -0.083835594 -0.20018639
0001d0 72 95 b9 bc 69 5c 45 be e5 23 37 be d6 98 17 3b
       -0.022654269 -0.19273533 -0.17884786 0.0023131869
0001e0 61 67 3d be 0e 45 23 be 53 74 fc bd 77 9a 18 be
       -0.18496467 -0.15944311 -0.123268746 -0.14902674
0001f0 10 90 e0 3c fb f5 09 bd e7 f5 1c be fd 07 1e bd
       0.027412444 -0.03368185 -0.1532818 -0.038581837
000200 d8 30 50 3d b6 c3 38 3d 35 71 0c 3e 61 be bb 3d
       0.05082783 0.04510852 0.1371506 0.09167171
000210 52 2a df 3d 75 4e d8 3d 21 1c 20 3e 0a 14 85 3d
       0.10896744 0.105618395 0.1563573 0.06497963
000220 23 d6 8d bd ac 40 df ba 9a 60 9e 3d dc 79 33 3e
       -0.06925609 -0.0017032824 0.07733269 0.17526954
000230 0b 35 21 3d c7 7d 96 3d ed da 7a 3e 3e 07 00 3e
       0.039357226 0.07348209 0.24497576 0.12502763
000240 8f fc 40 be d3 e4 1e 3b e1 78 e1 3d ce 89 1a bb
       -0.18846343 0.0024245277 0.11009384 -0.0023580673
000250 fb 9e 05 be ce 35 82 be 8f 06 93 bd 52 39 07 bd
       -0.13048927 -0.25431675 -0.07178985 -0.03301365
000260 7f a3 d9 bd ca 9c 11 bd b6 28 db bd 52 53 18 3d
       -0.106268875 -0.035549916 -0.10701124 0.037188835
000270 2d b4 22 be bc 74 98 bd 4b 5a 29 bd 47 37 5f 3d
       -0.15889044 -0.0744414 -0.041345876 0.054496076
000280 45 af 8f bd af 0e be 3d 81 c1 d0 bd 1a 7d c4 3d
       -0.07015852 0.092801444 -0.10193158 0.09594174
000290 cf e3 c4 bc 20 92 dc bc 2c b5 e4 3d 9d 54 9d 3d
       -0.024034409 -0.026925147 0.11167368 0.07682154
0002a0 2e 07 e6 bd 8d 2e 1b bc 34 89 91 3c 62 d8 be 3d
       -0.11231838 -0.009471548 0.017765619 0.093186155
0002b0 78 2b 01 be 16 86 fb bd d2 21 22 bc 30 5d f3 bc
       -0.12614238 -0.12281434 -0.009895759 -0.029707521
0002c0 0e 44 61 3e e9 1e 37 3e 54 88 b2 3d 6a 82 54 bd
       0.21998617 0.17882885 0.08717409 -0.051882185
0002d0 23 0e 93 3d f3 33 5d 3e 0b bd 8e 3d b3 51 8b bc
       0.07180431 0.21601848 0.06969651 -0.01700673
0002e0 4d 9d 04 3e ca 8e 54 3e c6 0f f0 ba 20 3f b7 3d
       0.1295063 0.20757595 -0.0018315248 0.08947587
0002f0 54 b8 c7 3d 68 31 e8 3c 7a c3 8a 3d 6c 04 df bd
       0.09751955 0.028343871 0.067755654 -0.10889515
000300 17 19 54 bd f7 bf f1 bd 14 c0 e2 bd f4 b5 5f bd
       -0.05178174 -0.118041925 -0.11071792 -0.054616883
000310 6c 7e 26 3c 67 d5 29 be f1 7f ca bd d0 35 f8 bd
       0.010161977 -0.16585313 -0.09887684 -0.12119639
000320 44 6d cb bd 60 d0 64 3e c4 15 21 3d 5b 3e 9f 3e
       -0.0993295 0.22345114 0.039327398 0.3110226
000330 38 8a c5 3d 93 45 2a 3d 5d 08 23 bd 91 36 2b 3e
       0.09645504 0.041570257 -0.039802898 0.16720034
000340 ff 68 d2 3d 65 60 6a 3d cf 89 2c be 84 15 ca bd
       0.10273933 0.057220835 -0.16849445 -0.09867385
000350 1b 19 6a be 75 a8 83 bc dc 75 c9 bd c7 aa e0 bd
       -0.2286114 -0.016071538 -0.09836933 -0.10970073
000360 12 fd fb bc 2a 19 65 3c 06 a5 ff 3c 98 3d 5d 3d
       -0.030760322 0.01398305 0.031206619 0.05401382
000370 c1 8b d6 3d 27 f6 ba 3d a3 24 04 3e 88 a1 16 3e
       0.10475875 0.09128981 0.12904601 0.14710057
000380 85 e8 4a 3e af 0a d1 bd 27 d5 a8 3d da cf 67 3d
       0.19815262 -0.10207116 0.082437806 0.056594707
000390 8b 78 63 be b3 5b b1 bc 19 73 40 be 5e 27 00 bd
       -0.22213952 -0.02165017 -0.18793906 -0.031287543
0003a0 58 87 4a be 4f 2b 92 bd 34 4d 0c 3d b3 d8 26 3e
       -0.19778192 -0.07137167 0.034253314 0.16293602
0003b0 8d 98 1e 3e 39 5c d8 3c 44 bc 06 3e c6 e7 2d bd
       0.15487881 0.026411163 0.13157755 -0.042457364
0003c0 8c e4 31 be 89 f7 d1 3c 59 7c 3f 3e 27 ce 46 3e
       -0.1737234 0.02563073 0.18699779 0.19414578
0003d0 0c 15 18 be c2 ee 19 3e 6d 0e 11 3e 5e b1 9c 3e
       -0.14851779 0.15032485 0.14165659 0.3060407
0003e0 1e 7a 04 be b2 41 01 bc ca 0f 73 3e d9 01 41 3e
       -0.12937209 -0.007889198 0.23736492 0.18848361
0003f0 cb 7e 11 be 1f b2 2c be 00 11 ea bc fa 9c 04 be
       -0.14208524 -0.16864823 -0.02857256 -0.12950507

0.bias f4 [16]
000000 91 8e a0 be aa c1 c8 39 90 0d 9c 3d 74 e8 1b bd
       -0.3135877 0.00038291264 0.07619774 -0.03806348
000010 ee a3 6d bd 9c 9c e3 3b f8 7e ba b9 44 dc a6 bb
       -0.058017664 0.0069461595 -0.00035571284 -0.0050921757
000020 db 64 a7 bc ff 05 86 3d 64 55 b6 bc b8 59 92 ba
       -0.020433834 0.065441124 -0.022257514 -0.0011165654
000030 1f ba be bc 96 c9 04 3c 23 44 66 3c bb 92 18 be
       -0.023282109 0.008104702 0.014054331 -0.14899723

2.weight f4 [32, 16, 4, 4]
000000 95 5e 9a 3d 35 4f 22 3e cf 75 68 3d 54 b8 9f 3d
       0.07537571 0.15850528 0.056752976 0.0779883
000010 0c b5 85 3d 14 ce e6 3d fa 24 7a 3c b5 b0 2e 3d
       0.065286726 0.11269775 0.015267605 0.04264899
000020 ba 41 70 bd 2c 0f 45 bd 86 7c df bb 35 0a 09 bc
       -0.05865643 -0.048110172 -0.0068202643 -0.00836425
000030 17 97 3a be 68 6c 57 be 55 ff 01 be 9d 34 95 bd
       -0.18221699 -0.21037447 -0.12695058 -0.07285426
000040 93 1d a3 bd 8e be d4 bd 73 cf b4 bd 01 71 f4 bd
       -0.07964625 -0.10387908 -0.0882863 -0.11935616
000050 1b e6 91 bc c8 aa 91 3c f0 1a 55 3d ac 81 a7 3d
       -0.017809918 0.01778163 0.052027643 0.0817903
000060 ec 34 8b 3d bf 00 bf 3d cd 6a b2 3d 74 72 b1 3d
       0.067972034 0.09326314 0.08711777 0.08664408
000070 19 2b 7f 3c ee 36 07 3d fa a7 e4 3a e7 15 a2 bc
       0.01557424 0.03301137 0.001744508 -0.019785834
000080 b2 d3 97 3d 33 ab 49 3d d0 4f 49 3d 16 24 c2 3d
       0.074134246 0.049235534 0.04914838 0.09479539
000090 c3 7d 94 bd a5 11 2d bd c0 d5 7d 3d fe ad f2 bb
       -0.0725055 -0.042253155 0.061971426 -0.0074059954
0000a0 89 01 88 bd 56 e7 e7 39 1d 0a ba 3c 61 cd ee bc
       -0.06640918 0.00044232112 0.0227099 -0.029150667
0000b0 92 34 15 be cb 6f c3 bd 3b de d2 bd 84 fa 5b be
       -0.14570835 -0.09542807 -0.10296293 -0.21482283
0000c0 a4 8f 2e 3e 37 cc 80 3d f9 4c e4 3d 5d 54 37 3e
       0.17046982 0.06288951 0.11147494 0.17903276
0000d0 3c cd 10 3e 16 c3 ad 3d 84 3e b9 3d 90 25 ff 3d
       0.1414079 0.08484475 0.09045127 0.12458336
0000e0 63 96 96 bc 83 a2 89 bc eb ba a9 bd 6e 84 80 bd
       -0.018382257 -0.016801124 -0.08287605 -0.06275259
0000f0 81 ee 0e be fc ec 15 be 95 02 4f be b0 9b 2b be
       -0.1395817 -0.14641184 -0.20215829 -0.16758609
000100 60 21 0e 3e c2 4b cf 3d 69 f7 36 3c 5c 4d 2a 3e
       0.13879919 0.101218715 0.011167386 0.16631073
000110 5f aa 12 3e f9 e3 ca 3d a6 28 2e 3e c3 27 0e 3e
       0.14322804 0.099067636 0.17007694 0.13882355
000120 e0 ce c5 be 36 dc c9 be b1 ea 0d bf 43 15 be be
       -0.38634396 -0.3942582 -0.55436236 -0.37125596
000130 c9 a5 10 bf 50 be 0e bf af cc 45 bf c2 6d ce be
       -0.5650297 -0.55759144 -0.7726545 -0.40318114
000140 4f 36 34 be c5 d8 7f 3b 3d 67 92 bc d7 ea 96 bd
       -0.17598842 0.0039039117 -0.017871493 -0.07369011
000150 5e 64 d8 bd ae 14 5a 3d f6 56 22 bb cc 95 02 3c
       -0.105660185 0.053242378 -0.002477107 0.007970285
000160 1f f3 0d bd 58 c1 5d b9 78 63 eb bd c6 80 2e 3c
       -0.034655686 -0.00021148229 -0.114935815 0.010650819
000170 4d 41 b9 3c ff 2f 00 3e 58 b3 b1 bd 7b 75 b9 3c
       0.022614146 0.12518309 -0.08676785 0.022639027
000180 73 b1 2b bc 3d f8 3f 3c 6f e4 84 bc 2a 61 54 bd
       -0.010479319 0.011716899 -0.016222207 -0.051850475
000190 37 f2 2c 3d ec 08 28 3d b6 db f7 3c 3c 32 1a 3d
       0.04222318 0.041024134 0.030256134 0.037645563
0001a0 e1 88 4a 3d 80 d4 f8 3c af 16 6a 3d ef 3c 47 3d
       0.049446944 0.030374765 0.05715054 0.048642095
0001b0 c3 d3 90 bc d9 e3 af bc 5d 25 da 3c 29 1b 1f bb
       -0.0176791 -0.02147095 0.026629144 -0.0024277663
0001c0 c2 de 86 3c b2 20 51 3d e9 49 75 3b f6 ae dd 3d
       0.016463641 0.05105657 0.0037428087 0.10824387
0001d0 c6 81 6e bd 34 90 65 bd 61 cd 2a bd 63 79 21 bd
       -0.05822923 -0.056045726 -0.04169977 -0.039422404
0001e0 e7 3e 4b bd a6 df 99 bd f9 13 84 bd cf a9 8e bd
       -0.049620535 -0.07513361 -0.06449122 -0.06965982
0001f0 7a 0f a4 3d 84 20 b3 bb 8b f1 03 bd 37 71 8a bc
       0.080107644 -0.0054665226 -0.032212775 -0.016899688
000200 34 1e 0a 3d 9b 5c 26 bd da f2 35 bd a8 4c 8c 3d
       0.03372021 -0.04061566 -0.044421054 0.068505585
000210 d8 bb e6 3d ac 68 c2 3d 05 9d 03 bd 80 b2 06 bd
       0.11266297 0.09492621 -0.032132167 -0.032885075
000220 2b e7 66 bb 64 81 2c bd 9e ed b0 bd 96 96 49 bd
       -0.0035233002 -0.042115584 -0.08639072 -0.049215876
000230 43 cd c2 bc 73 bd 8b 3c c7 6d 66 bd fb 11 f1 3c
       -0.023779517 0.01705811 -0.056257036 0.029427519
000240 f6 9e f4 bd 51 86 5b bd 7d 08 71 bd 33 6c 89 bd
       -0.11944382 -0.05359489 -0.058845986 -0.067100905
000250 d1 6e 5c bc d9 ce 5c 3d 7d 57 10 bc 18 f0 29 3a
       -0.013454155 0.053908203 -0.008809921 0.0006482615
000260 27 a8 f9 3c 90 d3 33 3d d4 23 2e 3d c0 4a 60 3c
       0.03047569 0.043902934 0.042514637 0.013689697
000270 79 fd 7d bc 4c e0 50 3d e1 0d cf 3b 83 0e 8a 3d
       -0.015502327 0.050995156 0.006318793 0.06741049
000280 e3 6a 06 bd f3 b7 94 3d fa b0 31 be 21 c6 43 bd
       -0.03281678 0.07261648 -0.17352667 -0.047796372
000290 3f 55 b5 3d ef 7c 91 3d 9f f3 8b ba 6b b6 a5 bd
       0.0885415 0.07103907 -0.0010677463 -0.08091434
0002a0 b4 19 4c 3d 06 84 df 3d df 96 8b 3d 6c d0 43 3d
       0.0498292 0.10913853 0.06815886 0.04780619
0002b0 a2 e7 b9 3c fb fe cb 3d 7a ba 20 3e 72 fb b4 3d
       0.022693459 0.09960743 0.15696135 0.08837022
0002c0 99 47 c6 bc ba 29 0e bd 5a a4 43 bd e0 78 47 3c
       -0.024204062 -0.034707762 -0.04776416 0.012174815
0002d0 1c d3 56 3d 94 82 cc bc aa 48 8a 3d b5 79 88 bc
       0.052447423 -0.024964608 0.06752141 -0.016659597
0002e0 a9 fc 83 3d 11 83 99 3c 49 5d 42 3d 09 9d 0f bb
       0.064446755 0.018739255 0.047452245 -0.0021913669
0002f0 af a9 ce bd ed e8 46 bd eb c4 bb 3d 1b 92 dd 3d
       -0.10090958 -0.04856198 0.091684185 0.10818883
000300 4b e4 cc 3d 3f 0e 84 3d da 49 af 3c 32 97 39 3e
       0.10004481 0.0644803 0.02139752 0.18124083
000310 8d ec dc bc a7 1f 57 3d ae 64 94 bc fc 4c 53 bc
       -0.026968265 0.05252042 -0.018114414 -0.0128967725
000320 fc c0 1a be 38 b8 85 be b3 d2 4e be c8 23 97 be
       -0.1511268 -0.2611711 -0.20197563 -0.29519486
000330 ea 6c 4f be 27 b3 3e be ba 00 58 be a4 41 a5 be
       -0.20256391 -0.18623029 -0.21094027 -0.32276642
000340 7e 12 e5 3d 83 b3 af 3d b0 75 a9 3d 2e 83 92 3d
       0.11185168 0.08579161 0.082744 0.07153927
000350 ae 4d b9 3c 55 f9 b1 bc 0e f1 a9 3d 97 27 36 3d
       0.022620048 -0.021725336 0.08297931 0.04447135
000360 72 5b a4 be 8d 3f d5 be 0d e9 b5 be bb 02 7a be
       -0.32101017 -0.41650048 -0.35529366 -0.24415104
000370 fa bb ab be 6d 82 20 bf 4f 64 06 bf 9e e0 11 bf
       -0.33541852 -0.62699014 -0.5249681 -0.56983364
000380 da c8 0d be 81 2b 1b be 98 ef 37 be cf 49 35 be
       -0.1384615 -0.15153314 -0.17962492 -0.17703937
000390 14 e6 6f b9 16 05 64 3d 72 27 3b 3c cf e7 16 3d
       -0.00022878527 0.055668913 0.011422979 0.036842164
0003a0 79 02 57 3d 81 0c b7 3d 4f 39 b6 3d 96 94 e0 3d
       0.052492592 0.08937932 0.088976495 0.109658405
0003b0 fb e7 e4 3c 78 8b af 3d b1 5c 45 3d 92 39 a0 bc
       0.027942648 0.085715234 0.0481841 -0.019558702
0003c0 6e 2c 49 3e de 20 1d 3e 17 d6 55 3e a0 f0 76 3e
       0.19645855 0.15344569 0.2088245 0.24115229
0003d0 7c c5 cf 3d a5 76 4d 3d 76 15 b4 3d b3 fb c2 3d
       0.10145089 0.050161976 0.08793156 0.09520664
0003e0 5f 0c 73 bd 89 1f e6 bd af 1e 9c bd 38 f5 97 bd
       -0.05933797 -0.112364836 -0.0762304 -0.07419819
0003f0 8b 07 63 be 51 26 81 be 0a 8e 5c be 1c e0 86 be
       -0.22170846 -0.25224546 -0.21538559 -0.26342857

2.bias f4 [32]
000000 ad 31 48 3b 41 6d fa 3c 79 f3 8b 3e 15 bf 52 3c
       0.0030547187 0.030569674 0.27334192 0.01286294
000010 df ab 07 3e 80 6e c9 3d b4 31 0a 3e db 3b 04 3e
       0.13249157 0.09835529 0.13495523 0.12913458
000020 87 e8 54 3d a1 57 3d bd 03 a0 b8 bd 99 91 00 3e
       0.051979568 -0.046226148 -0.09014895 0.12555541
000030 a6 a4 93 3d 36 c5 0a 3d 5e 86 d2 bd a3 56 9e 3d
       0.072091386 0.03387948 -0.10279535 0.077313684
000040 c5 b0 aa 3d bb 79 85 3d 08 7e 67 3d 78 68 63 3d
       0.08334497 0.06517359 0.056516677 0.05551955
000050 7a a5 24 bc bd 51 44 bd c6 da 58 3b 3e 0a e9 3d
       -0.010049218 -0.047929514 0.0033089384 0.11378907
000060 5a 86 22 3d cb 91 50 3e 6c 35 db 3d fa ee a3 bd
       0.03967891 0.20368116 0.10703549 -0.080045655
000070 d4 8f 55 3d 2d bf 0d 3d d0 81 62 bd 76 9e 1b bd
       0.05213912 0.034606148 -0.05529958 -0.037992917

5.weight f4 [128, 1152]
000000 96 60 00 3d c2 02 8f bc a1 dd 0a 3d 54 ca 44 bd
       0.03134211 -0.01745737 0.033902768 -0.048044518
000010 28 c0 a3 3d 41 64 e4 3d b6 4e 74 3b 47 bb 9d bd
       0.07995635 0.111519344 0.003727836 -0.07701736
000020 82 b1 45 bc 78 7b 99 bb 7e 96 a0 3c 97 e7 89 bd
       -0.012066247 -0.004683908 0.01960301 -0.067336254
000030 71 67 f0 3c 3e 1b 36 bc 2d a6 1d 3c e8 3c d1 3d
       0.0293462 -0.0111148935 0.009622139 0.10216695
000040 3f 5b e2 3d e8 cf b5 3c c3 14 b1 bd 20 1d 08 bd
       0.1105256 0.022193864 -0.08646538 -0.0332309
000050 00 be 85 3d de 86 63 3d a7 96 8b 3c 92 b7 97 bd
       0.0653038 0.05554854 0.01703961 -0.0740806
000060 94 a4 88 bd 9e 6e 8b bc 94 a5 8b bd 17 3a 0a bd
       -0.06672016 -0.01702052 -0.06818691 -0.033746805
000070 09 8d e2 bb c6 92 66 bd 06 d7 23 be e7 c0 be bd
       -0.0069137854 -0.056292318 -0.15999994 -0.09314137
000080 a0 b4 d8 3c 4d 0a 1c bd 64 23 b0 bc dc ab 5c 3b
       0.026453316 -0.03809576 -0.02150125 0.0033671772
000090 e0 f9 8a bd 99 ff 89 3c 66 19 2e 3d 55 5e a0 bd
       -0.06785941 0.016845511 0.04250469 -0.078304924
0000a0 13 f1 a2 bd 59 fb fe bd ec d6 f2 bc 7f 8f 40 bb
       -0.079561375 -0.124502845 -0.029643498 -0.0029382405
0000b0 40 47 88 3d 2b dc e0 bc 7b c7 a1 3a 49 a1 0f bd
       0.06654215 -0.027448734 0.0012342775 -0.035065923
0000c0 6f 7e f1 bd 4d 9b 64 bd 6a f7 59 bd f6 33 8b bc
       -0.117916934 -0.05581217 -0.053214468 -0.01699255
0000d0 27 79 c0 3d 42 05 9e 3c c6 1f 35 be 7c 16 8c be
       0.09398108 0.019289616 -0.17687902 -0.27360904
0000e0 1a bb 12 be 39 af 90 3d 93 bd 4a 3c f4 25 26 3e
       -0.14329186 0.07064671 0.0123743 0.16225415
0000f0 33 98 00 bd ce 88 16 be ac c4 81 bd e8 4b 48 3e
       -0.03139515 -0.14700624 -0.0633634 0.19560206
000100 ba e2 81 bc 53 91 f0 3d b3 f0 0f 3d 5a 30 77 3a
       -0.015855182 0.117464684 0.035141658 0.0009429507
000110 cd a6 36 3d c8 0a d2 3d 63 c6 b0 3c ae 94 10 3e
       0.044592667 0.102559626 0.021578973 0.14119217
000120 0b 9d ee bd 12 71 e9 bd af e3 bc 3d 7a 33 66 bd
       -0.11651047 -0.113985196 0.09223115 -0.056201436
000130 45 29 d6 bd eb 86 74 bd 64 2d 89 be 6e 21 26 be
       -0.1045709 -0.05969898 -0.26792443 -0.1622369
000140 89 51 b5 bd 5f 03 7c bd 2c 3e 24 bd 92 81 2c be
       -0.08853442 -0.061526652 -0.040098354 -0.16846302
000150 71 03 17 be fb 7e 67 bd 6a be 89 bd 78 75 87 3d
       -0.14747407 -0.056517582 -0.06725772 0.06614202
000160 b2 07 1f be 66 24 bc bd 8e ce d3 3d 98 66 04 be
       -0.1553028 -0.0918663 0.103421316 -0.12929761
000170 61 a4 a7 be 8c 48 85 be 32 2a 97 bd af 38 21 3c
       -0.327426 -0.2603191 -0.07381095 0.009840175
000180 37 0f 22 3d c8 98 f9 bb df ce 89 be c2 69 1c be
       0.03956529 -0.00761709 -0.26915643 -0.15274718
000190 18 77 06 3b e2 38 a3 bd 77 40 3e 3d 48 67 11 3e
       0.0020517763 -0.07969834 0.046448197 0.14199555
0001a0 37 43 1f bd ae b3 75 3d ea f0 e3 3d 34 2d b7 3d
       -0.03888246 0.05998581 0.11129935 0.08944169
0001b0 5c f9 8d bd f6 15 99 bd 97 3d 15 be 40 bb 33 bc
       -0.06932327 -0.07474892 -0.14574276 -0.010969937
0001c0 a2 60 9f bd f8 e5 bd bc 54 04 26 bd fe 77 fa 3d
       -0.07782103 -0.023180947 -0.04053147 0.12229918
0001d0 27 3c b8 3c 26 fd c4 3c 91 a3 a7 3d 50 fa b0 bc
       0.02248962 0.024046492 0.08185495 -0.021603733
0001e0 9e 91 a5 3d dc 51 31 3d ff e9 a1 3d 82 e0 ab bd
       0.08084415 0.043290958 0.07905959 -0.08392431
0001f0 61 f0 c4 3d f2 d7 d9 bc 9c 79 be 3c a1 41 87 bd
       0.09616161 -0.026592229 0.023251347 -0.066043146
000200 11 c6 d7 bd 39 85 00 be 73 5d 25 3e d9 19 89 bc
       -0.10535825 -0.1255082 0.1614893 -0.016735958
000210 8d ed 72 3d 49 89 9b bd 38 b5 a6 bd e2 3d 6e be
       0.059308577 -0.075945444 -0.081400335 -0.23265794
000220 24 00 1b be 31 b0 7f bc c9 5d 51 3c 96 81 cf 3c
       -0.15136772 -0.015605972 0.012778708 0.025330346
000230 69 73 51 bc d0 e5 06 be 34 70 1f be 03 62 ba bc
       -0.012783864 -0.13173604 -0.15570146 -0.022751814
000240 2c 43 16 bc 33 48 9c bd 17 f5 19 3d f5 42 04 3e
       -0.009171288 -0.076309584 0.03758725 0.12916167
000250 3b e1 99 bd ae 50 e7 bd 4a ea 33 bd e3 e4 e8 bd
       -0.075136624 -0.11294685 -0.043924607 -0.11371782
000260 c6 bf 1c 3d 62 82 08 bd 44 2c 89 bd 2f 0e ad bd
       0.038268827 -0.033327468 -0.06697896 -0.08449971
000270 e8 8e 03 3d 1c 36 09 be be df f2 3c 12 20 74 3d
       0.032118708 -0.13399547 0.029647704 0.059600897
000280 1a 67 a6 be ea e5 92 be 6a 84 b9 bd 65 d4 80 be
       -0.32500535 -0.28691036 -0.09058459 -0.25162044
000290 22 de 61 bd 69 8f 75 3a 7f 25 31 be 56 31 e1 bc
       -0.055143483 0.0009367378 -0.1729946 -0.027489346
0002a0 b6 7d 0f 3e 96 85 d9 3d 2b 2b 43 3e e9 0a 25 3e
       0.14012799 0.106211826 0.19059436 0.16117443
0002b0 fe d9 9f 3d 78 72 04 be 33 ee 28 3e 77 4c 1f 3d
       0.078052506 -0.12934291 0.16497116 0.038891282
0002c0 16 61 9c 3d b7 71 ad 3d 97 80 d7 3d 84 dd e1 bd
       0.07635705 0.08468955 0.105225734 -0.11028579
0002d0 84 14 bc ba 5c e6 37 be 9e 07 05 be 26 0e 30 be
       -0.0014349376 -0.17958969 -0.12991187 -0.17192897
0002e0 dd 45 9e 3c f4 57 76 3d 8a 1c 15 be 1a 35 ef bd
       0.019320423 0.060142472 -0.14561668 -0.1168005
0002f0 6a 6c 1d 3c db 23 e7 bd e6 e9 61 3d 7c 89 a6 3d
       0.009608367 -0.11286136 0.055154704 0.08131692
000300 91 bb 85 bd 9e 00 65 be bf d0 ea bd 4c 52 15 bc
       -0.06529916 -0.22363517 -0.114655964 -0.009113859
000310 3c 80 3d 3c b8 33 a9 3d ea 09 bd bd 27 63 df bb
       0.011566218 0.08261818 -0.092304066 -0.00681724
000320 f8 9d e4 3d 91 c4 4b 3d 98 90 8e bc a6 85 91 3d
       0.11162943 0.049748007 -0.017402932 0.071055695
000330 d9 e5 92 bd 32 92 64 3d c9 ec 9d 3d 6d 74 9f 3d
       -0.07172746 0.055803485 0.07711179 0.07785878
000340 f2 62 95 3c 27 df 9a 3c de 0e e7 3d 2a 19 db 3d
       0.018235657 0.018905235 0.112821326 0.10698159
000350 00 4f 5d 39 53 c1 30 3d 51 ef c5 3d 44 23 32 3e
       0.00021105632 0.04315312 0.096647866 0.17396265
000360 4a 05 7d 3b 20 5c 0c 3d 91 1c f6 3c 28 1c aa bc
       0.003860789 0.034267545 0.030042918 -0.02076538
000370 68 f4 9d bd ab 23 de 3b 7b cb 66 3d aa 60 d5 ba
       -0.077126324 0.0067791543 0.056346398 -0.0016279418
000380 b7 87 33 3d 2b 87 5f 3d db 06 c8 ba 5b 99 c9 bc
       0.0438306 0.054572266 -0.0015260832 -0.024609258
000390 bf d2 94 3c 40 0b 44 3d 27 37 70 3d ab ae 15 3d
       0.018166898 0.04786229 0.058646347 0.03654353
0003a0 37 9a 00 3e 32 12 e1 3d 13 49 08 3d 08 45 ce 3d
       0.12558828 0.109897986 0.033272814 0.100717604
0003b0 a0 cb 41 3d 5e 0e 4a 3d ad c6 52 3d 89 a1 d6 3d
       0.047313333 0.049330108 0.051459003 0.10480029
0003c0 17 80 f4 3d ad 81 27 bd 87 42 81 bd 11 8a 86 bd
       0.11938494 -0.040895153 -0.06311517 -0.06569303
0003d0 66 18 7e 3d cb b9 ca 3d 09 96 b2 3d 78 74 a9 3d
       0.062034987 0.098987184 0.08720023 0.08274168
0003e0 77 b9 4c bd fc d4 02 bd 94 ae dc 3d 2f c6 08 3e
       -0.04998156 -0.0319414 0.10775486 0.13356851
0003f0 bb a2 ce 3d da d4 1b be e2 f6 d5 bd 9e 10 ec 3c
       0.10089632 -0.15217915 -0.1044748 0.028816517

5.bias f4 [128]
000000 43 73 37 3d f9 3d 29 3e 5d 15 34 3e 58 4b f6 3d
       0.044787657 0.16527547 0.17586274 0.120260894
000010 ce 74 d1 bd 8d 12 0c be 02 cf 5b be 3e c7 07 3e
       -0.10227357 -0.13678952 -0.21465686 0.13259599
000020 c2 9e b5 3e 68 19 1a bc 42 b7 6f 3d 88 1b a3 3e
       0.35472685 -0.009405471 0.058524378 0.31856942
000030 b0 ea f7 bd 4a ea 16 3e 11 ed af 3e e6 d0 c4 3c
       -0.1210531 0.14737812 0.34360555 0.024025392
000040 ac dc c2 bd 13 3e ee 3e ab ac 7c 3e 26 50 91 bd
       -0.09514746 0.46531734 0.24675243 -0.07095365
000050 59 39 80 3e c8 9d 37 3e 27 e6 02 3e 6c 62 b5 3e
       0.25043753 0.17931283 0.12783109 0.35426652
000060 f3 45 5c 3e 8a 5d 98 bd 04 45 6e bd 98 67 d8 bd
       0.21511059 -0.07439716 -0.058171287 -0.10566634
000070 66 40 8c 3e ae 73 79 3e fc ff d3 3c 0d d0 38 bd
       0.27392882 0.24360535 0.025878899 -0.045120288
000080 cd f5 92 3e 25 cb a3 3e 66 8f a2 3e f4 b1 84 bb
       0.28703156 0.31990924 0.3175003 -0.004049534
000090 88 74 13 3e 74 32 0d be eb 3f bd 3e fb 81 a2 bd
       0.14399922 -0.13788778 0.36962828 -0.07934948
0000a0 53 ec 14 3e 3e e6 9d 3d 18 e6 a4 3e 39 55 96 bd
       0.14543276 0.07709931 0.32206798 -0.07340474
0000b0 08 95 b0 3e e6 a1 b4 3b 3a 52 a4 3e a3 e3 a4 3e
       0.34488702 0.005512464 0.32093984 0.32204923
0000c0 d0 5e 9a 3d f1 6b 98 3e 9b 6a 95 3e 33 44 df 3b
       0.07537615 0.29769853 0.29182896 0.00681355
0000d0 c2 93 ce bc aa 2a 16 3b 42 4d 7a bc 72 74 b5 bd
       -0.02521694 0.0022913613 -0.015277209 -0.08860101
0000e0 b3 57 3c 3e b8 6f 04 bd 92 5b 63 be f2 f6 0f bd
       0.1839283 -0.032333106 -0.222029 -0.035147615
0000f0 a8 be 92 bd bb 54 fc 3c 79 75 37 be 4b 2f 3c 3e
       -0.07165271 0.030802121 -0.17915906 0.18377416
000100 88 4c a4 bc 48 e6 c4 bc 53 54 c4 3e 32 c8 b5 3e
       -0.020056024 -0.024035588 0.38345584 0.355043
000110 c9 ac 74 be e2 3a 82 3e d0 10 56 3d 3b 48 de 3b
       -0.23894037 0.2543555 0.052262127 0.006783513
000120 66 c5 96 bd 0a bb 3f 3e 81 ab 29 bb 9f 23 16 bd
       -0.073618695 0.18723693 -0.0025889578 -0.036655065
000130 4b 47 73 be 53 ff 34 3e 57 eb a4 3e 23 68 e1 3d
       -0.23757665 0.17675523 0.322108 0.11006191
000140 e4 d3 ec 3c 35 25 c0 3d 26 be aa bd ed a1 14 3e
       0.028909631 0.09382097 -0.08337049 0.14514895
000150 32 cc 0a 3e b9 21 88 3e 7f b7 37 be b0 fa ef 3d
       0.13554457 0.26588228 -0.17941092 0.11717737
000160 cc 76 9e 3e 58 fd 33 bc 48 b2 18 3f a3 49 a9 bd
       0.3095001 -0.010985695 0.59647036 -0.08265998
000170 46 30 c8 bb 9b 43 f1 3e a4 30 81 3e f8 8c 28 3d
       -0.0061092703 0.4712189 0.25232422 0.041150063
000180 73 c8 e8 3e 6a e6 87 bc b9 b3 56 3c 11 4d 8c 3e
       0.4546543 -0.016589362 0.013104373 0.27402547
000190 3f 06 3c 3e c9 5b bc 3d 7d 42 b4 3d d4 90 9b bc
       0.18361758 0.09197194 0.08801744 -0.018989958
0001a0 ba 7c 48 39 1d 05 76 3d 04 f9 2b 3e b5 0d ec bb
       0.0001911995 0.06006347 0.1679421 -0.0072037824
0001b0 11 44 15 3f 86 e0 b5 3e 28 86 03 3e a9 2e c0 bd
       0.58306986 0.3552286 0.12844145 -0.093839
0001c0 c4 19 1d be bd 9c 64 be e1 a2 81 bc 60 f0 af 3e
       -0.1534186 -0.22325416 -0.015824737 0.3436308
0001d0 bf a3 79 3e af e9 1c 3e f0 78 29 bd a8 d4 80 3e
       0.2437887 0.15323518 -0.0413751 0.25162244
0001e0 65 c8 b6 3e 7c 7f a3 3e 1c ab a4 3d ef 0e d6 bc
       0.35699764 0.319332 0.08040449 -0.026130168
0001f0 af bd c1 3c 5f 45 40 be 72 87 3b 3e f2 0e b8 be
       0.023650018 -0.18776463 0.18313387 -0.35948902

7.bias f4 [64]
000000 11 63 87 3e 0c 9c 07 3f 7e e2 db 3e 1c c7 10 3f
       0.2644277 0.52972484 0.42946237 0.56553817
000010 88 08 31 3e 8b 20 a2 3e 19 1b ee 3e 9c 8b 9d 3e
       0.1728841 0.31665453 0.4650505 0.30770576
000020 eb 08 14 3f 2c 99 a5 3e ee 4b 9c 3e de 0b a5 3e
       0.5782611 0.32343423 0.3052668 0.32235616
000030 a3 c5 c6 3e 8f 34 a6 3e fd 14 b1 3e 15 72 b1 3e
       0.3882266 0.32461974 0.34586325 0.3465735
000040 06 af 46 3e d9 68 14 3f 72 28 c5 3e a5 4e 9b 3e
       0.19402704 0.57972485 0.3850742 0.3033344
000050 2d fa 94 3e 92 ef 79 3e 62 52 d3 3e 73 3a 83 3e
       0.2909712 0.24407795 0.4127379 0.2563053
000060 ce b1 22 3e 86 80 b3 3e 6a e5 bb 3e 71 63 e9 3e
       0.1588814 0.35058993 0.36698467 0.4558368
000070 42 90 01 3e 20 58 0c 3f a4 a2 ed 3e e1 dd cc 3e
       0.12652686 0.5482197 0.46413147 0.4001303
000080 d1 0f e4 3e b0 6b 06 3f 94 ca 86 3e cd 34 b5 3e
       0.44543317 0.5250807 0.2632643 0.35391846
000090 6f be e9 3e 36 61 2a 3e 2c f3 d3 3e 38 f9 d0 3e
       0.45653102 0.16638646 0.41396463 0.4081514
0000a0 2e d7 e2 3e 13 d6 cb 3e a4 a2 a6 3e c4 f1 2a 3e
       0.44304794 0.39811763 0.3254596 0.16693789
0000b0 29 81 37 3e 35 ba e5 3e b8 68 82 3e df 4a 1f 3f
       0.17920364 0.44868627 0.2547052 0.6222362
0000c0 1e 84 88 3e e5 94 e9 3e 06 73 98 3e 97 04 c2 3e
       0.26663297 0.4562141 0.29775256 0.37894127
0000d0 aa b1 f4 3e c3 e1 eb 3e c0 20 c1 3e c8 5c 70 3e
       0.47791797 0.4607068 0.377203 0.23472893
0000e0 cc 2b 97 3e 83 a2 03 3f 78 63 90 3e e7 e9 92 3e
       0.29525602 0.5141985 0.2820089 0.28694078
0000f0 5c b9 bb 3e bc e2 9d bc d1 7f 90 3e 82 e4 07 3f
       0.36664855 -0.019273154 0.28222516 0.5308305

9.bias f4 [10]
000000 b7 2f ab bd 54 3f f2 bd 70 ad 95 bd 68 f9 19 3e
       -0.0835871 -0.11828485 -0.07308471 0.15036547
000010 f4 b7 ae 3d 65 df cd bd a2 db 90 3d b6 17 38 bd
       0.0853118 -0.10052375 0.07073142 -0.044944488
000020 96 56 a6 3c 73 37 4e 3d
       0.02030496 0.05034585
