complete_verifier/models/marabou_cifar10/cifar_marabou_small.pth (torch, 344457 bytes, 8 tensors)

0.weight f4 [8, 3, 4, 4]
0	0x3d129eb4	0.035795882
1	0x3d9e0c6f	0.07717215
2	0xbe2b5f22	-0.16735509
3	0xbdf2ac47	-0.118492655
4	0x3e3971e7	0.18109857
5	0xbd804c86	-0.06264596
6	0x3de50d70	0.111842036
7	0xbd533f62	-0.05157412
8	0x3c16487f	0.009172558
9	0x3d005729	0.031333122
10	0xba2e5a33	-0.0006651014
11	0xbe058ac2	-0.13041213
12	0x3e3ae487	0.18251239
13	0x3d862d5d	0.06551621
14	0xbe0fa5c8	-0.14028084
15	0x3e00b8c7	0.12570487
16	0x3ce04c07	0.027380003
17	0x3ae12a3a	0.0017178722
18	0x3e35a0c7	0.17737113
19	0xbe124905	-0.14285667
20	0xbda51fa4	-0.080626756
21	0x3e481fde	0.19543406
22	0x3e4b5505	0.19856651
23	0x3e14b751	0.14523055
24	0x3dc849e9	0.09779722
25	0x3c6363c8	0.01387877
26	0x3da87894	0.082261235
27	0x3e578b6d	0.2104928
28	0x3e258ebd	0.16167732
29	0x3e390a58	0.18070352
30	0x3d4f91a3	0.050676
31	0x3c45adde	0.012065379
32	0x3d23a629	0.039953385
33	0x3dffdeab	0.124936424
34	0xbe644ee3	-0.22295718
35	0x3e140089	0.14453329
36	0xbe0de656	-0.13857397
37	0xbe1bf8a5	-0.15231569
38	0xbdd6a4e0	-0.10480666
39	0xbe3707d2	-0.17874077
40	0xbe03bdcd	-0.12865372
41	0xbda22104	-0.079164535
42	0xbdf9727d	-0.1218004
43	0xbda8673b	-0.08222815
44	0xbddba0a1	-0.10723997
45	0xbde9b43d	-0.11411331
46	0xbdd77502	-0.10520364
47	0xbe3642c8	-0.17798913
48	0x3e550bb8	0.20805252
49	0xbdecce5c	-0.115627974
50	0xbdf4c8f5	-0.11952392
51	0xbe4cba84	-0.19993025
52	0x3dbec8e1	0.09315658
53	0x3e45a12d	0.19299765
54	0xbd908674	-0.07056895
55	0xbd99c9b6	-0.075091764
56	0xbcc8c019	-0.024505662
57	0xbd3633ec	-0.04448311
58	0x3dc8f877	0.09813016
59	0x3db4e800	0.08833313
60	0x3e82b2f9	0.2552717
61	0xbcc28064	-0.023742862
62	0x3e583a03	0.2111588
63	0xbd0a3ef4	-0.033751443
64	0xbdcdabd6	-0.10042541
65	0x3c2f4e48	0.010699816
66	0x3d6bd96b	0.057580393
67	0xbcc07619	-0.023493813
68	0xbd9fd4bc	-0.07804248
69	0x3e019e58	0.1265806
70	0xbc4ed5c3	-0.012624207
71	0xbe189810	-0.14901757
72	0x3dfeb3db	0.124366485
73	0xbdc82eae	-0.097745284
74	0xbded2a5b	-0.11580344
75	0xbe6f2b6f	-0.23356412
76	0xbd7e972e	-0.062155895
77	0xbd260f0b	-0.04054169
78	0xbd8ffe53	-0.0703093
79	0xbe81fcfc	-0.25388324
80	0x3ce8079e	0.028323945
81	0x3d253e28	0.04034248
82	0xbd71fd2d	-0.059079338
83	0x3cc2081f	0.023685513
84	0xbcedae66	-0.029013824
85	0x3dc8f6d1	0.098127015
86	0x3d1d4858	0.03839907
87	0xbc2973f2	-0.010342585
88	0xbd41ceca	-0.04731635
89	0x3e79e43f	0.24403475
90	0x3e1bd420	0.15217638
91	0x3d3089d4	0.043100193
92	0x3e1336ec	0.1437642
93	0x3e2f2108	0.17102444
94	0x3d6740d9	0.056458328
95	0x3dd977e5	0.10618571
96	0xbc5407b7	-0.0129412925
97	0xba70dd98	-0.00091882935
98	0xbda73685	-0.08164696
99	0x3e1727ff	0.14761351
100	0x3cbba746	0.02290691
101	0x3d567484	0.05235721
102	0xbe0461eb	-0.12927978
103	0xbd9e9640	-0.07743502
104	0x3d00e84c	0.031471536
105	0xbdeb282a	-0.1148227
106	0xbde36689	-0.111035414
107	0x3e69937f	0.22810172
108	0x3e58c5c0	0.21169186
109	0xbe2e5da5	-0.1702791
110	0xbdcdbe6a	-0.10046084
111	0x3e1caaac	0.15299481
112	0x3e097891	0.13424899
113	0x3b16ca39	0.0023008718
114	0x3da65dc6	0.081233546
115	0xbcd072d4	-0.02544538
116	0x3e4d2fc4	0.20037752
117	0x3e1cee96	0.15325388
118	0xbea6d699	-0.325856
119	0xbd193efe	-0.03741359
120	0x3e942a39	0.28938463
121	0xbe52df10	-0.20592904
122	0xbe804a37	-0.2505662
123	0xbcf2d8c2	-0.029644374
124	0xbc9f3531	-0.019434543
125	0xbd898d85	-0.06716446
126	0xbe21cf10	-0.15801644
127	0x3e37b47c	0.17939943
128	0xbb82b089	-0.00398833
129	0x3dedd6a4	0.11613205
130	0xbdb8f498	-0.090310276
131	0xbe2e36c6	-0.17013082
132	0x3e332a13	0.17496519
133	0x3d6f975c	0.058493957
134	0xbe04b94e	-0.12961313
135	0x3e216174	0.15759832
136	0x3e8247dd	0.25445452
137	0xbd006ae0	-0.031351924
138	0xbe9a389b	-0.30121312
139	0x3dcfdbfa	0.10149379
140	0x3d844a0f	0.06459438
141	0xbe5ecb0c	-0.21757144
142	0xbe36330c	-0.1779291
143	0x3e2ab302	0.16669849
144	0x3bafe2e1	0.0053676222
145	0x3b8e4f79	0.00434297
146	0xbd18d12b	-0.037308853
147	0xbe717cea	-0.23582807
148	0xbd651845	-0.05593135
149	0xbbb9492e	-0.0056544757
150	0x3d433e7b	0.047667008
151	0xbcc6aa10	-0.024251014
152	0x3e36b431	0.17842175
153	0x3e5db02f	0.2164924
154	0x3e5c3ce9	0.2150761
155	0x3e717b37	0.23582159
156	0x3e65fd67	0.22459947
157	0x3e645ffc	0.2230224
158	0x3e466848	0.19375718
159	0x3e03c994	0.12869865
160	0x393f5f64	0.00018250715
161	0x3dbda3cf	0.0925976
162	0xbd5afb25	-0.053462166
163	0x3e148d8b	0.1450712
164	0xbd7be791	-0.061500136
165	0x3dc0696a	0.09395106
166	0xbd976da9	-0.07393963
167	0xbd525f20	-0.05136025
168	0xbe3f4616	-0.1867908
169	0xbe808c95	-0.25107256
170	0xbda29fdc	-0.07940647
171	0xbc45794e	-0.012052847
172	0xbe96bb83	-0.29439935
173	0xbcfc4217	-0.030793233
174	0xbe482ddf	-0.19548748
175	0xbe3567af	-0.17715333
176	0x3b201923	0.0024429045
177	0xbdc9d0e7	-0.09854298
178	0x3dac0bff	0.084007256
179	0x3e1f256a	0.15541616
180	0x3da52bfc	0.0806503
181	0xbe041258	-0.12897623
182	0x3de1f636	0.11033289
183	0xbb03f37f	-0.0020134149
184	0x3dfb9118	0.12283534
185	0xbda125e5	-0.07868556
186	0xbdd77080	-0.105195045
187	0xbe0b7a52	-0.1362088
188	0x3d1f8991	0.038949553
189	0xbe54e220	-0.20789385
190	0xbe050b34	-0.12992555
191	0xbd94a85b	-0.07258674
192	0x3e91eec6	0.28502482
193	0x3dd5ccfb	0.104394875
194	0x3e40104b	0.18756215
195	0xbdceab73	-0.10091295
196	0x3ca26880	0.01982522
197	0x3e676cac	0.22600049
198	0xbd467a34	-0.048456386
199	0x3e3c6c0e	0.18400595
200	0xbe81e94b	-0.253733
201	0xbe7e6f3c	-0.2484712
202	0xbde40e61	-0.11135555
203	0xbe3253ae	-0.17414734
204	0xbc64b07e	-0.013958095
205	0xbe3cccbb	-0.18437473
206	0x3d86fa5e	0.065907225
207	0x3d1dab4d	0.038493443
208	0xbd6e1450	-0.05812484
209	0x3d35c582	0.04437781
210	0xbd93577d	-0.071944214
211	0x3e3ed024	0.18634087
212	0x3e37c984	0.17947966
213	0x3deb8994	0.1150085
214	0x3dad4675	0.08460704
215	0x3d72b053	0.059250187
216	0x3d1265a5	0.035741467
217	0x3c187834	0.009306002
218	0x3d0a4e77	0.033766236
219	0x3cbeb850	0.023281246
220	0xbe2feb33	-0.17179565
221	0xbe73f540	-0.23824024
222	0xbe50b848	-0.20382798
223	0xbe0a0514	-0.134785
224	0x3c5151ae	0.012775822
225	0x3be01e44	0.0068395454
226	0xbd0349a9	-0.03205267
227	0x3db9ca66	0.090718076
228	0x3bf07669	0.0073383343
229	0xbc2f07f4	-0.0106830485
230	0x3e3de9a5	0.1854616
231	0x3c20b305	0.009808307
232	0xbd86ae15	-0.06576172
233	0x3da01e70	0.078183055
234	0xbe26770b	-0.16256349
235	0xbcb8097c	-0.02246546
236	0x3d8e4533	0.069467925
237	0x3db52feb	0.0884703
238	0xbddb4541	-0.107065685
239	0xbd837fea	-0.06420882
240	0x3d32aaab	0.043619793
241	0xbe4c5e52	-0.19957855
242	0x3d622291	0.055208746
243	0x3ba312df	0.004976615
244	0xbe8d5691	-0.27605107
245	0xbe3788e7	-0.17923318
246	0xbdce4517	-0.100717716
247	0x3cf42d5e	0.029806789
248	0xbdbb3f83	-0.09142973
249	0xbe64e0d2	-0.22351387
250	0xbe8a86ba	-0.27055913
251	0xbe41a515	-0.1891063
252	0xbd84539b	-0.06461259
253	0xbe46538f	-0.19367813
254	0xbd853de2	-0.06505944
255	0x3c0140eb	0.007889013

0.bias f4 [8]
0	0xbcad5c30	-0.021162122
1	0xbe0729c9	-0.13199534
2	0xbbbb6e99	-0.0057199714
3	0x3b131891	0.0022445063
4	0xbd37cee7	-0.04487505
5	0xbd283d17	-0.041073885
6	0xbc14fef2	-0.009093987
7	0xbb120f90	-0.0022287108

2.weight f4 [16, 8, 4, 4]
0	0x3c54b632	0.012982892
1	0x3d9fbfd0	0.07800257
2	0x3d241397	0.040057745
3	0xbbd36de1	-0.0064523076
4	0xbc6ee8da	-0.014581883
5	0xbc00fe6d	-0.00787316
6	0x3d6239e0	0.055230975
7	0x3cd9fbe1	0.026609363
8	0xbc70934b	-0.014683555
9	0x3d8d36c6	0.06895213
10	0x3d4e7bea	0.050411142
11	0x3d35292c	0.044228718
12	0x3da9b9e9	0.08287413
13	0x3d8a8f3e	0.067656025
14	0x3d96c082	0.07360937
15	0x3c308f29	0.01077632
16	0x3d0cb3e8	0.03435126
17	0x3e1ce0b0	0.15320086
18	0x3d8c4c6e	0.06850515
19	0x3d7fe662	0.06247557
20	0xbc466e90	-0.012111321
21	0x3d87b3c4	0.066260844
22	0x3ccdd2f3	0.025125002
23	0x3d6a4fbe	0.057204954
24	0xbd389666	-0.045065306
25	0xbc2d0a52	-0.010561543
26	0xbc142e6e	-0.009044273
27	0x3d0f689b	0.03501187
28	0x3d7f543e	0.0623362
29	0xb8062362	-3.1981042e-05
30	0x3d1c12b2	0.038103767
31	0x3da765a7	0.081736855
32	0xbe91fa55	-0.285113
33	0xbc2fb2b1	-0.010723756
34	0x3cba72ec	0.022759877
35	0x3c8d0622	0.017214838
36	0xbdb02306	-0.0860043
37	0xbdbf3bb2	-0.09337558
38	0xbd8bcb7c	-0.06825921
39	0xbd15610e	-0.03646951
40	0xbdb236a6	-0.087018296
41	0xbdb89449	-0.09012658
42	0xbd96bea5	-0.07360581
43	0xbd5edd58	-0.05441031
44	0xbd006dc8	-0.031354696
45	0x3b1950ce	0.002339411
46	0x3b74daf1	0.0037361945
47	0xbcfd4cea	-0.030920465
48	0x3c8044b9	0.01565777
49	0x3c02aee3	0.007976267
50	0x3c70c985	0.0146964835
51	0x3d83ec20	0.06441522
52	0x3cc26e8d	0.023734355
53	0xbd4a0f54	-0.049331024
54	0xbcffa998	-0.031208798
55	0xbca4b842	-0.020107392
56	0xbc28ab21	-0.010294707
57	0xbd912139	-0.07086415
58	0xbd0dad2b	-0.034588974
59	0x3d8f0f17	0.069853
60	0x3d746d4c	0.059674546
61	0x3b809ff9	0.00392532
62	0xbc0c4fdb	-0.008563961
63	0xbb442ef3	-0.002993521
64	0xbf0e37da	-0.5555397
65	0xbf691df7	-0.9106135
66	0xbf01cbc1	-0.5070153
67	0xbdf942aa	-0.12170918
68	0xbf1aeeb6	-0.60520494
69	0xbf61d4e0	-0.88215446
70	0xbf47decd	-0.7807434
71	0xbdfb0d0f	-0.1225835
72	0xbec51322	-0.3849116
73	0xbf13f3ec	-0.5779407
74	0xbec132a7	-0.37733957
75	0xbdde3cd9	-0.108514495
76	0x3b8c062b	0.004273196
77	0xbe210222	-0.1572347
78	0xbdbddfbd	-0.0927119
79	0x3c60d6b3	0.013723063
80	0x3dbd1436	0.092323706
81	0x3c6607cb	0.014039944
82	0xbd6bdf6c	-0.05758612
83	0xbd6e12b7	-0.058123317
84	0x3d84665c	0.06464836
85	0xbbc00e5e	-0.0058610877
86	0xbd6b5ba0	-0.057460427
87	0xbd75699d	-0.059915174
88	0x3c5500ad	0.013000649
89	0x3be548c6	0.0069972007
90	0xbb55b87d	-0.0032611184
91	0xbc5c649c	-0.0134517215
92	0x3d66142c	0.05617158
93	0xbb9b970c	-0.004748231
94	0x3d511f7c	0.051055416
95	0x3dac1ba3	0.08403709
96	0xbf14315f	-0.57887834
97	0xbf2e0547	-0.679768
98	0xbf14ba9e	-0.58097255
99	0xbe59e37b	-0.21278183
100	0xbf46f52d	-0.7771786
101	0xbf8a528f	-1.0806445
102	0xbf5c46c8	-0.86045504
103	0xbed292ca	-0.41127616
104	0xbf1d0aed	-0.61344796
105	0xbf8d421b	-1.1035799
106	0xbf8ab5aa	-1.083669
107	0xbef450bc	-0.47717845
108	0xbeadbf01	-0.33934787
109	0xbf1b0e23	-0.60568446
110	0xbee16911	-0.44025472
111	0xbe30f265	-0.17279966
112	0x3cf97a43	0.030453807
113	0x3de538a0	0.11192441
114	0x3d9c7d4f	0.07641088
115	0x3d8bf56a	0.068339184
116	0x3d1ac00a	0.0377808
117	0x3d7de8e4	0.06198968
118	0x3d18deb6	0.03732177
119	0x3d2b7aac	0.041865036
120	0xbd0aa5a0	-0.03384936
121	0x3c7a8f8b	0.015293012
122	0x3d24f53f	0.040272947
123	0x3dee37ec	0.1163176
124	0x3d953f8a	0.0728751
125	0x3d877218	0.066135585
126	0x3d909f3e	0.07061623
127	0x3c17b60e	0.009259714
128	0xbdfe8306	-0.124273345
129	0xbd293998	-0.04131469
130	0xbdd93628	-0.106060326
131	0xbe1815a3	-0.14852004
132	0xbd1e13bf	-0.03859305
133	0x3ca6b461	0.020349683
134	0x3d6c3c11	0.05767447
135	0xbd148a70	-0.036264837
136	0x3d783fbd	0.06060766
137	0x3db3b69a	0.08775063
138	0x3d5edd4b	0.05441026
139	0x3c9339c6	0.017971884
140	0x3d129795	0.03578909
141	0x3da0e4ed	0.07856164
142	0x3cdaecf4	0.026724316
143	0x3d7ecb05	0.062205333
144	0x3c22f9a3	0.009947213
145	0xbcead183	-0.028664356
146	0xbd4bf35c	-0.049792632
147	0xbc25e445	-0.0101252245
148	0x3d49ba65	0.049250025
149	0x3cd54b8c	0.026037
150	0x3c35c5f2	0.011094557
151	0x3d9e17cd	0.077193834
152	0x3daf60d9	0.08563394
153	0x3cd0c2b0	0.02548346
154	0x3d993a63	0.074818395
155	0x3d4be4b6	0.049778663
156	0xbdd09dfa	-0.10186382
157	0xbd6a8887	-0.05725911
158	0xbd40b26f	-0.047045168
159	0xbcacf12b	-0.021111092
160	0xbdb32ddf	-0.087489836
161	0xbde96226	-0.113956735
162	0xbe21339d	-0.15742345
163	0xbd29342a	-0.041309513
164	0xbe2212c6	-0.15827474
165	0xbe80740f	-0.25088546
166	0xbebbd509	-0.3668597
167	0xbdd7add3	-0.10531201
168	0xbe8152d2	-0.252585
169	0xbed6d151	-0.4195657
170	0xbebeef0c	-0.37291753
171	0xbe52fa88	-0.20603383
172	0xbdf6c386	-0.12049012
173	0xbe7fdadc	-0.24985832
174	0xbe966ab2	-0.29378277
175	0xbe3ec9b0	-0.18631625
176	0xbf12e972	-0.5738746
177	0xbed56c31	-0.41684106
178	0xbebce403	-0.3689271
179	0xbed71012	-0.42004448
180	0x3c9a06bf	0.018802045
181	0x3e167322	0.14692357
182	0x3db9bd66	0.09069328
183	0x3d4e8fea	0.050430216
184	0x3e047753	0.12936144
185	0x3e498773	0.19680576
186	0x3e280e07	0.16411601
187	0x3e4abc0c	0.19798297
188	0x3dc0c828	0.09413177
189	0x3d7b5eb7	0.061369624
190	0x3da95fed	0.082702495
191	0x3d8e8edf	0.06960844
192	0x3df07e03	0.11742785
193	0x3d989bde	0.07451604
194	0x3d0e04fe	0.03467273
195	0x3dc00f14	0.09377876
196	0x3e2c01f8	0.16797626
197	0x3e073590	0.13204026
198	0x3db177f9	0.08665461
199	0x3d635ece	0.055510335
200	0x3e6e1d80	0.23253441
201	0x3e4c3b6f	0.19944547
202	0x3dca88a6	0.09889345
203	0x3e0e06af	0.13869737
204	0x3dfef2b2	0.12448634
205	0x3dda07d0	0.10646021
206	0x3dbdfa2e	0.092762336
207	0x3dc5cf38	0.096586645
208	0x3e114128	0.14185011
209	0x3dc8baaf	0.09801232
210	0x3da8bc0e	0.082389936
211	0x3dd03552	0.1016642
212	0x3dae1bb8	0.08501381
213	0x3dd76edd	0.10519192
214	0x3d9cd627	0.07658034
215	0x3dc52dd8	0.096278846
216	0xbd6a2257	-0.057161655
217	0xbd716eb4	-0.058943465
218	0xbd902eb1	-0.07040156
219	0xbd321a30	-0.043482006
220	0xbe153380	-0.14570427
221	0xbddfbc89	-0.10924632
222	0xbda401d2	-0.0800816
223	0xbd9961f0	-0.07489383
224	0x3e10a589	0.14125647
225	0x3e19048c	0.14943141
226	0x3e26df6a	0.16296163
227	0x3e36b2a1	0.17841579
228	0x3e0c6f1c	0.1371426
229	0x3e0abdac	0.13548917
230	0x3e212bf2	0.1573942
231	0x3e20750f	0.15669654
232	0x3d95ba1e	0.0731089
233	0x3c10dc65	0.008841609
234	0x3da81709	0.082075186
235	0x3dbc24c7	0.09186702
236	0xbe62cc81	-0.22148325
237	0xbe9fe3f5	-0.31228605
238	0xbe96890c	-0.29401433
239	0xbe7f3d61	-0.24925758
240	0xbb2ef5da	-0.0026696832
241	0xbd592128	-0.053010136
242	0xbce5108f	-0.027961997
243	0xbd875ac3	-0.06609108
244	0xbd845cf3	-0.06463041
245	0xbe1f782b	-0.15573184
246	0xbe037795	-0.12838586
247	0xbdad42b8	-0.08459991
248	0xbd629cb8	-0.05532524
249	0xbe2e5106	-0.17023095
250	0xbe079767	-0.13241349
251	0xbe02e250	-0.12781644
252	0x3d3fcc9c	0.04682599
253	0xbddd9647	-0.10819679
254	0xbdc02974	-0.093829066
255	0xbda1a747	-0.07893234

2.bias f4 [16]
0	0x3e0ba5ea	0.1363751
1	0x3d1c90cd	0.03822403
2	0x3e224434	0.1584633
3	0x3920c1b8	0.00015330955
4	0x3dae6b53	0.08516564
5	0xbd982a0a	-0.07429893
6	0x3e96aa3c	0.29426754
7	0x3ce0c14d	0.027435923
8	0x3c58b8c1	0.0132276425
9	0x3d130397	0.035892095
10	0x3c74f509	0.014950999
11	0xbe39de3d	-0.18151183
12	0xbe4e4f9a	-0.20147553
13	0x3da6c362	0.08142735
14	0x3cb4a40d	0.022050882
15	0x3cc878a7	0.024471594

5.weight f4 [128, 576]
0	0x3b941c4f	0.004519976
1	0x3cf13bd0	0.029447466
2	0x3d46f23a	0.04857085
3	0x3cebcb64	0.028783508
4	0x3c91d53e	0.017801877
5	0x3d7f3dce	0.0623148
6	0x3d410418	0.047123045
7	0x3cda1532	0.026621435
8	0x3c172b08	0.009226568
9	0x3cd21bed	0.025648082
10	0x3c064d98	0.008197211
11	0x3d437ddb	0.047727447
12	0x3da1b78f	0.07896339
13	0x3d31e9f2	0.043436
14	0xbd4af8af	-0.04955357
15	0xbe0ad9b7	-0.13559614
16	0x399994fa	0.0002929343
17	0x3e130f9d	0.14361425
18	0x3d617d79	0.0550513
19	0x3e023c21	0.1271825
20	0x3ca43d91	0.020048888
21	0xbe354104	-0.17700583
22	0xbd42ce2d	-0.047559906
23	0x3d940d22	0.072290674
24	0x3c914b67	0.01773615
25	0x3d91160a	0.07084282
26	0x3c1619e0	0.0091614425
27	0xbd4e8fb3	-0.05043001
28	0xbd6b6027	-0.057464745
29	0xbc591f60	-0.013252109
30	0xbd5770db	-0.05259786
31	0xbc5c61fe	-0.0134510975
32	0xbe0cf496	-0.13765177
33	0xbe1f8aa7	-0.15580235
34	0xbe626c4e	-0.22111627
35	0xbe21763f	-0.15767764
36	0xbdb39a35	-0.08769647
37	0xbdb41e9d	-0.087949015
38	0xbdd4ecd7	-0.10396736
39	0xbcf0d64e	-0.029399063
40	0xbd213755	-0.03935941
41	0xbd3e8a33	-0.046518516
42	0xbda826fe	-0.08210562
43	0xbd09e48c	-0.033665225
44	0xbdaf8e82	-0.08572103
45	0xbd1c158e	-0.038106494
46	0x3cbc1cd2	0.022962961
47	0x3be39ad2	0.0069459463
48	0xbcfb6318	-0.0306869
49	0x3d1ec33c	0.03876041
50	0xbb90f8ad	-0.0044241757
51	0x3d83bd9c	0.064326495
52	0x3dcdc832	0.1004795
53	0x3db1c828	0.08680755
54	0xbdc97b4c	-0.0983797
55	0xbdb93772	-0.090437785
56	0xbd243df5	-0.04009815
57	0xbac4a55e	-0.0015002897
58	0x3d4ad58f	0.04952007
59	0x3d904d9e	0.07046054
60	0xbbf6c71a	-0.007531059
61	0xbcaf42ac	-0.021394096
62	0xbdaea045	-0.08526663
63	0xbe07a497	-0.1324638
64	0xbdf6dc16	-0.12053697
65	0xbdb2fb9f	-0.08739399
66	0xbd1b73e5	-0.037952323
67	0x3e07e70f	0.13271736
68	0x3defa184	0.117007285
69	0x3ce0ce0a	0.027441997
70	0x3cf519af	0.029919473
71	0xbb18cd02	-0.0023315554
72	0x3cdc64fc	0.026903622
73	0xbda95ae0	-0.08269286
74	0xbce1c2ea	-0.027558763
75	0x3d79a753	0.06095059
76	0xbdbaa6a9	-0.09113819
77	0xbdf68a47	-0.12038093
78	0xbd6eaed8	-0.058272213
79	0xbda7a673	-0.081860445
80	0xbe652caa	-0.22380319
81	0xbe0ce147	-0.13757811
82	0x3c2adfa8	0.0104293
83	0xbd182127	-0.03714099
84	0x3c81b87f	0.015835045
85	0xbda1eef0	-0.07906902
86	0xbe658732	-0.22414854
87	0xbe2943b5	-0.16529734
88	0xbdffacd7	-0.124841385
89	0x3d42b5dc	0.047536716
90	0x3d4de890	0.050270617
91	0x3d453ca3	0.04815353
92	0xbda1da16	-0.07902925
93	0xbddd66ec	-0.108106464
94	0xbdba73b9	-0.091041036
95	0xbd9c3218	-0.07626742
96	0x3ddeecbe	0.10884999
97	0x3d3d637f	0.046237465
98	0xbb274b54	-0.0025527077
99	0xbdd4bb4d	-0.10387287
100	0xbdf51276	-0.11966412
101	0xb8819130	-6.1782426e-05
102	0xbca297e0	-0.01984781
103	0x3d1c6c12	0.038189
104	0x3d06a1bb	0.032869082
105	0xbbd20208	-0.0064089336
106	0x3d8c25f0	0.068431735
107	0x3d214e85	0.039381523
108	0xbcbce220	-0.023057044
109	0xbe4a2c86	-0.19743547
110	0xbe7bc40d	-0.24586506
111	0xbd7d9cf0	-0.061917245
112	0x3b80b5b8	0.0039279126
113	0xbd5ba511	-0.053624216
114	0xbe90c23a	-0.28273183
115	0xbe3e1aa2	-0.18564847
116	0xbe5a57e9	-0.21322598
117	0xbc860cac	-0.016363464
118	0xbe4be801	-0.19912721
119	0xbdcd36ff	-0.10020255
120	0xbd3166fb	-0.0433111
121	0xbe145eef	-0.1448934
122	0xbdae372a	-0.085066155
123	0xbdfe512f	-0.12417828
124	0xbdf00fb0	-0.11721742
125	0x3e2970cd	0.16546936
126	0xbdf1a9a7	-0.11799937
127	0xbe1578c6	-0.14596853
128	0xbed64924	-0.41852677
129	0xbe8f1d6b	-0.27952132
130	0xbd02f2ea	-0.031969942
131	0x3d80d7cc	0.0629116
132	0x3d54dc97	0.051968183
133	0xbdf7e045	-0.12103323
134	0xbd0e5915	-0.034752924
135	0xbd449f6c	-0.0480036
136	0x3d336182	0.043794163
137	0x3a3c209d	0.00071764906
138	0x3d285cc2	0.041104086
139	0x3d8f0331	0.069830306
140	0x3e158031	0.14599682
141	0x3dd8adfa	0.105800584
142	0x3e26b86e	0.16281292
143	0x3e3f50a3	0.18683104
144	0x3c3f255d	0.011666623
145	0xbd3e82e7	-0.046511557
146	0xbd7fc3dc	-0.062442645
147	0x3b3643d7	0.0027811432
148	0x3d90af81	0.07064725
149	0x3e27f8d8	0.1640352
150	0x3bf72862	0.007542656
151	0xbda1c955	-0.07899729
152	0xbdbdcd15	-0.09267632
153	0xbbebbb04	-0.007193925
154	0x3d919f93	0.071105145
155	0x3da09156	0.07840221
156	0xbc93efd2	-0.018058691
157	0xbdaf65b3	-0.085643195
158	0xbd5e623d	-0.054292906
159	0x3c36adfe	0.011149881
160	0x3df75ccb	0.12078246
161	0x3d738ef7	0.059462514
162	0x3d4bbcc8	0.049740583
163	0xbd98ac00	-0.074546814
164	0x3d035704	0.032065406
165	0x3e1f1101	0.1553383
166	0x3e0c5973	0.13705997
167	0x3c973d54	0.01846186
168	0xbe131f06	-0.14367303
169	0xbd0b1c3b	-0.03396247
170	0x3d910224	0.070804864
171	0x3de14f0e	0.110014066
172	0x3df3e099	0.11908073
173	0x3c91bdcd	0.0177907
174	0x3b5fa6ba	0.0034126476
175	0xbca9da60	-0.020734012
176	0x3d229b31	0.039698783
177	0x3cbea615	0.023272553
178	0x3e0859a4	0.13315445
179	0x3e356fc6	0.1771842
180	0xbc60ee77	-0.013728729
181	0xbd9efc4e	-0.07762967
182	0xbe3e4b66	-0.1858345
183	0xbe1b9036	-0.15191731
184	0xbd85425f	-0.065068
185	0xbdc6441f	-0.09680962
186	0xbe66eaa7	-0.2255045
187	0xbdf646d1	-0.12025226
188	0xbda0d7c7	-0.07853656
189	0xbd11e9d9	-0.035623405
190	0xbe1079c1	-0.14108945
191	0xbe01255d	-0.12611909
192	0xbe2bcf27	-0.16778241
193	0xbd8c6567	-0.068552785
194	0xbb3ebc81	-0.0029104056
195	0xbdc246ac	-0.09486136
196	0xbd451897	-0.048119154
197	0x3d7f3426	0.062305592
198	0xbdc65121	-0.09683443
199	0x3da546eb	0.08070167
200	0xbcbfc8e3	-0.02341122
201	0xbdb84c4e	-0.08998929
202	0x3d1b414c	0.03790407
203	0x3d4e33e7	0.050342467
204	0xbc402efd	-0.011729953
205	0xbd227f5f	-0.03967225
206	0xbd4dfedc	-0.05029188
207	0xbc4e5be4	-0.012595151
208	0x3dbc8c79	0.092064805
209	0x3db852fd	0.09000204
210	0xbce754e4	-0.028238721
211	0xbc83f978	-0.016110167
212	0x3cf698be	0.03010213
213	0x3b55be2e	0.0032614577
214	0x3d75f87a	0.06005142
215	0x3d43f470	0.047840536
216	0xbd8a2e3c	-0.067471
217	0x3cb81928	0.022472933
218	0x3c84c487	0.016206993
219	0x3d39b8ac	0.045342132
220	0xbcd6bfdd	-0.026214534
221	0x3d72981e	0.0592271
222	0x3d43b853	0.047783207
223	0x3d86592d	0.06559978
224	0x3d90f5d4	0.07078138
225	0x3d11572a	0.035483517
226	0x3cb1bcf6	0.021696549
227	0xbca0673e	-0.01958048
228	0x3d5908a4	0.052986756
229	0x3d9a409f	0.07531857
230	0xbdf307ab	-0.11866697
231	0xbcc00634	-0.023440458
232	0x3dbb521f	0.09146523
233	0x3da36045	0.07977346
234	0x3d169f15	0.036772806
235	0xbd40b221	-0.047044877
236	0xbe570c85	-0.2100087
237	0xbe37b8d3	-0.17941599
238	0xbd7a6efe	-0.061141007
239	0x3de9752f	0.11399304
240	0xbce481be	-0.027893897
241	0x3b78b1be	0.003794774
242	0xbd8ad1f2	-0.06778325
243	0xbded9e0f	-0.11602413
244	0x3e015cd6	0.1263307
245	0x3c6779c6	0.014128154
246	0xbdf08214	-0.117435604
247	0xbc4c1fa5	-0.0124587165
248	0xbd9d5525	-0.07682256
249	0xbcc79fb5	-0.024368146
250	0xbc77c5b2	-0.015122818
251	0xbdf69043	-0.120392345
252	0x3da53d94	0.08068386
253	0xbdd5c1b4	-0.104373366
254	0xbc1b6579	-0.009484642
255	0x3d2288d4	0.03968127

5.bias f4 [128]
0	0x3ea85548	0.32877564
1	0x3e108e0f	0.14116691
2	0x3d51fbb8	0.05126545
3	0x3d62f8aa	0.055412926
4	0x3e8ff1c7	0.2811415
5	0x3d87177e	0.06596278
6	0x3c16f89f	0.009214549
7	0x3e06c97d	0.13162799
8	0xbc8cdbd3	-0.017194664
9	0x3eb8e7d9	0.36114386
10	0xbe132a33	-0.14371566
11	0xbde0e833	-0.109817885
12	0x3e944b62	0.28963763
13	0x3e95ebe4	0.29281533
14	0x3d27bd2b	0.04095189
15	0x3e768a2f	0.2407615
16	0x3e85f2a1	0.26161674
17	0x3ed3ec16	0.41391057
18	0xbc65c986	-0.014025098
19	0x3eb00537	0.3437898
20	0x3d04c8d7	0.0324181
21	0xbd497319	-0.04918203
22	0x3dc37383	0.095435165
23	0x3ee5a691	0.44853643
24	0xbcd764e0	-0.026293218
25	0xbe029af5	-0.12754424
26	0x3e58fe6a	0.21190801
27	0x3dd93983	0.106066726
28	0x3e68886d	0.22708292
29	0x3e833ef8	0.2563398
30	0xbddffd33	-0.10936966
31	0x3e3e9de8	0.18614924
32	0xbde41fc2	-0.1113887
33	0xbcb795c1	-0.022410275
34	0x3e2e7db1	0.17040135
35	0xbd06fb1e	-0.032954328
36	0x3d9ea592	0.07746424
37	0x3dad962a	0.08475907
38	0x3e6c2868	0.23062289
39	0x3da4a0a2	0.08038451
40	0x3ef2cd14	0.47422087
41	0x3eda3f9a	0.4262665
42	0xbdf12ae1	-0.117757566
43	0x3ea9bfc6	0.33154124
44	0x3e9a0c68	0.3008759
45	0x3e2c8143	0.16846184
46	0xbd657083	-0.056015503
47	0x3ef371af	0.4754767
48	0x3ec426ab	0.3831075
49	0x3eace44c	0.33767927
50	0xbe926dde	-0.28599447
51	0x3ea9938f	0.3312039
52	0x3de48c59	0.11159582
53	0x3f039450	0.5139818
54	0xbe00bfc2	-0.1257315
55	0x3db73015	0.08944718
56	0x3cc1f558	0.02367656
57	0x3e465677	0.19368921
58	0xbe24a280	-0.16077614
59	0xbd848008	-0.064697325
60	0x3e0fec3f	0.14054964
61	0x3d7165f0	0.058935106
62	0xbe297fd8	-0.16552675
63	0x3d8f5197	0.06997984
64	0x3ce21da6	0.027602028
65	0x3d5045a8	0.05084768
66	0xbe5d865a	-0.21633282
67	0x3e9e15ab	0.30875906
68	0x3ea083b0	0.3135047
69	0x3e959929	0.29218414
70	0xbd9c7566	-0.076395795
71	0x3e912043	0.28344926
72	0x3cacc894	0.021091737
73	0x3e02d420	0.12776232
74	0x3e961cac	0.2931875
75	0x3d87b56c	0.066264
76	0x3d725dae	0.05917137
77	0xbd0e1f3d	-0.03469776
78	0x3ead2cba	0.33823186
79	0xbe095938	-0.1341294
80	0x3d1fdcfb	0.039029103
81	0xbe27051b	-0.16310541
82	0x3e0405a8	0.12892783
83	0xbe4217ca	-0.18954387
84	0xbe7089d4	-0.23490077
85	0x3ee40fdd	0.44543353
86	0x3d85e669	0.06538088
87	0x3ecdb64e	0.4017815
88	0xbe9f1004	-0.31066906
89	0x3d422640	0.04739976
90	0x3dbc0b86	0.091818854
91	0xbe13d291	-0.14435793
92	0x3cba3d2c	0.022734247
93	0xbe64cde1	-0.22344162
94	0x3dcfbcfd	0.101434685
95	0xbe3eb225	-0.18622644
96	0x3e15db32	0.14634398
97	0x3ecb77e3	0.39739904
98	0x3db340ec	0.08752617
99	0x3e1acc9a	0.15117112
100	0x3e83d0c2	0.25745207
101	0x3ef18ec2	0.47179228
102	0xbdef94ac	-0.11698279
103	0x3e26fa21	0.16306354
104	0x3e43d5f8	0.19124591
105	0xbe009d30	-0.12559962
106	0x3e2dc159	0.16968288
107	0x3f105aab	0.5638835
108	0x3ea796ee	0.32732338
109	0xbd802ba6	-0.06258325
110	0xbe367b52	-0.1782048
111	0x3dad53ee	0.08463274
112	0xbd697168	-0.05699292
113	0xbd1c74c3	-0.03819729
114	0x3ea8b1ba	0.32948095
115	0x3da1b13b	0.07895132
116	0xbd90bd75	-0.07067386
117	0xbd12ab2d	-0.035807777
118	0x3d76392b	0.060113113
119	0x3ef97f1c	0.4872979
120	0xbbb4c956	-0.005517165
121	0x3efadbfb	0.48995957
122	0xbd94ca49	-0.07265145
123	0x3e1fa64d	0.15590782
124	0x3d4cd2da	0.05000577
125	0xbd74e9dd	-0.059793342
126	0xbe44eced	-0.19231005
127	0xbbf62f6f	-0.0075129787

7.bias f4 [64]
0	0x3ef36e7c	0.4754523
1	0x3e926e84	0.28599942
2	0x3ef3507a	0.47522336
3	0x3e1a801e	0.15087935
4	0x3eb0f2d2	0.34560257
5	0x3ec9848d	0.3935894
6	0x3f1a4e3b	0.6027562
7	0x3efb83e3	0.4912406
8	0x3ef59622	0.47966105
9	0x3e842e2b	0.25816473
10	0x3f097c69	0.5370546
11	0x3ef99e79	0.48753718
12	0x3e9a1c3b	0.30099663
13	0x3e38f2de	0.18061396
14	0x3ee985d5	0.45609918
15	0x3ea62868	0.32452703
16	0x3e9788a4	0.29596436
17	0x3e8c380d	0.27386513
18	0x3eb3e7dd	0.35137835
19	0x3eba9580	0.36442184
20	0x3efaea17	0.4900672
21	0x3f0826f8	0.5318446
22	0x3f0a963b	0.54135484
23	0x3ef712f5	0.4825665
24	0x3eaa6be2	0.33285433
25	0x3ec0c20b	0.37648043
26	0xbd8652e3	-0.06558778
27	0x3e9676e5	0.29387584
28	0x3d8e9bd6	0.06963317
29	0x3ec744b8	0.38919616
30	0x3ee1baf4	0.44087946
31	0x3eb7c1b1	0.35889962
32	0x3f0df0f2	0.5544578
33	0x3eb8ffb7	0.36132595
34	0xba354d3b	-0.000691611
35	0x3f20c95f	0.6280727
36	0x3eed81f0	0.46388197
37	0x3db0f7ef	0.086410396
38	0x3e7933ac	0.24336118
39	0x3ebc092d	0.3672575
40	0x3e87a961	0.26496413
41	0x3e8f13b9	0.27944735
42	0x3edf1abc	0.43575084
43	0x3f003a53	0.50088996
44	0x3ea72898	0.32648158
45	0x3eea3187	0.4574091
46	0x3eb375b9	0.35050753
47	0x3eb8966d	0.36052266
48	0x3ebf3d16	0.37351292
49	0x3eca4dda	0.3951252
50	0x3eb7a708	0.35869622
51	0x3e71cec7	0.23614036
52	0x3e8bc31a	0.27297288
53	0x3e3a402e	0.18188545
54	0x3e88defe	0.2673263
55	0x3e344a06	0.17606363
56	0x3dd316f9	0.10307116
57	0x3e448cb6	0.19194302
58	0x3e962ba4	0.2933017
59	0x3ec8780e	0.39154094
60	0x3ec87fe9	0.39160088
61	0x3f09d7a7	0.53844684
62	0x3e5fbb63	0.21848826
63	0x3e693e69	0.22777714

9.bias f4 [10]
0	0xbe34dde2	-0.17662767
1	0x3d314f1a	0.043288328
2	0xbe260b15	-0.16215165
3	0x3decf5f8	0.11570352
4	0x3dfb1629	0.12260086
5	0xbd5f48e3	-0.05451287
6	0x3b3273d8	0.0027229693
7	0x38733a08	5.798976e-05
8	0x3c331c10	0.010931984
9	0x3db7bbbd	0.08971355
