complete_verifier/models/eran/cifar_conv_small_pgd.pth (torch, 504448 bytes, 6 tensors)

0.bias f4 [16]
0	0x3e845990	0.2584958
1	0x3cf418dc	0.02979701
2	0x3f29214d	0.6606644
3	0xbeb7e54d	-0.3591713
4	0xbe94c2af	-0.29054782
5	0xbe764b7f	-0.24052237
6	0xbe440299	-0.19141616
7	0xbe6d9718	-0.23202169
8	0xbe761782	-0.24032405
9	0xbe2ddd97	-0.16979061
10	0xbeaea821	-0.34112647
11	0xbe97e58c	-0.29667318
12	0x3ef7244f	0.4826989
13	0xbe0717cf	-0.13192676
14	0x3f2e1ad8	0.6800971
15	0x3e9fec30	0.31234884

2.bias f4 [32]
0	0x381a0af4	3.6726662e-05
1	0xb9a387c6	-0.00031190942
2	0xb923aa5d	-0.00015608357
3	0x382c2c71	4.1049385e-05
4	0xb9fd4014	-0.00048303662
5	0x3968c0af	0.00022197024
6	0x391dfa15	0.0001506585
7	0x37ba862a	2.2235403e-05
8	0x39765da7	0.00023495276
9	0x388216b8	6.203115e-05
10	0xb3dd1e98	-1.02966794e-07
11	0xb914d6e4	-0.00014194433
12	0x39be73d3	0.0003632592
13	0x388b55f1	6.644044e-05
14	0xb94af899	-0.00019356831
15	0x3923b497	0.00015612166
16	0xb94ba429	-0.00019420743
17	0xb92fceca	-0.00016766335
18	0xb86dc261	-5.6686233e-05
19	0x39a1f261	0.000308889
20	0x38d06c72	9.9384124e-05
21	0x39deed34	0.0004251987
22	0x3936a8df	0.00017419782
23	0x393e221f	0.00018132523
24	0x3767c81f	1.3815267e-05
25	0xb805a6b4	-3.1864925e-05
26	0xb7954014	-1.7792023e-05
27	0x38e61407	0.00010970985
28	0x38a4e38f	7.8625155e-05
29	0xb8f8bc75	-0.000118606644
30	0xb9a9e6bf	-0.0003240611
31	0xb944fb83	-0.00018785712

5.weight f4 [100, 1152]
0	0x3c80be27	0.015715672
1	0xbcc6cccb	-0.024267575
2	0x3bbc3cf0	0.005744569
3	0x3ce519f5	0.027966479
4	0xbbf11abf	-0.0073579247
5	0x3b11d730	0.0022253506
6	0x3b811e7b	0.003940401
7	0xbc4f5ea5	-0.012656842
8	0xbca5ffb5	-0.020263532
9	0x3d3011a0	0.04298556
10	0xbc54068d	-0.012941015
11	0xbc40929c	-0.011753704
12	0xbc9aca9b	-0.018895438
13	0x3af5a58d	0.0018741355
14	0x3b935a20	0.0044968277
15	0x3cb702e1	0.02234024
16	0xbcaf2b81	-0.021383049
17	0xbc306b9c	-0.010767844
18	0xbc8b1280	-0.016976595
19	0x3cf5ed8a	0.030020494
20	0x3c8b3375	0.01699231
21	0x3c573bcf	0.013136818
22	0xbb8da658	-0.0043228082
23	0x3cc7d70a	0.02439453
24	0xbc266fe3	-0.010158512
25	0xba57a6d3	-0.0008226458
26	0x3c3768ee	0.011194451
27	0xbc85be0b	-0.016325971
28	0xbcc4928c	-0.02399566
29	0xbc2a320d	-0.01038791
30	0x3c6a3d98	0.014296912
31	0x3bd07948	0.006362114
32	0x3cc3c76b	0.0238988
33	0x3cd14718	0.025546595
34	0xbbcc4027	-0.0062332335
35	0xbc6a4ba5	-0.014300262
36	0x3c4e9990	0.012609854
37	0xbc30e04f	-0.010795667
38	0xbc6f8d02	-0.014621021
39	0xbd2cb312	-0.042162962
40	0xbcd92f12	-0.026511703
41	0xba657f56	-0.0008754631
42	0x3d1897fd	0.037254322
43	0x3c350d44	0.011050526
44	0xba29e8d8	-0.0006481535
45	0x3bfc5ae1	0.0077012633
46	0xbcc53865	-0.024074743
47	0xbc4fdab0	-0.0126864165
48	0xbc210fda	-0.009830439
49	0x3b7850a5	0.0037889865
50	0x3c04036b	0.0080574555
51	0xbc4dbfd2	-0.012557941
52	0xbce0463f	-0.027377246
53	0x3cb921a1	0.022599043
54	0x3c5ce836	0.013483098
55	0x3a88c0b4	0.0010433407
56	0xbcc8c346	-0.024507176
57	0xbccd2096	-0.025039952
58	0x3b0fbf7a	0.0021934197
59	0x3d0596a0	0.03261435
60	0x3d21c968	0.039498717
61	0x3b6b7424	0.003592738
62	0xbab6065b	-0.0013887392
63	0x3c84c76f	0.016208379
64	0x3c3db70a	0.011579284
65	0x3d2ba95d	0.041909564
66	0x3c7b57e9	0.015340784
67	0x3c570776	0.013124337
68	0x3b92b95f	0.0044776644
69	0xbcc82de0	-0.024435937
70	0x3c09cb6d	0.008410317
71	0x3cc56fe7	0.02410121
72	0x3c147cb9	0.009062939
73	0x3b885eb0	0.0041616783
74	0x3bfcb9b4	0.007712567
75	0x3aec26c4	0.0018016924
76	0xbbe68994	-0.0070354436
77	0xbb8fea67	-0.0043919566
78	0x3be7b1a0	0.007070735
79	0xbc804e78	-0.015662417
80	0x3ce2cb2a	0.027684767
81	0x3d014f05	0.0315695
82	0x3c762c64	0.015025232
83	0xbc2ed6c9	-0.010671326
84	0xb9a652e6	-0.0003172375
85	0x3c1f2805	0.009714131
86	0x3d01c48c	0.031681582
87	0xbc712538	-0.014718346
88	0xbcb8c676	-0.022555571
89	0x3baf9189	0.0053579253
90	0xbc9851ea	-0.018593747
91	0x3d177384	0.0369754
92	0x3d77b91f	0.06047928
93	0x3cd509fa	0.026005734
94	0xbc200258	-0.009766184
95	0x3c1bc8e6	0.009508347
96	0xbbc9b78d	-0.006155914
97	0x3c8c1a9f	0.017102538
98	0x3c6680c6	0.014068788
99	0x3aa1a502	0.0012332501
100	0xbb037ac8	-0.0020062197
101	0xbbdd36bb	-0.006750909
102	0xbcb83991	-0.022488387
103	0x3c49847f	0.012299656
104	0xbc8d9190	-0.017281324
105	0xbb320681	-0.002716452
106	0x3af888b3	0.0018961638
107	0xbc538390	-0.012909785
108	0xbc5530c1	-0.013012112
109	0xbce5b478	-0.028040156
110	0x3d0a88fb	0.03382204
111	0xbb93e7a7	-0.004513699
112	0x3c5194a8	0.01279179
113	0x3b3009e3	0.0026861362
114	0x3ca0030d	0.019532705
115	0xbcaca48f	-0.021074561
116	0xbc8bf5b6	-0.017084938
117	0xbc5a3b2a	-0.01331977
118	0x3ccbe02c	0.024887167
119	0xbd012178	-0.03152606
120	0x3c803ebb	0.015654912
121	0x3cd83eb9	0.026397096
122	0x3ba44f63	0.0050143464
123	0x3c21fc7c	0.009886857
124	0xbc4e2638	-0.012582354
125	0x3d31c49b	0.04340039
126	0x3c68863a	0.014192158
127	0xba08df3d	-0.00052212534
128	0x3d000ab3	0.031260204
129	0x3ccb8996	0.02484588
130	0xbc33f547	-0.010983772
131	0xbc9be540	-0.019030213
132	0x3b7e328a	0.0038787448
133	0xbbe3a5c5	-0.0069472515
134	0xbbffe026	-0.007808703
135	0x3cb0fc5c	0.02160471
136	0x3c86491a	0.01639228
137	0xbc1a9b5a	-0.009436453
138	0x3c079c48	0.008277006
139	0xbc8262b8	-0.015916213
140	0xbd0824b1	-0.033238117
141	0x3c675a8e	0.014120711
142	0x3cf8c4b9	0.030367242
143	0xbb5c8559	-0.0033648817
144	0x3cbf13bc	0.02332484
145	0xbc50c374	-0.012741912
146	0xbcb46223	-0.022019451
147	0xbcc8f583	-0.024531132
148	0x3bd7dd3b	0.006587652
149	0x3d784a48	0.060617715
150	0xbc77e42f	-0.015130087
151	0xbb905214	-0.0044043157
152	0xbd64d133	-0.05586357
153	0xbcf94845	-0.030429969
154	0xbadd41d8	-0.0016880585
155	0xbc2124aa	-0.009835402
156	0xb9775e8a	-0.00023590974
157	0xbca7bdec	-0.020476304
158	0xbbb2f1de	-0.0054609617
159	0xbd403c4a	-0.046932496
160	0xbd0a59ad	-0.033776928
161	0xbc756459	-0.014977538
162	0xbc13c175	-0.009018292
163	0xbcdde233	-0.0270854
164	0xbc749160	-0.014927238
165	0xbc2b365c	-0.010449972
166	0xbc8f6827	-0.017505718
167	0xbd430ca1	-0.047619466
168	0x3c971c61	0.01844615
169	0xbbea410a	-0.0071488665
170	0xbd603b31	-0.05474395
171	0x3ad80830	0.0016481932
172	0xbb313291	-0.0027038197
173	0x3a9f3f58	0.0012149615
174	0x3c176f46	0.009242838
175	0xbcc3afec	-0.023887597
176	0xbd2c3aea	-0.042048372
177	0x3bca6886	0.006177011
178	0x3c969790	0.018382818
179	0x3b9555b0	0.004557334
180	0x3c94fe37	0.018187625
181	0x3b3c7b46	0.002876
182	0x3c740b66	0.014895296
183	0xbbaa95fd	-0.0052058683
184	0x3c01e144	0.007927243
185	0xbb7cc716	-0.0038570813
186	0xbc93c23f	-0.01803696
187	0x3c87ab0b	0.016561052
188	0xbce449ec	-0.02786728
189	0x3cd44307	0.025910867
190	0x3c844b01	0.016149046
191	0x3c9a4823	0.018833226
192	0x3c8459e1	0.016156139
193	0xbc094ebd	-0.008380589
194	0xbbc0ceca	-0.005884026
195	0x3bdcb740	0.0067357123
196	0x3d2fbcc3	0.042904627
197	0xbbeeafbc	-0.0072841328
198	0xbc6a5bf2	-0.014304148
199	0xbcfd4e89	-0.030921238
200	0x3b15e273	0.002287057
201	0xbc6f2604	-0.014596466
202	0x3c323461	0.010876746
203	0xbbcbe31f	-0.0062221433
204	0xbd1009e5	-0.035165686
205	0x3ce785f6	0.02826212
206	0x3ac85962	0.0015285427
207	0xbb134d9d	-0.002247668
208	0x3c8dc07e	0.017303701
209	0x3c5b86e3	0.013398859
210	0xbd36d57c	-0.04463719
211	0xba7d3625	-0.0009659252
212	0x3c8ef164	0.017449088
213	0x3b6b7fb3	0.003593427
214	0x3c84957a	0.016184557
215	0x3ce4432e	0.027864065
216	0x3bb49b17	0.005511652
217	0x3c554526	0.013016975
218	0x3c6cdb0a	0.01445652
219	0xbaa4b049	-0.0012564744
220	0xb9c20312	-0.0003700485
221	0xbab12322	-0.0013514499
222	0xbb9dc413	-0.0048146336
223	0x3cbb12f4	0.022836186
224	0x3c47f84c	0.012205195
225	0x3a856960	0.0010178499
226	0xbd137149	-0.03599671
227	0x3c49d542	0.012318911
228	0xbc3f8816	-0.01169016
229	0xbc389aa4	-0.011267338
230	0x3c899425	0.016794274
231	0xbc4f63d2	-0.012658076
232	0xbb266d96	-0.0025394908
233	0x3d2d2030	0.042267025
234	0xbc59a05a	-0.01328286
235	0xbc715689	-0.014730104
236	0xbc60b02d	-0.013713879
237	0x3a4e810c	0.0007877506
238	0x3c947acc	0.01812496
239	0x3d026e67	0.03184357
240	0xbc17c52d	-0.009263319
241	0x3ce096c0	0.027415633
242	0x3d01c180	0.031678677
243	0x3b17fe36	0.0023192293
244	0x3d6b2453	0.05740769
245	0x3d423d28	0.047421604
246	0xbc2525a3	-0.010079774
247	0x3ca1d66f	0.01975557
248	0xbb7e2b8a	-0.0038783276
249	0xba898029	-0.0010490465
250	0x3d0bb0e7	0.034104254
251	0x3ccf7be5	0.025327632
252	0x3c9b6453	0.018968737
253	0xbd127073	-0.03575177
254	0xbc5aa85a	-0.013345802
255	0xbd2b06a9	-0.0417544

5.bias f4 [100]
0	0x38c2a6f9	9.281742e-05
1	0xb89e19c2	-7.538825e-05
2	0xb872c159	-5.7877365e-05
3	0x38f740a5	0.00011789919
4	0x3a083079	0.0005195211
5	0x23460108	1.073382e-17
6	0x8000002a	-5.9e-44
7	0xb8ca2338	-9.6386706e-05
8	0x38f4a8b8	0.00011666253
9	0xb8f7a0fe	-0.00011807865
10	0xb9ba1788	-0.00035494217
11	0x39817b25	0.00024696547
12	0xb823b7af	-3.9033297e-05
13	0x39a87cc9	0.0003213643
14	0x398757be	0.0002581458
15	0xb933480a	-0.00017097607
16	0x39aa0e59	0.00032435617
17	0x3968c469	0.00022198413
18	0x395b3507	0.00020905222
19	0x37cad703	2.41804e-05
20	0x39123145	0.00013942
21	0x388961d8	6.550894e-05
22	0x374b70c6	1.2126e-05
23	0xb7cfbca6	-2.476417e-05
24	0xb914e420	-0.00014199363
25	0xb93ebda7	-0.00018190463
26	0x3942c944	0.00018576259
27	0xb89748a6	-7.213773e-05
28	0xb965f6c9	-0.00021931076
29	0xb9b79269	-0.00035013564
30	0xb9153369	-0.00014228899
31	0x38256cf9	3.9440554e-05
32	0xb85dff65	-5.292836e-05
33	0x39bd13d2	0.00036063656
34	0xb958d969	-0.00020680357
35	0x392e0046	0.00016594035
36	0x3878bb81	5.9302434e-05
37	0x39864616	0.0002561069
38	0x393397b6	0.00017127287
39	0xb92ade5b	-0.00016295297
40	0xb61a55fc	-2.2997838e-06
41	0xb884a114	-6.3242536e-05
42	0xb7ed6aac	-2.8302275e-05
43	0xb8b36b1f	-8.555338e-05
44	0xb8f5e9d4	-0.00011726064
45	0xb9b68704	-0.0003481434
46	0xb94d7616	-0.00019594314
47	0x38854cb1	6.356219e-05
48	0xb9cf5554	-0.0003954569
49	0x38a27e58	7.748295e-05
50	0xb8543ae6	-5.0599592e-05
51	0xb9881dab	-0.00025962046
52	0x398d1ed7	0.00026916593
53	0x391e7216	0.00015110555
54	0x39b8bc2f	0.00035235423
55	0xb988606c	-0.0002601178
56	0xb8592aa1	-5.1776533e-05
57	0xb7b41d66	-2.1471362e-05
58	0x3a04f792	0.0005072291
59	0x386d93de	5.6642915e-05
60	0x39d11e6a	0.00039886247
61	0x3911e704	0.00013914338
62	0x39f6f40e	0.0004710261
63	0x39e1d36e	0.00043072872
64	0x3912a8ee	0.00013986576
65	0xb944bde0	-0.0001876275
66	0x399f454c	0.00030378473
67	0xb9b66117	-0.00034786083
68	0x39d8b955	0.00041336814
69	0x30aea59a	1.2707233e-09
70	0x37d539be	2.5418467e-05
71	0xb8f7eb5c	-0.00011821717
72	0x39436b19	0.00018636546
73	0x37d4bbad	2.5359763e-05
74	0x394152ff	0.00018436833
75	0xb9402746	-0.00018325177
76	0x386405bb	5.4364773e-05
77	0x38f19ef4	0.00011521383
78	0x388169e6	6.1709245e-05
79	0x391adcbd	0.00014768816
80	0x38f784c1	0.00011802605
81	0x399f0468	0.00030330126
82	0x39709dd1	0.00022946975
83	0xb99a83cb	-0.00029471362
84	0xb900eb03	-0.0001229458
85	0x388e78f5	6.793618e-05
86	0xb8cc344d	-9.73722e-05
87	0x3939c21a	0.00017715283
88	0xb97185c0	-0.00023033377
89	0x38ba7806	8.891527e-05
90	0xb91ff90a	-0.00015256196
91	0x39be2821	0.00036269522
92	0xb9848c68	-0.00025281613
93	0x388b2801	6.635488e-05
94	0xb97f4e4d	-0.00024347864
95	0x398e91e4	0.00027193048
96	0xb929f4ac	-0.00016208243
97	0xb92ace16	-0.00016289236
98	0x38d678b4	0.00010226798
99	0x39063002	0.0001279712

7.weight f4 [10, 100]
0	0x3e45b997	0.19309078
1	0xbddd9c49	-0.10820825
2	0x3d085c53	0.033291172
3	0x3e76ddd2	0.24108055
4	0x3e0b3521	0.13594486
5	0xb9d7475c	-0.00041061162
6	0x37d2bb36	2.5121128e-05
7	0xbecf2cf6	-0.4046399
8	0xbd7b6361	-0.061374072
9	0x3e2a2bd6	0.16618285
10	0x3d8208f2	0.063493624
11	0x3ef01dd7	0.46897766
12	0xbe0dfd81	-0.13866235
13	0xbdc11104	-0.094270736
14	0xbef5f572	-0.48038822
15	0xbda4610d	-0.080263235
16	0x3e431abc	0.19053167
17	0x3d81d919	0.06340236
18	0x3dc59827	0.096481614
19	0x3e1c2f25	0.15252359
20	0x3e2bbbab	0.16770808
21	0xbdd8d5ce	-0.10587655
22	0x3ea00f9e	0.31261915
23	0xbe35f6fb	-0.17769997
24	0xbd4ca3b0	-0.049960792
25	0xbe2996db	-0.16561453
26	0xbea418c2	-0.3205014
27	0xbd92f9a1	-0.07176519
28	0xbe914613	-0.28373775
29	0xbe8a189a	-0.26971895
30	0xbe27feda	-0.16405812
31	0x3e102f40	0.14080524
32	0x3eb907f2	0.36138874
33	0x3df463bb	0.119330846
34	0x3e3cc65e	0.18435046
35	0x3e5d5bdb	0.21617071
36	0xbd86e81e	-0.065872416
37	0x3c819f52	0.01582304
38	0xbd89595d	-0.06706498
39	0xbe22cfaf	-0.15899538
40	0xbe76f8a0	-0.2411828
41	0x3d273a3c	0.04082702
42	0x3d5c631c	0.053805456
43	0x3eb4eb22	0.35335642
44	0x3d9e6ee7	0.07735997
45	0xba8cc53c	-0.0010739933
46	0xbe06a2f0	-0.13148093
47	0x3e8d3aee	0.27584022
48	0x3e4dfe41	0.20116521
49	0x3d333164	0.043748274
50	0xbe5a09b5	-0.21292765
51	0xbea4afab	-0.32165274
52	0x3e1c20f5	0.15246947
53	0xbe232f5b	-0.15936033
54	0xbeade8e0	-0.33966732
55	0xbe5d2736	-0.21596989
56	0xbc4a3aaa	-0.012343088
57	0xbcc63a63	-0.024197763
58	0xbdbb8999	-0.09157104
59	0x3ca02a08	0.019551292
60	0x3e429f85	0.19006164
61	0x3e8e223f	0.27760503
62	0x3e058de0	0.13042402
63	0xbe07f0c2	-0.13275436
64	0xbe8480b0	-0.2587943
65	0xbe5bc058	-0.21460092
66	0xbd284fe5	-0.04109182
67	0x3d868800	0.06568909
68	0x3e34d685	0.17659958
69	0xacd07435	-5.924617e-12
70	0x3dadbef1	0.08483685
71	0x3dff80e5	0.124757566
72	0xbca2f73b	-0.01989328
73	0xbcb73bb9	-0.022367345
74	0xbe206895	-0.15664895
75	0x3eb2f71b	0.34954152
76	0xbcce1c65	-0.025160024
77	0xbe676e5a	-0.2260069
78	0xbc8031f2	-0.015648816
79	0x3dc663cf	0.09687006
80	0xbe41fc3c	-0.18943876
81	0x3d97d2f0	0.0741328
82	0x3ec2ba62	0.38032824
83	0xbdc48fbc	-0.09597728
84	0xbd43770b	-0.04772095
85	0x3e8c3f8d	0.27392235
86	0x3df93542	0.12168361
87	0xbd37cdee	-0.044874124
88	0xbe16d9f6	-0.14731583
89	0x3dbc204c	0.09185848
90	0xbde649a4	-0.112445146
91	0xbe415ec6	-0.1888381
92	0xbe563c71	-0.20921494
93	0x3f166cdd	0.5875986
94	0x3ba3c9b5	0.0049984106
95	0x3cf0d8b5	0.029400209
96	0x3e8444ba	0.25833684
97	0x3ebd83eb	0.37014708
98	0xbead68dc	-0.33869064
99	0x3d712883	0.058876526
100	0x3dd339df	0.103137724
101	0x3dac8d48	0.08425385
102	0x3e9e5771	0.30926087
103	0xbd9644b1	-0.073373206
104	0xbe0477cc	-0.12936324
105	0x3a69ef14	0.000892387
106	0xb7d6b672	-2.5595746e-05
107	0xbd24da07	-0.04024699
108	0xbdcbaa82	-0.09944631
109	0xbe9dd0fe	-0.3082351
110	0x3e8a84b6	0.27054375
111	0x3b16e7ab	0.0023026268
112	0x3eb48230	0.35255575
113	0xbcd34ea0	-0.025794327
114	0xbc9745aa	-0.018465836
115	0x3e4776b6	0.19478878
116	0xbe836fc4	-0.25671208
117	0xbefc7ee3	-0.49315557
118	0x3ded6e01	0.11593247
119	0xbe810c99	-0.25204924
120	0x3d9267ec	0.07148728
121	0xbe32bd55	-0.17455037
122	0x3d97e771	0.07417191
123	0xbd118a63	-0.035532366
124	0x3d68b9c5	0.05681779
125	0x3e74a7cf	0.23892139
126	0xbe2911b5	-0.16510661
127	0xbdcddeaa	-0.100522354
128	0x3de1f960	0.11033893
129	0x3f067056	0.5251516
130	0x3e59c8e4	0.2126804
131	0x3decd750	0.11564505
132	0xbde2660c	-0.1105462
133	0x3b05dcb8	0.0020425748
134	0x3d95d849	0.07316644
135	0xbec4f9ab	-0.38471732
136	0xbe446639	-0.1917962
137	0xbe269ce6	-0.1627079
138	0xbe2d0d07	-0.16899501
139	0x3e0c5db9	0.13707627
140	0x3d8d8002	0.06909181
141	0x3e4e3350	0.20136762
142	0x3dbea2f8	0.093084276
143	0xbda29e5f	-0.07940363
144	0xbde114c9	-0.109902926
145	0x3cf7e0b9	0.030258523
146	0xbe5577f0	-0.20846534
147	0xbdcffc39	-0.101555295
148	0x3e41fadf	0.18943356
149	0xbe924933	-0.28571472
150	0xbcf26bce	-0.02959242
151	0x3eab14bc	0.33414257
152	0x3dc2127a	0.094761804
153	0x3e4f95ff	0.20272063
154	0x3e7baa96	0.24576792
155	0x3e930aba	0.2871912
156	0x3da89dbd	0.08233211
157	0x3e64ce20	0.22344255
158	0xbe55caf6	-0.20878205
159	0x3f2e8e3f	0.681858
160	0x3cc646d9	0.024203705
161	0x3c721f6f	0.014778002
162	0x3d8175df	0.0632131
163	0xbdb2c755	-0.08729426
164	0xbe16fbe7	-0.1474453
165	0x3e8783a7	0.2646763
166	0xbe156fe9	-0.14593472
167	0x3eb5ee04	0.35533154
168	0x3c2187ec	0.009859066
169	0xb083c9c4	-9.58885e-10
170	0xbefb2ac5	-0.49056068
171	0xbe8eb996	-0.27875966
172	0xbea355f4	-0.31901515
173	0x3e1d8364	0.15382153
174	0xbe0779af	-0.13230012
175	0xbec03f2f	-0.37548205
176	0x3dbb0471	0.091317065
177	0xbe3a28ab	-0.18179576
178	0xbe144cf4	-0.1448248
179	0xbe1084d1	-0.14113165
180	0xbe7a88a1	-0.24466182
181	0xbbe4028c	-0.0069583114
182	0xbe698b78	-0.2280711
183	0x3eda3844	0.42621052
184	0xbe33bddc	-0.17552894
185	0xbe5e322f	-0.21698831
186	0xbe7bb6ba	-0.24581423
187	0x3d0f5f4b	0.035002988
188	0xbdc5a964	-0.09651449
189	0x3e2ae8bd	0.16690345
190	0x3f031396	0.5120176
191	0xbe809960	-0.25117016
192	0xbba20172	-0.00494402
193	0xbc900fc0	-0.017585635
194	0xbc69d281	-0.014271379
195	0x3e068308	0.13135922
196	0xbd8c5877	-0.06852811
197	0xbd28ec6d	-0.0412411
198	0xbd119041	-0.035537962
199	0xbc203a6f	-0.009779557
200	0x3ebdbd21	0.37058356
201	0xbe95399e	-0.2914552
202	0x3e26df93	0.16296224
203	0xbe313d5e	-0.17308566
204	0x3e3d81b9	0.18506517
205	0x39807428	0.00024500606
206	0xb844d7c8	-4.6931003e-05
207	0x3c4a3f96	0.012344262
208	0xbda65af4	-0.08122817
209	0x3dab0aa7	0.08351641
210	0xbe3b0f39	-0.18267526
211	0xbd3dc9fe	-0.046335213
212	0xbe9ab952	-0.30219513
213	0x3e229937	0.1587876
214	0x3e49a739	0.19692697
215	0xbe704750	-0.23464704
216	0x3e407307	0.1879388
217	0x3cdcedc6	0.026968848
218	0xbe115daf	-0.14195894
219	0x3df8e2dd	0.12152646
220	0xbe241ea5	-0.16027315
221	0xbdea5cec	-0.11443505
222	0xbe06b8ae	-0.13156387
223	0x3ebba923	0.3665248
224	0x3d9d7457	0.07688206
225	0xbdc22435	-0.09479562
226	0xbc0d37fd	-0.008619306
227	0x3e18e9c0	0.14932919
228	0xbe25960f	-0.16170524
229	0xbde21fa1	-0.11041189
230	0xbe1c90e8	-0.15289652
231	0x3e801e2a	0.25023013
232	0x3e796df8	0.24358356
233	0xbe5dde14	-0.21666747
234	0xbe900e45	-0.28135887
235	0x3eb55efd	0.35424033
236	0x3ea6be53	0.3256708
237	0xbe43481e	-0.1907048
238	0x3d58142c	0.052753612
239	0xbdec05ee	-0.115245685
240	0x3e50e8f3	0.20401363
241	0xbece3c92	-0.40280586
242	0xbd7e226a	-0.06204454
243	0x3c3c9105	0.011509185
244	0xbe0042e8	-0.12525523
245	0x3e047c0d	0.12937947
246	0x3ee89ec7	0.45433637
247	0x3e765db4	0.24059182
248	0xbdf796b8	-0.12089294
249	0xbdb83855	-0.089951195
250	0x3dd2f457	0.103005104
251	0x3e4f582a	0.20248476
252	0x3dd72f0c	0.1050702
253	0x3e88fb78	0.26754355
254	0xbe3f4005	-0.18676765
255	0xbe53edee	-0.20696232

7.bias f4 [10]
0	0xb85a5e1f	-5.2062907e-05
1	0xb919b73d	-0.00014659479
2	0xb6457911	-2.9425757e-06
3	0xb787e186	-1.6198272e-05
4	0x389e0e1e	7.5366566e-05
5	0xb89f7b85	-7.604718e-05
6	0xb82319ca	-3.8886246e-05
7	0x390bce36	0.00013332893
8	0x39559cba	0.00020371648
9	0xb8ce8912	-9.848377e-05
