complete_verifier/models/eran/mnist_9_100_nat.pth (torch, 606874 bytes, 18 tensors)

1.weight f4 [100, 784]
000000 95 66 f6 3a d2 87 7e 3d 95 64 79 bd 5b 27 12 3d
       0.0018798882 0.062141247 -0.060886938 0.035682064
000010 a6 80 8a 3d 89 6b 29 bd 77 6c c5 3c 6d 2e 69 bc
       0.06762819 -0.04136232 0.024099572 -0.01423226
000020 a5 97 9c bc db e4 c6 bd f3 09 35 bd 63 40 f5 3c
       -0.019115278 -0.097116195 -0.04419894 0.029937929
000030 88 3a 4e bd a0 27 53 bd 8d 91 8d bd dc 00 c2 3c
       -0.05034879 -0.05155146 -0.06912527 0.02368205
000040 44 39 c2 bd e2 86 35 3d f3 f3 81 3d 28 e1 99 bd
       -0.09483579 0.044318087 0.06345358 -0.07513648
000050 ed ce 83 3d 70 dd 3e 3d e7 ed 8f bd 3b 84 ec bc
       0.06435952 0.046597898 -0.07027798 -0.028871646
000060 70 c9 6e 3c df 14 bf 3d d8 6f d4 bd 7f c7 1e 3e
       0.014574394 0.09330153 -0.10372895 0.15505789
000070 90 5c 01 3d d7 d9 07 3c d0 ab d1 bd 3f 57 dd bc
       0.031582415 0.008291683 -0.10237849 -0.027019141
000080 34 b1 0a be cb 6c af 3c c5 40 c8 3d 1b 0e 25 be
       -0.1354416 0.021414181 0.09777979 -0.16118662
000090 75 5a ea 3b ef 7e c8 3c f4 8c 09 3d 93 3b 10 3e
       0.0071518966 0.02447459 0.03358169 0.14085226
0000a0 9d 50 86 3d 9f 27 b4 bb 93 25 e3 3c ba f7 09 bd
       0.065583445 -0.0054978873 0.027727878 -0.033683516
0000b0 f2 73 08 be 27 50 83 bc 78 bf a9 3d d3 43 92 bd
       -0.1332548 -0.01602943 0.08288473 -0.07141843
0000c0 f5 29 7f bd af da 6e 3d 87 86 86 3c 74 56 f6 bd
       -0.062295873 0.05831402 0.01642157 -0.120282084
0000d0 d4 cf 35 be f7 29 e2 3d 9b ed 04 3d 01 66 92 bd
       -0.17755061 0.110431604 0.03245316 -0.07148362
0000e0 e5 c2 95 3d 3f 91 68 bd 7c a0 57 bc bd 54 24 3e
       0.07312564 -0.056779142 -0.013160821 0.1604795
0000f0 65 4b 9e ba 19 f2 0f bd 72 3b 28 3e 68 df c3 3c
       -0.0012076913 -0.03514299 0.16428927 0.02391024
000100 e4 6d e3 3d d9 fb 5b 3d 0f 80 03 3d 67 0b 25 bd
       0.11104944 0.053706978 0.032104548 -0.040294077
000110 ce af 28 bd 26 ee 07 3c 98 f8 eb 3d cd 4c 95 bc
       -0.041183285 0.008296525 0.11522025 -0.018225098
000120 50 1a 73 3d a1 f0 21 3e 2b 80 95 bd 80 90 b4 3d
       0.059351265 0.15814449 -0.07299837 0.08816624
000130 a8 d6 63 bd b4 56 43 3d 0b d1 c4 bc 34 2f e2 3c
       -0.055624634 0.04769011 -0.02402546 0.027610399
000140 7f 2b 90 3d dc 67 a2 bd 66 09 96 3c b8 75 fa 3d
       0.07039546 -0.07929966 0.018315028 0.12229484
000150 d0 75 84 bc ff 71 c8 bc 69 62 1d 3d ee 82 91 3c
       -0.016169459 -0.02446842 0.03842393 0.017762627
000160 4f d5 7f 3c 39 f8 f5 3d ae 80 8c bd 40 46 4b 3d
       0.015614822 0.12010235 -0.06860481 0.049627542
000170 ea 4f 8a 3d 53 90 2d 3c d7 68 98 3d 93 f9 86 3d
       0.06753524 0.010593492 0.074418716 0.06590571
000180 9d 9d 9a bc 53 08 53 3d 63 04 04 3e 7b c9 06 3e
       -0.018873984 0.05152161 0.12892298 0.13162796
000190 eb 68 d8 3d 17 75 4a bc a1 10 2a 3e 2c 5c c0 3d
       0.105668865 -0.012357018 0.16607906 0.093925804
0001a0 37 c1 2e 3e a5 d4 2c 3e 3d 19 bc bd 31 21 33 3e
       0.17065893 0.16877992 -0.09184501 0.1749313
0001b0 ff 7f c2 b9 66 2d 36 3e f3 85 63 3d ae 4e 0a 3d
       -0.00037097928 0.17790756 0.055547666 0.03376644
0001c0 c3 64 07 3d f7 ac 9b bc 58 a5 fe bd 48 b0 23 3e
       0.03305508 -0.019003375 -0.124338806 0.15985215
0001d0 28 ea 44 3d f1 b4 25 be 9d 4a ac bd 20 cd 7c bd
       0.04807487 -0.16182305 -0.08412669 -0.06171906
0001e0 d5 80 41 be 3a 2c 78 bd b5 e5 12 3d 15 ef a2 3d
       -0.18896802 -0.060589053 0.035863597 0.079557575
0001f0 68 d2 d7 bc 37 cb ac 3d ca fa 5b 3c e5 de d9 3c
       -0.026345447 0.08437198 0.013426492 0.026595542
000200 1f e0 52 3d a1 cf 5b bd 56 d5 e9 3d 36 35 99 bc
       0.05148327 -0.053664807 0.11417644 -0.01870213
000210 6d 7a 6c 3e a8 67 11 3e cd 7d bf bd 58 d6 ad 39
       0.23093577 0.14199698 -0.093501665 0.0003315683
000220 86 09 22 3d 4a de 0f be 48 92 ba 3c 27 23 07 3e
       0.039559864 -0.1404964 0.02277483 0.13197003
000230 47 4e 0a be 07 45 ad bc 5e 79 63 3d 69 72 d3 bc
       -0.13506423 -0.021151079 0.055535667 -0.025811391
000240 b9 9b 02 bd f5 eb bc 3d 29 b1 a4 3b 53 c3 f9 bd
       -0.03188679 0.09224693 0.005026002 -0.12195458
000250 b9 75 0f bd 3d 5a d4 bd f9 81 3d 3c 9a c4 0c be
       -0.03502438 -0.10368774 0.011566632 -0.13746873
000260 cb 8b 31 be bb 3a 46 be 48 16 0b bd 53 b6 a5 bc
       -0.17338483 -0.19358341 -0.033956796 -0.02022854
000270 ab a2 47 be 46 e6 5d be 63 e8 60 3d df 7f a6 bd
       -0.19495647 -0.21669874 0.05490912 -0.08129858
000280 ed 98 a3 3d 75 ca e4 3d 2c a3 b1 bd 50 7e c9 bd
       0.07988153 0.11171428 -0.08673701 -0.09838545
000290 36 bf 0c 3c f6 cd 55 3c 96 3d ad 3d 6a c4 d1 3d
       0.00859051 0.013049593 0.08459012 0.10242541
0002a0 82 15 e9 bd ff 03 9a bd 25 92 9f 3d 9d 68 88 3d
       -0.113810554 -0.075202934 0.07791547 0.066605784
0002b0 9f 7b 12 bd eb 39 4f bd 8c 3f 12 be e8 c2 24 3e
       -0.035762426 -0.050592344 -0.14282054 0.16089976
0002c0 85 d3 a0 bd c7 df ba 3c 90 89 bd bd ea df 21 bd
       -0.07852844 0.022811783 -0.092547536 -0.03952018
0002d0 71 52 c8 bd e0 01 39 be 78 de 8c be b9 10 66 be
       -0.097813495 -0.18067122 -0.2751348 -0.22467317
0002e0 ce 88 da bd 46 fb 02 3d c9 53 65 be 4f c5 ad bd
       -0.10670625 0.031977914 -0.22395243 -0.08484899
0002f0 27 31 26 be da 7b 7f bc f0 1e 8d be b0 20 52 be
       -0.16229688 -0.015593493 -0.27562666 -0.20520282
000300 d8 74 01 3e c0 39 6c bd 89 cf 4f be 93 30 58 bd
       0.12642229 -0.057672262 -0.20294012 -0.0527807
000310 c4 65 22 be 68 6c 00 be 3b 4c 25 be 8a 5b 06 be
       -0.15859133 -0.12541354 -0.16142361 -0.13120857
000320 46 bb 35 3d 3e 1f 08 bd 06 67 ed bd c0 21 1e be
       0.04436805 -0.03323292 -0.11591916 -0.15442562
000330 c2 ce d1 bd 4e 9b b7 bd 60 b5 07 be aa f2 8f 3d
       -0.10244514 -0.08965169 -0.13252783 0.07028706
000340 7b 94 02 be ce 86 2d be 42 8b 12 3d 0d e7 88 bd
       -0.12751953 -0.16945955 0.035777338 -0.066846944
000350 3f bf 71 be ae 50 a7 3b 5c 8d b3 bd d2 e8 b1 be
       -0.23608111 0.0051060533 -0.087671965 -0.3474794
000360 84 12 83 be 16 58 76 be db 30 3e be 08 67 10 be
       -0.25600064 -0.2405704 -0.18573324 -0.14101803
000370 7d e8 34 be 16 e6 2d bd d1 dd e4 bd 85 3e 34 3d
       -0.17666812 -0.042455755 -0.111751206 0.044004936
000380 63 4b f4 3d 99 f2 33 3e 05 c1 34 bd c9 49 12 3d
       0.119284414 0.17573012 -0.04412939 0.0357149
000390 07 a3 fc 3c 95 2a 2a be 43 b4 ca 3d 82 55 8b ba
       0.030839456 -0.16617806 0.098976634 -0.0010630342
0003a0 29 b7 02 3d 96 b8 27 bd ae 65 49 bd ac 3b 92 bc
       0.031912956 -0.04094752 -0.049169235 -0.01785072
0003b0 f0 fc 1d bd fe 46 35 3d 07 7f cc bc 82 ca a7 bc
       -0.038571298 0.044257157 -0.024962915 -0.020482305
0003c0 4b 78 5f be 55 81 61 be 95 81 f9 bd 3f 9d a5 be
       -0.21823232 -0.22021993 -0.12182919 -0.32346532
0003d0 23 b9 61 be b2 0c 83 be 72 50 37 be b5 6d c1 bc
       -0.2204328 -0.25595623 -0.17901781 -0.023611883
0003e0 97 e4 3a bd 38 12 7f 3d 5c b4 ba 3c 2b cb d4 bc
       -0.045628157 0.062273234 0.02279108 -0.025975784
0003f0 af 3b 1a be 83 04 43 3b 97 6d 06 be 8d d7 16 be
       -0.1506183 0.0029757328 -0.13127743 -0.14730664

1.bias f4 [100]
000000 e7 45 e5 3d cf e0 93 3d 48 82 c5 3d 87 f5 12 3e
       0.111949734 0.07220613 0.0964399 0.14351474
000010 66 cb 41 3e cb 7e 20 3d 8e 4b e2 3d c9 90 91 3d
       0.18925247 0.03918342 0.11049567 0.07107694
000020 db f1 5c 3e f7 98 14 3e 0b 07 e9 3d 69 7d 07 bd
       0.21576636 0.14511476 0.113782965 -0.033078585
000030 87 10 e0 3b e2 7d 7c 3d db 80 4f 3e 83 30 a8 3b
       0.0068379077 0.06164349 0.20263998 0.005132736
000040 89 09 a2 3d 6e 0c ee 3c 17 8f 3f 3d 74 84 bb bd
       0.07911975 0.029058661 0.04676732 -0.09156123
000050 a5 1b 8a 3d 3c a7 41 3d 5b e2 8a 3d 88 15 6d bd
       0.06743554 0.047278628 0.06781455 -0.057881862
000060 c6 c1 03 3e bb e8 0c 3e dc 9a 94 3d ff c7 c1 3d
       0.12866887 0.13760655 0.072560996 0.09461974
000070 d6 3a 4d 3d 8a 32 54 be 6d fa 77 3e db a2 89 3d
       0.05010494 -0.20722404 0.24216624 0.06720515
000080 c4 3f b2 3d 70 0b 48 3d 1f a5 06 3e 33 11 f6 3d
       0.087035686 0.048839033 0.13148926 0.12014999
000090 bb 9a ef bc be ed 01 3e 3d 9f 4e 3d 01 33 84 bd
       -0.029248586 0.12688348 0.05044483 -0.06455041
0000a0 d4 f5 7b 3e a5 be 8c 3d c7 ab ac 3d ad ed a4 3d
       0.24605495 0.068723 0.084312014 0.080531456
0000b0 51 52 92 3d 0c ef 48 3d 3f 05 32 3c 88 9f 11 3e
       0.07144607 0.049056098 0.010865509 0.14221013
0000c0 8a a8 5e 3d 52 d0 ce 3d f1 88 d3 3d f2 a0 f1 3d
       0.05435995 0.10098328 0.10328854 0.11798276
0000d0 1c 6b 11 bc 3d 2f f7 3d 2c af ca 3d 52 7c 18 bd
       -0.0088756345 0.12069557 0.09896693 -0.037227936
0000e0 ed 03 c4 3d ea 4e 99 3d c4 c0 e7 3d c6 7f f6 3d
       0.09571061 0.07485755 0.11316064 0.120360896
0000f0 c7 45 d6 bd 26 cb 07 3e b8 9a a1 3d 6e 35 3b 3e
       -0.10462528 0.13261089 0.078908384 0.182821
000100 a7 e4 05 bd c3 0c 04 3e 9e 43 9a 3d 39 5b a9 3d
       -0.032688763 0.12895493 0.07532428 0.082693525
000110 3e f5 50 3e 87 65 1e 3e ce 6e 2d 3e f8 a3 b1 3d
       0.20406052 0.15468417 0.169368 0.08673853
000120 87 f1 e7 3b 53 9d 78 3d d0 7f 94 3d 6b bc e1 3d
       0.007078353 0.06069691 0.07250941 0.11022266
000130 b5 f2 14 bd 68 bf b0 3d 56 3c 1a 3e 11 e1 1f 3e
       -0.036364276 0.08630258 0.15062079 0.156132
000140 25 30 f2 3d 0f 30 41 3e e4 da 8c 3d 81 a9 98 3d
       0.11825589 0.18865989 0.068776876 0.07454205
000150 10 0f d2 3d 44 0c d6 3d 0d ab cd 3d d4 ca 87 3e
       0.10256779 0.10451558 0.10042391 0.26521933
000160 3a 3a b9 3d 02 7d 30 3d 77 63 25 3e d3 b9 b9 3d
       0.09044309 0.043087967 0.16151224 0.09068646
000170 d0 f0 08 3e 54 99 e6 3d e6 d7 18 3e 70 5a d3 3d
       0.13373113 0.11259714 0.14926109 0.10319984
000180 ed 85 16 bc a0 9d db 3d ee 23 c2 3d 3e 3f 5c 3d
       -0.009187204 0.10723424 0.09479509 0.05377125

3.weight f4 [100, 100]
000000 50 ef 2b bd 9b 7c aa 3c bf da 2a be f2 b8 04 3f
       -0.041976273 0.02081137 -0.16685008 0.51844704
000010 51 28 49 be d0 ba 7d 3e 23 77 e3 bc 23 c8 bd bd
       -0.19644286 0.24778295 -0.02776677 -0.09266689
000020 a1 5e 55 3d 48 61 fd bc 84 96 18 3d df 84 50 bc
       0.0520922 -0.030930176 0.037252918 -0.012726991
000030 93 f2 81 bd 08 f5 02 3e 6f d2 ac bd 11 e8 21 3d
       -0.063450955 0.12788785 -0.084385745 0.039527956
000040 67 6c ff bb bd 5e 98 3e 4f 0f 1a 3e 1b 93 89 be
       -0.007794905 0.2975978 0.15044902 -0.26870045
000050 f8 6e 74 3e f2 cb aa bd 66 4f ba bd 56 3f 5f be
       0.23870456 -0.08339681 -0.09097175 -0.21801504
000060 00 54 61 b8 c5 42 2c 3e a8 c5 aa bd 86 01 2b be
       -5.372241e-05 0.16822346 -0.08338481 -0.166998
000070 f1 c3 f3 3c a1 dc 63 bd c5 13 43 3e ea 70 e6 bd
       0.029756518 -0.05563033 0.1905051 -0.112520054
000080 6e f1 06 3e ec cd f8 3d be 2b 51 bc 66 6c 95 bb
       0.13178036 0.121486515 -0.012766777 -0.0045600412
000090 6e da 92 3c be 9d ec 3d bb 40 62 be 31 91 3e be
       0.017926421 0.115535244 -0.22095005 -0.18610074
0000a0 b0 62 5a be ae ba b7 bd 14 00 62 bd 76 ac 03 be
       -0.21326709 -0.08971153 -0.055175856 -0.12858757
0000b0 36 d6 62 bd de 1c 12 be 03 c9 02 be e3 4a 7a bc
       -0.05538007 -0.14268824 -0.12771992 -0.015276643
0000c0 ad 22 07 be 97 27 7f 3d 8e d4 9c be 05 82 2a be
       -0.13196822 0.062293615 -0.30630916 -0.16651161
0000d0 b2 6f 5f bd 40 d1 c7 3e e3 4a 07 3c 70 ec 93 bd
       -0.05454988 0.39026833 0.0082576005 -0.07222831
0000e0 4b 3a 40 bd f5 a2 41 be b6 38 45 3e 54 63 6f 3d
       -0.046930593 -0.1890982 0.19259915 0.058444336
0000f0 34 3c bb be 56 d8 55 be c3 a9 13 be 0f 95 5a bc
       -0.3656937 -0.20883307 -0.14420228 -0.013341202
000100 87 16 04 3e f0 63 0d ba b0 89 c1 3c 9f 18 1a be
       0.12899218 -0.0005393615 0.023625225 -0.15048455
000110 56 09 89 3c 27 3b e0 bb fd bf 1c be c5 e8 e5 bd
       0.016728085 -0.006842989 -0.15307613 -0.11226038
000120 41 1f 24 3b 8d 90 61 3d 8a ce e8 3d d8 c8 ea 3c
       0.0025043043 0.055069495 0.11367519 0.028660223
000130 7d 29 24 be 6b 50 28 3d 8a 82 26 3d 97 9b 5d bd
       -0.16031452 0.041092318 0.040651836 -0.05410346
000140 99 69 16 3e 5f 5c 0c 3e 2e 8e b8 3d 25 b5 1d 3e
       0.1468872 0.13707112 0.090114936 0.15401132
000150 b4 70 91 3e 16 05 aa bd f2 d4 2d bc 39 fe e5 bd
       0.28406298 -0.08301751 -0.010609852 -0.1123013
000160 8c b7 b0 3c 70 b3 39 3e 1f c3 0d 3d 21 84 9d bd
       0.021571897 0.18134856 0.03460991 -0.07691217
000170 c4 5a 31 3e 5c e1 99 3d 83 08 f4 3c bd 1d 28 3e
       0.1731978 0.07513687 0.029789215 0.16417594
000180 71 b0 4c be dc 27 6f 3d 71 5c 5a be a8 c6 db bd
       -0.19989182 0.058387622 -0.21324326 -0.1073125
000190 b6 37 ea bd 32 f7 37 bc 08 f6 15 3e 6a 54 99 bd
       -0.11436407 -0.01122837 0.14644635 -0.07486804
0001a0 87 af b5 bd e4 80 0a bb 06 81 da bc b9 70 c8 bc
       -0.0887137 -0.0021133954 -0.026672851 -0.024467813
0001b0 44 6c e7 3d 6e 64 d3 3d 81 72 a9 bd 8e 4f 3d bd
       0.11299947 0.1032189 -0.08273793 -0.046218447
0001c0 be de ce bd 06 ea 48 3d 78 35 76 3d da b5 23 be
       -0.101010785 0.049051307 0.060109586 -0.1598734
0001d0 1c 0c aa bc 81 05 23 bd bf 57 11 be 31 c2 26 3c
       -0.020757727 -0.03980017 -0.14193629 0.010178135
0001e0 ff 0e 1c 3e 93 a6 a1 bd 51 e6 f9 bd 32 a5 48 bc
       0.15240096 -0.078931 -0.122021325 -0.012246417
0001f0 4b 58 b8 3b b1 58 32 be c2 39 ca 3d fd 34 e5 bc
       0.0056257597 -0.17416646 0.09874298 -0.027979368
000200 33 85 20 3b bf 26 bd bd 20 48 17 3c 4f 1c 8a bc
       0.0024493455 -0.09235906 0.0092335045 -0.016859202
000210 e3 57 e3 3c ef cd a9 3c e6 c3 ed bd 8f f1 00 be
       0.027751869 0.02072808 -0.1160963 -0.12592147
000220 34 28 18 be 3c 6c 48 3d 85 ae a3 3d 70 28 df 3d
       -0.14859086 0.048931345 0.07992271 0.10896385
000230 c7 06 0e be 60 fc cf bc 52 d2 08 be 8a 0c 3d bd
       -0.13869773 -0.025388896 -0.13361481 -0.046154536
000240 3c f2 81 bc 8f 3f a3 3c 8d 64 ec bd 22 77 83 3d
       -0.015862577 0.019927768 -0.11542616 0.06419207
000250 37 75 e1 bd b1 dd 8d bd 10 0e 79 3e 6c 7d cc bc
       -0.11008685 -0.0692705 0.2432177 -0.02496215
000260 7d 37 19 3e 19 4e 8d bd f9 5b dd 3c 83 53 c4 3d
       0.14962573 -0.068996616 0.027021395 0.09586241
000270 4b 7f fe 3c 04 1d 8f bd 06 3d fe bd 5c 86 fa 3d
       0.031066557 -0.06987956 -0.12413983 0.12232658
000280 88 86 21 bd dc 5d e7 bd af 27 46 3c ca 2f b8 bd
       -0.03943494 -0.11297199 0.012094422 -0.0899349
000290 73 7d 3c 3e fb 06 f1 3c 74 46 f2 bd 8b 84 f8 bc
       0.1840723 0.029422274 -0.11829844 -0.030336639
0002a0 c7 9f 9c bd f3 a0 b7 ba 0b 4b 4a be 43 1a e1 3c
       -0.076476626 -0.0014009759 -0.19755189 0.027478343
0002b0 38 ff c8 3d a1 03 9f bd 99 4c aa 3a d4 6e 10 3e
       0.09814304 -0.07764364 0.0012992799 0.14104778
0002c0 44 b2 e4 3c 2f ab 3f 3c 57 39 11 3c 7b b7 8d bc
       0.027917035 0.011698528 0.008863769 -0.017299404
0002d0 4b 1f af bd c8 95 07 bd bc da 10 3d 3c fe e0 bc
       -0.085508905 -0.033101827 0.03536485 -0.027464978
0002e0 09 e7 ac bd 8b 8a 09 be d6 75 0d bb 4a ff 0e 3b
       -0.08442504 -0.13431756 -0.0021585128 0.0021819645
0002f0 07 73 95 bd fc be 80 bd 5c 52 14 bd 70 55 60 3b
       -0.0729733 -0.062864274 -0.036211357 0.0034230612
000300 14 a2 e7 bb d3 70 b7 bd c6 78 3b 3e c3 9b 2c be
       -0.0070688818 -0.089570664 0.1830779 -0.16856293
000310 19 95 59 3e a4 8e 39 3d 07 04 15 3e 15 f5 0d be
       0.21248282 0.04530205 0.14552318 -0.13863023
000320 91 23 2a 3d 62 62 0c 3e ba ef 44 bd be da b4 bd
       0.041537825 0.13709405 -0.048080184 -0.08830784
000330 e1 10 e9 bd 43 e9 08 be e8 74 a9 3d a8 4f 4b bc
       -0.113801725 -0.13370232 0.08274251 -0.012409128
000340 d6 d8 97 3e 7c 76 26 bc ca 4b e0 bd 56 bd b7 bc
       0.2965762 -0.010160085 -0.109519556 -0.02242915
000350 a0 87 cd bd 08 74 a4 bd 4f b5 67 bd 9b a9 d5 bc
       -0.10035634 -0.08029944 -0.056569394 -0.02608185
000360 1b e8 91 3d 22 3a be bd 48 7b e7 bd e6 03 d2 bc
       0.07124349 -0.09288432 -0.11302811 -0.025636625
000370 30 35 05 be 5d af 4e 3d 69 58 22 be 5f 95 4e 3d
       -0.1300857 0.05046021 -0.15854038 0.05043542
000380 38 1e 97 3d ae 2c 3a be 47 ff 95 bd b4 51 0d 3e
       0.07378811 -0.18181106 -0.07324081 0.13800699
000390 f0 2b 2f be 13 98 31 be 56 0a 84 bd 8d 01 6b 3c
       -0.17106605 -0.17343168 -0.06447284 0.014343631
0003a0 f0 ad b2 bd 70 78 c9 3c 4f 86 b0 bb e7 38 c1 3d
       -0.08724582 0.024593562 -0.0053871046 0.094346814
0003b0 3f 63 46 3d 24 99 bd 3c 61 f5 73 be a9 24 8e 3d
       0.048434492 0.023144312 -0.23824073 0.06940586
0003c0 6f 99 26 3e 7f be 21 ba aa 20 0d be cf 59 c0 3d
       0.16269468 -0.0006170049 -0.13781992 0.0939213
0003d0 47 c1 2f bb 98 e8 2e be 65 af a1 bb e9 a0 02 3e
       -0.0026818083 -0.17080915 -0.0049342387 0.12756695
0003e0 a5 c9 86 3c 5a 63 ec 3c 7f ff 1a 3e 19 c7 c7 3d
       0.016453573 0.028855968 0.15136527 0.09754772
0003f0 a8 98 9d bd 2a 15 f9 bd 2d 65 b6 3d 45 3d e2 bd
       -0.076951325 -0.1216224 0.089060165 -0.110468425

3.bias f4 [100]
000000 f5 54 11 bd a7 da 9d 3d fb 65 a8 3d 97 77 f8 3d
       -0.035481412 0.0770772 0.08222576 0.12132185
000010 c0 1f d4 3d 1c 88 91 bd cb 99 08 bd 87 90 8f bd
       0.10357618 -0.07106039 -0.033349793 -0.07009988
000020 b3 84 df 3d 34 55 ec 3c a2 9b 8d 3d 70 db 7a bd
       0.10913982 0.028849222 0.0691445 -0.06124443
000030 b1 b3 30 3e 17 30 f5 bc a4 08 1e bd 44 93 21 3c
       0.17256047 -0.029930158 -0.03858246 0.009861771
000040 b7 89 60 bd 77 d9 fc 3d dc f5 aa 3d 67 d2 66 3e
       -0.054818835 0.123461656 0.08347675 0.225412
000050 d3 a1 6b 3b 69 3b 4b 3e 62 49 e9 bc 5a e5 8f 3c
       0.003595461 0.19846882 -0.028477374 0.017565418
000060 09 94 83 3d 45 88 af 3d 00 bb 57 3d ba 38 17 bd
       0.0642472 0.08570913 0.05266857 -0.036919333
000070 f3 6f 34 be 63 94 d5 3d 24 b0 20 3e 2d c2 0b 3e
       -0.1762083 0.10428693 0.15692192 0.13648291
000080 00 d7 2d 3c e3 19 ea 3c 5e 85 a2 3d 25 47 cf 3d
       0.010610342 0.028576797 0.07935594 0.101209916
000090 3c 1b 3d bc 3c 92 ea 3d 16 f8 bb 3d 64 5b f6 3d
       -0.011542138 0.11453673 0.09178178 0.1202915
0000a0 7d d8 34 3e 70 65 30 3d d4 23 f2 3d f6 7d e6 3d
       0.17660709 0.04306549 0.1182324 0.11254494
0000b0 ff 30 4c 3d 9e d4 75 bb e8 18 03 3b 09 17 38 bd
       0.049851414 -0.0037510763 0.002000386 -0.044943843
0000c0 bc 64 c2 bc 94 45 9d 3a 42 43 0f 3e 56 5f 53 3c
       -0.023729675 0.0011998885 0.139905 0.012901148
0000d0 41 0f 35 3d 52 b9 09 3d c0 f1 d0 3d 53 28 07 3d
       0.044204 0.033624 0.1020236 0.03299744
0000e0 ee af 84 bd b2 11 39 3e 18 28 20 3b 01 c1 88 3d
       -0.064788684 0.18073156 0.002443796 0.066774376
0000f0 f8 d3 5d 3d aa ab 63 3e 9f 01 aa 3d 81 71 a1 3c
       0.054157227 0.22233453 0.083010904 0.019707443
000100 2a 0d 89 bc c9 93 f7 3b ba 72 93 3c ec fe 9c 3d
       -0.01672991 0.007555459 0.017999042 0.0766581
000110 9c 9c d6 3d 88 91 69 3d 56 32 f1 3d 7f dd 53 3d
       0.104790896 0.057023555 0.11777179 0.051724907
000120 28 0c 99 39 2e f7 02 3e 66 b9 90 bc 73 5c 0e 3e
       0.0002919149 0.12789604 -0.01766653 0.13902454
000130 14 6b 8f 3d 9d ac 4f bd 3c a6 4f 3e 8e 06 1f 3d
       0.070028454 -0.050701726 0.20278257 0.03882461
000140 c6 89 90 3d 34 5d 01 3e 05 b9 ec 3d 8a 79 8f 3d
       0.07057528 0.1263321 0.11558727 0.070056036
000150 da cc 22 3d f8 79 01 3d 73 49 e2 3d 02 d6 d5 3d
       0.039746143 0.03161046 0.110491656 0.104412094
000160 57 d9 1d 3c 06 42 3b 3d 33 4b 50 3d 56 8c e4 bc
       0.009634337 0.04571726 0.050852966 -0.027898949
000170 a6 68 65 3e c5 67 2a 3d 3d cd d8 bd ce 5f 36 3c
       0.22403201 0.04160287 -0.10586021 0.01113124
000180 ba 90 f5 bd a8 95 a3 3d 92 81 b0 3c dc c6 34 3e
       -0.11990495 0.07987529 0.021546159 0.17653984

5.weight f4 [100, 100]
000000 c5 08 b6 3d 7b 28 07 be b8 db 03 bd e6 4f 86 3c
       0.088883914 -0.13199036 -0.032191962 0.01639552
000010 f6 e2 0f 3e 74 73 aa 3c 9f f2 86 bc b1 f1 a0 bd
       0.14051422 0.020807005 -0.016473113 -0.07858599
000020 fd 7a cd 3c 55 10 4f bc d7 b3 2b 3e 26 5d 29 bd
       0.02508306 -0.012638171 0.16767822 -0.0413486
000030 fe 65 a6 bd 8f 48 51 3e e0 ff 23 3e d8 b6 89 3e
       -0.08124922 0.20437835 0.16015577 0.2689731
000040 2c 80 52 3d fa 4e f6 3d ca e9 c3 bb fa 24 3d be
       0.051391765 0.12026782 -0.0059787976 -0.18471137
000050 7d d4 30 be ed 41 59 3d e3 e7 af bd 63 cb 28 3e
       -0.17268558 0.053041387 -0.08589151 0.16483836
000060 80 75 02 be 46 df 12 3d 03 12 52 bd 6c ea 98 3c
       -0.12740135 0.03585746 -0.05128671 0.018666469
000070 ec f0 1b be be 98 e0 3d 3d 74 d3 3d f5 32 92 bd
       -0.15228623 0.10966633 0.10324905 -0.071386255
000080 63 7e 1f be a7 1a 9a 3c 40 98 81 bd b5 80 96 bd
       -0.15575556 0.018811537 -0.063278675 -0.07348768
000090 e9 b6 ac 3d bd 54 2b 3b 36 68 91 3c 87 a4 9f 3d
       0.08433325 0.0026143037 0.017749887 0.07795053
0000a0 fd 51 24 bb 12 66 5b 3c 60 56 63 bd c8 de c8 bd
       -0.0025073283 0.013391035 -0.055502295 -0.09808117
0000b0 90 4b 8f ba 3d b4 3e 3e fe 7b 53 bd a3 a8 8a bd
       -0.0010932554 0.18623443 -0.05163192 -0.06770446
0000c0 08 9d f7 3d 73 f4 09 3e 3e 61 48 be b6 b2 bd bd
       0.12090498 0.13472156 -0.19568345 -0.09262602
0000d0 d5 32 93 3d 9b c7 c3 3b d4 95 c4 3d 3c 83 e9 3c
       0.0718743 0.0059747226 0.0959889 0.02850496
0000e0 af 4c c3 bd 5c 3c 56 3e c6 ae b5 bd e0 fb 40 bd
       -0.095361106 0.20921463 -0.08871226 -0.047115207
0000f0 cf c7 62 bd e0 8b 8e bb 50 76 91 bd 08 95 a9 3c
       -0.055366334 -0.0043501705 -0.071026444 0.020700946
000100 40 f0 14 be fe c3 7a bd 0a f0 1b 3e c9 83 ba bd
       -0.14544773 -0.06122207 0.15228286 -0.09107167
000110 33 52 aa bb 3f da 0b be 8b 55 1a 3d 94 36 05 be
       -0.005197787 -0.13657473 0.037679236 -0.13009101
000120 f6 93 09 3e 38 76 f8 bd 8f f2 c5 3c 8d 40 d3 3c
       0.13435349 -0.121319234 0.024163513 0.025787616
000130 96 d0 3f bc 62 3d f8 bd 63 0c f0 bc 2a da 8e 3d
       -0.011707446 -0.12121083 -0.029302781 0.06975205
000140 c7 8e 33 bd e0 ae 3b ba fe de fa 3d 13 4a 78 bc
       -0.043837335 -0.00071595423 0.12249564 -0.015154379
000150 39 2f 75 be 80 f9 73 bd 33 a1 f5 bd 25 eb 8e bd
       -0.23943795 -0.059564114 -0.11993637 -0.06978444
000160 b2 69 31 be d6 10 13 be d7 aa 37 bd 0d ec bf 3d
       -0.17325476 -0.14361891 -0.04484066 0.09371195
000170 a4 9e 8c 3d d0 5f 72 be 18 f9 e9 bc 32 0a 9d 3b
       0.06866196 -0.23669362 -0.02856116 0.004792475
000180 9f d5 69 bd 5a a3 c8 bd 91 93 06 3d a3 77 c0 3d
       -0.05708849 -0.09796782 0.032855574 0.09397819
000190 ef 9c 46 3e 25 1b b7 3c ce fb 48 bd b7 fc 99 3c
       0.19395803 0.02235181 -0.049068265 0.018797262
0001a0 60 dd 6e 3e 59 d4 2f be 75 f9 b3 bd 77 5f 34 bd
       0.23326635 -0.17170848 -0.087878145 -0.044036355
0001b0 c8 3f 63 bd 68 08 69 3c ed 56 01 3e 80 8e e2 bd
       -0.05548075 0.014223196 0.12630816 -0.11062336
0001c0 6b 57 e3 3d e9 80 8d bb 8f c3 f1 3d 6a ac 99 bd
       0.11100658 -0.004318346 0.11804878 -0.075035885
0001d0 b2 dc 2a be 65 b7 66 3e 14 d0 23 3c c3 ff 60 bc
       -0.16685751 0.22530897 0.00999834 -0.013732853
0001e0 ae 49 05 3e 08 08 85 be 6c 87 c8 bd 3e c2 1f bd
       0.13016388 -0.2598269 -0.09791455 -0.039003603
0001f0 b3 cf 2a bd c6 6b 2c bc 03 7e 45 be f8 5e 43 be
       -0.041701984 -0.010523742 -0.19286351 -0.19079196
000200 b9 08 93 3d e9 42 45 be eb a9 f9 bc 56 16 6a bd
       0.07179398 -0.19263805 -0.030476531 -0.057150207
000210 86 94 c1 bd 98 3e 41 be d4 64 ae 3c c2 75 46 be
       -0.09452157 -0.18871534 0.021288313 -0.19380859
000220 4b 37 83 bd 66 ff 54 bd df a9 b8 bd f3 7d 85 3e
       -0.06407031 -0.05200138 -0.09016775 0.26072654
000230 54 a8 15 3c 44 f8 ae be 10 55 14 be 9f 2e d7 3c
       0.009134371 -0.34173787 -0.14485574 0.026267348
000240 3d 14 77 3d 41 29 3a 3d 4e c3 b0 bd 99 e1 13 be
       0.060322035 0.0454495 -0.086310014 -0.14441527
000250 41 07 85 3d 89 28 b9 bc c3 1b e4 bd 14 28 cf 3d
       0.06495524 -0.022602336 -0.11138108 0.10115066
000260 62 92 e8 3c a3 2f a4 3e ef ad bd 3d 19 19 26 be
       0.028390113 0.32067594 0.09261691 -0.16220511
000270 f9 43 ba bd 31 29 84 3e fa 20 96 3e b8 33 69 be
       -0.09094996 0.25812677 0.29322034 -0.22773635
000280 8b cb aa 3b 15 11 db bd fa f6 28 be 52 7e c6 bc
       0.0052122525 -0.106966175 -0.16500464 -0.024230156
000290 82 dc 7e be 55 d6 8a 3e 5f 74 be bc 8a 61 22 3e
       -0.24888805 0.27116647 -0.02324885 0.1585752
0002a0 cd 09 84 bd 00 16 e8 3c d8 85 91 3d e4 3f 67 3d
       -0.06447182 0.028330803 0.07105607 0.056457415
0002b0 37 92 51 3d 0d ea c4 3d 37 bf d5 bc b9 59 04 3e
       0.051164832 0.09614954 -0.026092155 0.12924851
0002c0 6c 85 09 be 20 24 63 be 72 55 d9 bd 7c 52 94 be
       -0.13429803 -0.2218175 -0.106120005 -0.2896918
0002d0 cd 72 77 3e 07 fa 5b be 4f 87 1f 3e ab 82 7a 3e
       0.24164887 -0.21482097 0.1557896 0.24463908
0002e0 06 be 66 3e 92 fb 2b 3e c1 9b 25 3e aa 90 ac 3d
       0.22533426 0.16795185 0.16172697 0.0842603
0002f0 13 f6 22 3e 6c d4 2f be 46 ee 33 bc a6 b0 16 bc
       0.15914182 -0.17170876 -0.010982102 -0.00919739
000300 c7 0b 98 bd 2e a4 83 bd 13 38 8b bd 46 89 80 bd
       -0.07424121 -0.06427799 -0.06797805 -0.06276183
000310 9d 45 24 be ed 33 52 be f4 dc 01 bd 91 f1 b8 3d
       -0.1604218 -0.2052762 -0.031704858 0.0903045
000320 b6 d2 73 3d bf d0 4f bd 59 3f d4 bd 75 fb 10 3d
       0.05952712 -0.050736185 -0.10363645 0.035396058
000330 1d a5 f2 3d 41 d8 bd bc 23 a1 1f 3e 3c e6 21 3d
       0.11847899 -0.023174407 0.15588813 0.03952621
000340 2d 59 b6 bd 19 c3 33 3d 41 dd cb 3d 44 a8 8f 3d
       -0.08903728 0.04388723 0.0995431 0.07014516
000350 5b bd c4 bd 59 b2 01 3e b6 95 05 be 44 19 cf bb
       -0.09606429 0.1266569 -0.13045391 -0.0063201506
000360 37 62 9b bd 54 10 28 be 1e 54 2e 3c a9 04 93 be
       -0.07587092 -0.16412479 0.010640172 -0.28714493
000370 ea e7 32 be e0 9b 8a bd 0c 72 f0 bc 67 95 2e bd
       -0.1747128 -0.06768012 -0.029351257 -0.04262295
000380 16 9c 7a bc 1c 26 93 3c 90 07 09 bd bc d2 44 be
       -0.015296003 0.017962508 -0.033454478 -0.19221014
000390 03 d0 c8 3b 01 67 15 3d 07 a4 30 be ef ad 5f be
       0.0061283126 0.036475185 -0.17250071 -0.21843694
0003a0 72 64 85 3d ca eb 4a 3d af 62 4d 3d 14 ba 4a be
       0.06513299 0.049541272 0.05014294 -0.19797546
0003b0 0d bf 5c bc fe ec 6a be 7f 72 bb 3d d2 af 39 3d
       -0.013473284 -0.22941968 0.09152698 0.04533369
0003c0 76 16 0f bd 8d 53 cd bd ac d2 01 be 65 e6 55 bd
       -0.03493353 -0.10025702 -0.12678021 -0.052221674
0003d0 21 0a 2f be d6 74 55 3e 1f 93 6e 3c 50 98 a1 bb
       -0.17093708 0.2084535 0.014561444 -0.004931487
0003e0 81 0c 31 be cf bb ef 3c 3e 0c 2b be c7 88 68 3d
       -0.17289926 0.029264359 -0.16703889 0.056771066
0003f0 bb 4e 8b bd 06 d4 64 3e 07 81 47 bd 56 41 c3 bd
       -0.06802126 0.22346506 -0.048707034 -0.09533946

5.bias f4 [100]
000000 08 38 20 bc 3e 29 dc 3d 87 4f 2a bd 81 5c a1 3c
       -0.009778984 0.10750054 -0.04157975 0.01969743
000010 e8 e9 bb 3d 31 8e 26 3e c8 e4 f1 3d d8 47 a9 3d
       0.091754735 0.16265179 0.11811215 0.08265656
000020 17 87 94 3d ae 4c 45 3a e3 13 cf 3c b2 1f a6 3d
       0.07252329 0.000752638 0.025278037 0.08111514
000030 37 41 3e 3e d5 e4 58 3d e6 b8 2d 3c 45 27 af 3c
       0.18579565 0.052952606 0.010603165 0.02138103
000040 ac 2c b6 3d 59 53 b0 3d 12 a7 aa 3c a9 92 ec 3d
       0.08895239 0.08609647 0.020831618 0.11551411
000050 e2 e3 d9 3d d2 de 39 3d be 58 20 3e c6 7b b0 bd
       0.10639168 0.045378514 0.15658852 -0.08617358
000060 d6 b9 6a 3c b0 a0 cb 3d cd 6c a5 3c 83 91 6a 3d
       0.014326533 0.09942758 0.020193482 0.057267677
000070 82 cd 5e 3d 98 f3 2f 3d 81 b1 91 3d 8f 8b 0d 3e
       0.054395206 0.04295692 0.07113934 0.13822769
000080 5f 9b d6 3d 50 c2 89 bd 65 2b 65 3e a9 fd 11 3d
       0.104788534 -0.06726515 0.22379835 0.0356423
000090 36 5f 9e 3d 9f 62 9b 3d 47 a5 52 3e 82 18 91 bc
       0.07733004 0.0758717 0.20570861 -0.017711882
0000a0 5d 18 d1 3d 45 42 6a 3d a2 6a 1a 3e 63 d8 b4 3d
       0.10209725 0.057192106 0.1507974 0.08830335
0000b0 97 b0 59 3d 02 e8 39 bd fb b8 84 3d 82 35 86 bd
       0.053146925 -0.045387276 0.06480595 -0.065531746
0000c0 a0 19 b2 3c bf 9b d6 bc 4d fa 92 3d 5d 44 30 bd
       0.021740735 -0.026197312 0.07176647 -0.043033946
0000d0 4e cd b5 3c bd d2 87 3d 51 eb c1 3c 1c 26 11 3c
       0.022192623 0.06631992 0.023671778 0.008859184
0000e0 f6 18 ea bc 1b 70 47 bc 39 50 8b 3d 44 00 98 3d
       -0.028576355 -0.012172724 0.06802411 0.07421926
0000f0 eb 61 70 3d 48 b2 cd 3c 7e 96 45 3d eb f1 cd 3c
       0.05868713 0.025109425 0.048239224 0.02513977
000100 34 8a 66 3e 7b bc 91 3d 72 2a cd 3d b6 ce 55 3d
       0.22513658 0.07116028 0.100178614 0.052199088
000110 cd 2f f5 3d 1b 1b c3 3c 07 4d 1f bc a4 18 8f 3d
       0.11972008 0.023816636 -0.009722955 0.06987122
000120 f3 4f 85 3d 39 7f 88 3c d1 8a 85 3d c0 16 d1 3d
       0.0650939 0.016662227 0.06520618 0.10209417
000130 28 85 db 3c d2 5d 06 3d 29 1f e6 bd 13 27 71 3d
       0.026796892 0.032804318 -0.11236412 0.058875155
000140 81 8c b0 3d 98 ba ec 3d 4b 50 c3 3d 61 45 1f 3d
       0.08620549 0.115590274 0.09536799 0.038884524
000150 98 8e 2c 3d a7 57 10 3e af 0c 6f 3d 2c 68 46 3c
       0.042128175 0.14095937 0.058361705 0.012109797
000160 08 2d 37 b9 ce 25 1d 3e a1 32 40 3e 84 f3 ad 3c
       -0.00017469015 0.15346453 0.18769313 0.021234281
000170 d5 95 00 3e c5 ff 40 3e 2f 27 bb 3d fc de 21 bc
       0.12557156 0.18847568 0.09138333 -0.009879824
000180 ab 2f 94 3d 18 87 26 3b 2a 71 89 bd 75 a0 60 3d
       0.072356544 0.0025410112 -0.067110375 0.054840524

7.weight f4 [100, 100]
000000 66 a8 6e bb 80 3c a9 bd 4c 2e 8b bd 1a 77 ab 3d
       -0.0036416291 -0.082634926 -0.0679594 0.08372326
000010 eb 1e c2 3d 27 eb ef 3c d1 8a e3 bc ea 0a 12 bd
       0.094785534 0.029286934 -0.027776154 -0.03565494
000020 db 73 d1 3d 49 30 23 3d e6 42 27 3e 88 37 fd bd
       0.10227176 0.03984097 0.16334113 -0.12364107
000030 3c 1e 87 3d bd 5a b9 3d 91 9a fc 3b d1 49 1d 3e
       0.065975636 0.0905051 0.0077088554 0.1536019
000040 3d 0b 3c 3d 6c a1 00 3d 94 b3 2b be 3c 65 c1 bd
       0.045909155 0.031403944 -0.16767722 -0.09443137
000050 b9 80 c4 bd b1 fa c4 bc fd 23 ea bd fa 2d 25 bd
       -0.095948644 -0.02404532 -0.114326455 -0.04032705
000060 c3 00 38 3d e6 c4 f5 bd b8 3c 56 3d 1d 7b f2 bc
       0.0449226 -0.12000446 0.052304 -0.02959972
000070 68 da b0 bd 67 c5 7c bd 50 69 c6 3c 85 0c 59 ba
       -0.08635408 -0.061711695 0.024220139 -0.00082797586
000080 53 8e 51 3e 3a 87 33 bc 61 fd 0c 3e 59 ef 01 3c
       0.20464449 -0.0109575335 0.13768531 0.0079306
000090 d9 7e ce 3d d3 89 97 bd a6 1a dd 3d 97 c9 35 be
       0.10082788 -0.07399335 0.107960984 -0.17752682
0000a0 82 50 1b bd 87 36 14 3e 55 49 b5 3d 56 de c0 3d
       -0.037918575 0.14473926 0.088518776 0.09417407
0000b0 da c9 a6 bd ec 8d 9b bd c8 7d a5 bd 50 12 f9 3d
       -0.08143969 -0.07595429 -0.080806315 0.12161696
0000c0 da 6a 16 bc c8 6e 40 bd 37 72 f5 3c 72 9b 2d 3b
       -0.009180749 -0.04698065 0.029961688 0.0026490358
0000d0 b6 eb 4c be 9b c7 c8 bc 17 eb ae bd c7 f4 8f 3d
       -0.20011792 -0.024509242 -0.085409336 0.070291094
0000e0 e4 82 58 bb c4 14 a1 bd 29 fc 1f be b9 33 53 bd
       -0.0033037001 -0.07865289 -0.15623535 -0.051563
0000f0 a8 8b 35 be bc 30 e0 bc e6 22 47 be a5 38 57 3d
       -0.17729056 -0.027366988 -0.19446906 0.052544255
000100 8c ab 6f 3e 76 6a b3 3d 7a 48 06 3d 3e c7 9d 3d
       0.23405284 0.0876054 0.032783963 0.07704018
000110 a9 2f 7f 3c 70 a0 cd 3d 27 78 41 3d aa 34 0a 3e
       0.015575328 0.10040367 0.047233727 0.13496652
000120 24 1d ac bd 55 5d d3 3d e8 00 3b be 7c 10 37 be
       -0.08403996 0.10320536 -0.18262064 -0.17877382
000130 1f 02 28 bd 8d 91 37 3d 98 aa 31 3d b8 12 49 3e
       -0.041017648 0.044816542 0.04337558 0.19636047
000140 27 39 a4 3d b0 3b 34 bd 69 e4 13 3e 82 34 95 bd
       0.080187134 -0.044002235 0.144426 -0.07285406
000150 8a 39 75 3c 8b 85 07 3d de e1 f9 bd 96 47 a2 bd
       0.014967332 0.03308634 -0.12201284 -0.0792381
000160 a6 d4 a2 bc ee 82 2c 3e 11 81 18 bd a5 2b 8c 3d
       -0.01987679 0.1684682 -0.037232462 0.06844262
000170 b1 73 4a bb 3b b7 1b 3e 8f 06 00 3d c7 f1 ed 3d
       -0.0030891711 0.15206616 0.031256255 0.11618381
000180 cd a1 21 3e c8 a9 87 bc f2 97 39 be dd 79 03 be
       0.15784378 -0.01656045 -0.18124369 -0.12839456
000190 07 dd 27 3c 2f 26 5c be c6 7f 64 3c 43 22 88 3d
       0.010245568 -0.21498941 0.013946479 0.0664716
0001a0 63 b6 9f 3d b1 fb c3 3d 8d 57 d5 3c 5d 41 de bc
       0.077984594 0.09569491 0.026042724 -0.027130777
0001b0 ed 54 d2 3d 65 cd 3a 3d 26 f3 05 3e b5 61 17 be
       0.102701046 0.045606036 0.13081035 -0.14783366
0001c0 e4 6e d4 3c 63 c1 f6 bc b9 57 0f 3d c2 4a 37 3c
       0.025931783 -0.03012151 0.03499577 0.011187257
0001d0 38 28 37 3d 06 ae d5 bd d3 bb 12 be f6 33 1d be
       0.04471609 -0.10433583 -0.14329462 -0.15351853
0001e0 e7 bf 2b 3e 93 ab 6e bd 19 7b ce 3d 75 76 40 3e
       0.16772424 -0.058269095 0.10082073 0.18795188
0001f0 f9 51 97 3c 4f 85 9f 3d e7 21 e8 bd b4 60 07 3e
       0.018471705 0.077890985 -0.11334591 0.13220483
000200 cd 40 ce bd d7 14 43 3b b1 ca 8e ba 37 1b 8b bd
       -0.100709535 0.002976706 -0.0010894147 -0.067923
000210 f6 f2 18 3e 30 f0 19 3e 0b c9 46 bd ee 71 ab 3c
       0.14936432 0.1503303 -0.048531573 0.02092835
000220 21 80 65 bd 7a 43 ce 3d 08 c5 91 bd d9 3f 46 bd
       -0.056030396 0.10071464 -0.07117659 -0.048400734
000230 56 25 50 be 2f 00 db bd 01 03 00 3e 5f 68 2d bd
       -0.20326743 -0.106933944 0.12501146 -0.042335864
000240 2a ed b0 bd 12 53 23 3a 43 4c e6 3d a3 07 12 3e
       -0.086389855 0.0006230335 0.112450145 0.14260726
000250 e2 97 2a be 01 f2 28 3e 62 0e ef 3d f6 22 5a bd
       -0.16659501 0.16498567 0.11672665 -0.053255998
000260 00 4a 26 be ee a7 be bc 95 ae 02 3d a0 9d c1 3c
       -0.16239166 -0.023273434 0.031904776 0.023634732
000270 af 0d 0d be e2 04 28 be 4f ba a4 3c 61 63 13 be
       -0.13774751 -0.16408113 0.02010837 -0.14393379
000280 20 6b a2 bc b8 17 0a bd a7 18 3f bc 9d b9 f8 bb
       -0.019826472 -0.033714026 -0.011663592 -0.007590486
000290 44 d9 97 bc 45 6c 40 be e8 64 82 3c e5 f4 9e 3d
       -0.018536218 -0.18791302 0.015917256 0.07761554
0002a0 99 d8 30 3d d4 b0 b0 3d 86 32 a8 bd a7 14 a4 bc
       0.043175314 0.08627477 -0.082127616 -0.020029379
0002b0 4e 63 12 3e 54 8c 67 bd 47 f2 92 bd 2c fb 17 be
       0.14295694 -0.05653031 -0.07175117 -0.14841908
0002c0 4a f0 85 3c 7e d7 28 3d 71 d4 c3 3d a4 8f 93 3d
       0.01634993 0.041221134 0.09562004 0.07205132
0002d0 0d 0d 9b bd 81 2a 86 bb 72 d2 f5 3d a0 93 88 bd
       -0.075708486 -0.0040944223 0.1200303 -0.06668782
0002e0 52 e1 89 bd 27 9b 43 3d 93 93 c8 bd d9 53 bd bc
       -0.067324296 0.047755387 -0.097937725 -0.02311127
0002f0 c1 b8 f4 bd 8e c6 9d bd c0 18 00 3d 0d a9 72 bd
       -0.119493015 -0.07703887 0.031273603 -0.05924325
000300 33 84 23 be 70 5d 9f bd d6 94 92 bb 59 f8 10 be
       -0.15968399 -0.07781494 -0.004473309 -0.14157237
000310 3d 46 26 3e 21 09 12 bd e6 71 6b 3d 7c 25 84 bd
       0.16237731 -0.035653237 0.05748167 -0.06452462
000320 23 e2 e3 bc a4 ec dd 3c 07 d5 b2 3d ef 70 bf bd
       -0.027817791 0.027090378 0.08732038 -0.09347712
000330 79 4f 40 3d 2f f2 62 bd 20 9d 10 be 53 7d 85 3c
       0.04695079 -0.055406746 -0.14122438 0.01629511
000340 be ba bd bd 78 d2 76 3d 5b 3a 07 bc 80 11 b9 bd
       -0.09264134 0.060259312 -0.008253659 -0.09036541
000350 b2 63 1b bd a6 18 52 3c 1b dc 07 3e 7a 13 c8 3d
       -0.037936874 0.012823259 0.13267557 0.0976934
000360 af 06 f6 3b 4d 9f 29 bd 4a c2 25 bd 29 30 15 bd
       0.007508121 -0.041411687 -0.04046849 -0.036422882
000370 6b 80 0c 3d f6 53 02 bd ed 3d ae bc a9 4a 24 be
       0.034302156 -0.031818353 -0.021269763 -0.16044106
000380 1b fe 53 3d 6d ef eb bd 66 f5 a0 bd ca d5 b5 3c
       0.051756006 -0.11520276 -0.07859306 0.02219667
000390 cd 53 a5 bd 61 d4 54 bd db 9b dd bd da 19 d5 3c
       -0.08072624 -0.051960353 -0.10820743 0.026013304
0003a0 a2 c3 fd bd 68 6e 33 3e 60 7d f0 bc a3 52 f0 bd
       -0.123908296 0.17522585 -0.029356658 -0.11734512
0003b0 a5 e7 b9 bd a4 68 39 bd cf 86 9c 3d 00 ca 25 3e
       -0.09077386 -0.04526581 0.076429 0.16190338
0003c0 b9 e3 4b bd 73 b7 4a bd 3c 90 34 3d b5 9c 21 be
       -0.04977772 -0.049491357 0.044082865 -0.15782435
0003d0 be 23 9f 3d d9 d3 db 3d 8e e3 3f 3a bf d7 c0 3d
       0.07770489 0.10733766 0.000731998 0.0941615
0003e0 7f a6 cc 3c 19 45 c5 3d c9 7d 04 be ad b6 94 bd
       0.024981735 0.0963232 -0.12938608 -0.07261405
0003f0 52 e6 d4 bc 8f 2a 89 3d 8c 60 02 be da 82 91 bd
       -0.025988732 0.066975705 -0.12732142 -0.07105036

7.bias f4 [100]
000000 5f ae 5b 3d fc 85 19 3d e2 17 80 bd 94 8f 61 bc
       0.05363309 0.037481293 -0.06254555 -0.013767142
000010 1b ec ec bb ed 06 94 3c 2b d2 af 3d 19 38 04 3e
       -0.0072302944 0.018069709 0.08585008 0.12912025
000020 32 5d a6 3c bb 4f d9 3d 89 e1 82 3d 60 ff 05 3e
       0.02030811 0.106109105 0.06390674 0.13085699
000030 23 51 0e 3d 5a 17 cd 3c 9f 58 c1 bd 7e f7 b5 3d
       0.034745347 0.025035549 -0.09440731 0.08885096
000040 a4 90 52 3e 13 26 53 3d 3b cb 3f 3c 45 e1 9f 3d
       0.20562989 0.051549982 0.011706169 0.07806639
000050 d2 88 27 3e 88 8e 52 3d 8d 9d ba bb 9b 88 28 3d
       0.16360787 0.05140546 -0.005695051 0.041145902
000060 24 2f 0b 3d 44 b6 4d 3e e1 8d f4 3d 5b 55 f0 bc
       0.033980504 0.2008906 0.11941124 -0.029337576
000070 c5 77 1d 3d 5a 59 06 bb 4c 34 d5 3d 0c c3 54 3d
       0.0384443 -0.0020500035 0.104103655 0.051943824
000080 23 20 01 bd 89 d0 73 3d f6 b5 a3 3d 72 ba a6 3d
       -0.03152479 0.059525046 0.07993691 0.0814103
000090 a6 30 10 3e 66 d4 20 3e ab 9a f2 3d a4 94 98 bd
       0.14081058 0.15706024 0.11845907 -0.07450226
0000a0 f1 56 06 3e 88 5d 5b 3d fa 5a 0d 3e 3f 77 2e 3d
       0.13119103 0.053555995 0.13804236 0.04259419
0000b0 2a c2 86 3b a7 7f 4c bd 08 f0 db bb c1 f7 95 bc
       0.0041125016 -0.049926426 -0.0067119636 -0.018306615
0000c0 20 c7 13 3e 45 85 f9 3d 38 f0 2e 3d 6f e5 b9 bc
       0.14431429 0.12183622 0.04270956 -0.02269241
0000d0 2c f0 78 bd 95 e0 80 3d 8c 06 5b ba ca dc 73 3d
       -0.06077592 0.062928356 -0.00083551626 0.059536733
0000e0 b9 f1 04 3e 6c 68 5b 3d 79 1f 9c bc 83 73 09 3d
       0.12982835 0.05356638 -0.019057976 0.033557426
0000f0 af 8b 02 3e ca 05 da 3c e2 b0 b8 3b 9c f2 33 3d
       0.12748598 0.026614089 0.0056363204 0.043932542
000100 2c 63 3b 3d 12 de 08 3c 46 8d c8 3c c0 cb e7 3c
       0.045748875 0.008353727 0.024481427 0.028295398
000110 ad a6 b8 3d 10 2f 36 bd 13 09 ea 3d e4 b2 0b 3e
       0.09016166 -0.044478476 0.11427512 0.1364246
000120 e6 36 d0 3d 8e 81 84 3d 64 63 73 3d c2 d3 91 3d
       0.10166721 0.06470023 0.05942096 0.07120468
000130 d4 1c 92 3d b5 b1 d7 3d 31 47 55 3c 88 5b be 3c
       0.07134405 0.10531942 0.013017462 0.023237005
000140 40 30 17 bc 96 f2 b8 3c e7 51 6a 3d e0 e9 c4 bd
       -0.009227812 0.022576611 0.057207014 -0.096149206
000150 fc f8 f7 3c fa 52 8a 3d c7 66 28 ba 64 81 0f 3d
       0.030270092 0.06754108 -0.00064240064 0.035035506
000160 39 88 51 3c cc d4 bd bc 8e 3e a3 3d b2 12 fb 3c
       0.012788826 -0.023172759 0.07970916 0.030648563
000170 73 45 f8 3c 42 c5 ab 3d 9a 82 3f 3b 9a 24 26 3d
       0.030306553 0.08387233 0.0029222132 0.04056225
000180 3b a4 8a 3d 03 52 13 bd 51 c5 ec 3d a5 f6 20 3e
       0.06769606 -0.035966884 0.115610726 0.15719087

9.weight f4 [100, 100]
000000 e3 fa 0d 3e 00 aa b9 bd 0c 01 b5 3d 07 c7 c6 3d
       0.13865237 -0.09065628 0.0883809 0.0970593
000010 31 2f 09 be 33 49 81 3b ac cb 6b bd 89 06 41 3e
       -0.13396908 0.0039454936 -0.057567284 0.18850149
000020 eb 5e 36 bd 09 20 28 3d da 46 2b 3b e5 c3 d8 3d
       -0.044524115 0.041046176 0.002613476 0.10584239
000030 fd f4 8c 3c b5 b6 8c bc 04 1b a3 bd 6a 87 c1 bd
       0.017206663 -0.017176965 -0.07964137 -0.09449656
000040 4f d9 0c 3e cf eb a9 bc 57 6b 0b bd 78 37 eb bd
       0.13754772 -0.020742325 -0.034037914 -0.11485189
000050 98 36 b3 3d d8 f7 67 bd 8a d1 0f 3d 07 78 eb bd
       0.08750647 -0.056632847 0.03511194 -0.11497503
000060 c6 af db 3d 2a d1 1d 3e 03 79 50 3d a3 9a 02 be
       0.107268855 0.15411821 0.050896656 -0.12754302
000070 94 83 e6 bc 8c 3a ea bd 44 22 52 be ee 41 d7 b8
       -0.028138913 -0.11436948 -0.20520884 -0.00010264279
000080 ec eb d2 bd 20 fa ba bd c4 a9 4b 3d 42 74 97 3d
       -0.10298905 -0.09129739 0.049722448 0.07395221
000090 df 0c 5d bd a1 b3 16 be 05 d6 8a b9 6b 11 59 bd
       -0.053967353 -0.1471696 -0.00026480868 -0.052995127
0000a0 01 35 69 3d bd 18 2f be c9 26 13 be 29 9c 1d be
       0.056935314 -0.1709928 -0.14370264 -0.15391602
0000b0 69 c2 1c 3b 14 94 22 bd 38 c4 2b be 6b 14 9a 3d
       0.0023919588 -0.039692 -0.1677407 0.07523426
0000c0 f5 1f 9f bd 35 74 29 bd 1d f2 63 bd 1c ef 29 3e
       -0.07769767 -0.04137059 -0.05565082 0.16595119
0000d0 f7 86 4c bd 2f b4 26 3e 74 73 08 bd 8d 6c 51 3d
       -0.0499334 0.16279672 -0.03331323 0.051128913
0000e0 cb 81 e6 3c af eb a0 bd 91 96 cf 3d cf 59 93 3c
       0.028138062 -0.07857453 0.1013614 0.01798716
0000f0 b9 ed 20 bd 1c 10 d9 3d 3f dd 28 bc ae d2 b0 3d
       -0.03928921 0.10598776 -0.010306655 0.08633934
000100 6d 24 82 3d 35 0e 0c be 0d ab 81 3d 0d 36 32 be
       0.06354604 -0.13677295 0.063314535 -0.17403431
000110 f9 c8 fe bd b7 4f 28 be ba 75 bf bc b0 fb 21 bc
       -0.12440676 -0.16436659 -0.023371566 -0.009886667
000120 04 64 f1 3d 4f f3 0e bd 9d 87 2e 3e 51 d0 ce bc
       0.117866546 -0.034900006 0.1704392 -0.025245817
000130 51 91 cc bd d9 91 82 3c 97 96 30 3e 38 48 79 3d
       -0.099886544 0.015938686 0.17244945 0.06085989
000140 79 43 d4 3d f4 8a a3 bd 2f 7f de 3c 50 1e 40 bd
       0.10364432 -0.079854876 0.027160255 -0.04690391
000150 8a 76 53 3c 8f 78 97 bd 50 3c 54 3d 26 3c 6b bd
       0.01290668 -0.073960416 0.05181533 -0.05743041
000160 ff 5f b5 bc 4a eb a1 3d 1c 82 49 be d6 22 1d be
       -0.022140501 0.07906206 -0.19678539 -0.1534532
000170 cd cb 01 3e 77 3d 39 bc e7 18 30 3d 14 0d a4 bd
       0.126754 -0.011306158 0.0429925 -0.08010307
000180 35 80 83 bd b8 5b b1 bd 5b f3 96 bd 72 e8 ec bc
       -0.06420938 -0.08660072 -0.07370635 -0.028919432
000190 b9 22 47 ba 51 96 87 bd d5 08 76 3d 7f a7 19 be
       -0.00075964216 -0.066204675 0.060067017 -0.15005301
0001a0 2d 89 1f 3d aa 8f 27 bd c2 cd a5 3d 83 53 2a be
       0.03894918 -0.040908493 0.08095886 -0.1663342
0001b0 83 46 22 3e b3 f8 38 be 58 68 25 be d9 45 67 3d
       0.1584721 -0.18063621 -0.16153085 0.056463096
0001c0 10 65 1c 3c cc 67 72 bc 85 cb 31 3d 19 f5 85 3c
       0.00954558 -0.014795255 0.043406982 0.016352223
0001d0 31 76 73 bd f4 13 53 be 99 91 f3 bb c6 e1 44 3e
       -0.059438888 -0.2061308 -0.007433128 0.1922675
0001e0 92 ec fa 3d 3e cf 42 bc 1e 7a 08 bd 42 b9 a4 bc
       0.122521535 -0.011890231 -0.033319585 -0.020107869
0001f0 2e b5 87 bc 0f b5 75 3d 1b 44 36 be 37 c4 f3 bc
       -0.016565885 0.059987124 -0.17799418 -0.029756648
000200 83 d1 0e be a4 15 af bd b9 11 64 3d bc 4d 8f bd
       -0.1394711 -0.085490495 0.055680964 -0.069972485
000210 b7 44 57 3e 93 6e 17 3e 62 7f 89 bc d7 60 c0 bc
       0.21022306 0.14788274 -0.016784374 -0.023483677
000220 37 9c c0 bd 95 06 18 bc 3b 57 89 bc e2 d2 2d ba
       -0.094047956 -0.009278913 -0.016765228 -0.000663085
000230 87 f5 9b 3d 25 42 a8 3d 43 02 05 be e4 f2 0a be
       0.0761519 0.08215741 -0.12989144 -0.13569218
000240 32 8b 92 3d 7a 1a 2b 3d 77 0d d4 3d f1 e4 c7 bd
       0.07155456 0.041773297 0.10354131 -0.09760464
000250 99 3e d7 bc b0 1c 24 bb e9 c1 98 3d 8f 97 88 3c
       -0.026274966 -0.0025041513 0.074588604 0.016673831
000260 94 2f c6 3d e1 9a 64 3d 15 ae 0f be c8 92 ed bc
       0.096770436 0.055811767 -0.14031251 -0.029000655
000270 e4 6f f2 3d 50 5a 5c 3d 91 09 0e be 5f de e1 bd
       0.11837748 0.053797066 -0.13870837 -0.11028742
000280 e6 a2 b7 3b ef 0d d1 bd f8 ba 74 3d 6c 75 39 bd
       0.005604136 -0.10207736 0.05974862 -0.045277998
000290 3b 20 02 3e cf 87 f9 3d 4b 8d 2f 3c 86 c1 01 3e
       0.12707607 0.121841066 0.010714839 0.1267148
0002a0 4e d5 84 3c 54 64 49 3e f3 85 11 3e c8 36 d9 3d
       0.016214993 0.19667178 0.14211254 0.10606152
0002b0 35 d0 2d bd 13 b4 8a bc bf ed 25 3d 96 da 1f 3d
       -0.04243489 -0.01693157 0.040509935 0.03902682
0002c0 70 1e 36 be 86 cf db b9 cb b7 25 bd bd ec 74 3d
       -0.17785048 -0.00041925552 -0.04045848 0.059796084
0002d0 cb a1 f4 3c f3 cf 1d bd a6 11 a0 bd 13 49 8c bc
       0.029862305 -0.038528394 -0.07815866 -0.017124688
0002e0 a9 8f a4 bd 22 a3 80 bc 9f 90 b9 bd e5 48 57 3e
       -0.080352135 -0.015702788 -0.090607874 0.21023901
0002f0 6c b8 2f 3e 16 18 6e ba 99 c9 86 3c b8 35 36 3e
       0.17160195 -0.00090825686 0.016453551 0.1779393
000300 95 9a 20 3b 5c 0a ce 3d 76 a8 a1 3d 5c b0 1d 3c
       0.00245062 0.1006057 0.078934595 0.009624567
000310 5d 99 4a 3d 0f 76 73 bc 79 4e 60 3d 0d 75 1e be
       0.049462665 -0.01485969 0.054762337 -0.15474339
000320 05 b6 02 bd 25 ac 1a 3d c9 fa 92 3d 59 45 dc 3d
       -0.03191187 0.037761826 0.0717674 0.107554145
000330 8c 2f 5f bd 06 40 79 bd 00 b6 28 be de c7 22 3c
       -0.054488704 -0.060852073 -0.16475677 0.009935347
000340 ff 93 8b bb cc e7 aa 3d 15 51 6f 3d 4b 22 13 be
       -0.004259586 0.08344993 0.058426935 -0.1436855
000350 b6 09 dd bd 5d fb a7 bc ba 0b 94 3d 91 a1 32 be
       -0.10792868 -0.020505602 0.07228799 -0.17444445
000360 7f ab 50 bc f4 53 a8 bc 46 ec 0e be 17 b5 2a bd
       -0.0127362 -0.020547844 -0.13957319 -0.041676607
000370 81 86 e2 3d bc 1f 9c bd 4a 4a 93 3d 7e cd 1e bd
       0.11060811 -0.0762324 0.07191904 -0.03877019
000380 98 42 ba bc 54 54 18 bd 04 49 49 3e 4d c2 76 3d
       -0.022736832 -0.037189797 0.1965676 0.060243893
000390 0c d1 1b 3d a7 88 9b bd ff 67 5a 3c 53 9c 90 3d
       0.03804116 -0.07594424 0.013330459 0.070610665
0003a0 56 2c 79 bd 4d 5c 01 be 66 ff f4 3d 28 fa 35 bd
       -0.060833298 -0.12632866 0.11962776 -0.04442802
0003b0 9b 51 19 3e 79 55 49 bb 29 f6 9c bd 6e c2 3d 3e
       0.14972536 -0.0030721112 -0.07664139 0.185312
0003c0 e7 c2 16 3e 6d ad 2d be fc ee 20 bd 4b 5e 06 bd
       0.14722787 -0.16960688 -0.039290413 -0.03280477
0003d0 2f 3d c1 bd e0 73 4e bd d7 e3 fc 3c 5c 1e ad bd
       -0.09435498 -0.050403476 0.030870361 -0.08453056
0003e0 ff 6f 04 bd 5f 13 15 bd 1a c5 41 bd a0 31 81 bd
       -0.03233337 -0.036395427 -0.04730711 -0.06308293
0003f0 48 8d 3f 3e af 64 fe 3c ca db 7c bd 5b 07 b5 bc
       0.18706238 0.031053869 -0.061733045 -0.022098234

9.bias f4 [100]
000000 ec 9c a2 3d 3a 29 2d 3e b1 43 e7 3d 3d 12 2a 3d
       0.07940087 0.16910258 0.11292208 0.0415213
000010 ed 15 ca 3d d2 d3 32 bc 1a 5c 14 3d 8e bb 1a 3d
       0.09867463 -0.01091476 0.036220647 0.037776522
000020 e5 cb 5e bd ae 6a 25 3d 76 d6 6d 3e 4b 3d 23 3e
       -0.054393668 0.04038494 0.23226342 0.1594135
000030 7a c8 4f 3d 28 a6 90 3c 0c 56 ec 3c 09 2f 2a 3e
       0.0507283 0.017657354 0.028849624 0.16619505
000040 5c d9 25 3d c7 a1 28 bd b7 63 f0 3d 26 6b 17 3e
       0.040490493 -0.041169908 0.11737769 0.14786968
000050 76 36 8d bb a1 35 21 3d 33 83 25 3d 19 d1 aa 3d
       -0.0043094708 0.039357785 0.040408324 0.083406635
000060 83 e4 07 bd 29 18 0f 3e 8d a8 8f 3d 10 05 0e 3d
       -0.03317691 0.1397406 0.070145704 0.034672797
000070 78 7c d0 3d d7 47 62 3d cb 93 87 bd 61 55 18 3e
       0.101799905 0.055244293 -0.06619986 0.1487632
000080 20 c7 d3 3c f8 18 09 3e 32 07 17 3d 03 79 38 bc
       0.025851786 0.13388431 0.036872096 -0.01125932
000090 55 0c 3f 3d 64 7c 05 3e 3f b0 f7 3d 6b 5c 94 3c
       0.04664262 0.13035733 0.12094163 0.018110475
0000a0 71 cf 03 3e dc 0e 87 3d 99 81 12 bd 33 c5 cd 3a
       0.12872101 0.06594631 -0.035768125 0.0015699029
0000b0 0f f5 2f be 27 9a 65 3d a8 06 4c 3d 80 92 04 3e
       -0.17183326 0.056055214 0.049811035 0.1294651
0000c0 0a 58 90 3e 57 4b 2a 3d a5 52 70 3d 79 d2 ac 3d
       0.28192168 0.041575756 0.058672566 0.08438582
0000d0 5a 88 b1 3d 9a 9f bb 3c b0 3a af 3d 63 18 29 3d
       0.08668585 0.022903252 0.085561156 0.041283023
0000e0 03 61 a3 3c 9d da 54 3b 99 ff e1 3c 99 07 56 3d
       0.01994372 0.0032478936 0.027587699 0.05225334
0000f0 6e cc f2 3d 9e 28 8f 3d d1 05 17 3c e9 74 28 3d
       0.11855398 0.06990169 0.009217695 0.04112712
000100 e6 1f b0 3d 81 57 2f 3c 62 ce b3 3d 4c 57 25 3d
       0.08599834 0.010702015 0.08779599 0.040366456
000110 d3 fe 9f 3d dc cf d7 3d b7 b8 6d 3d 20 0c ea 3c
       0.07812276 0.10537693 0.058037486 0.028570235
000120 ca e8 8d 3d 93 98 de 3d 12 61 a6 bc 2b 81 51 3e
       0.069291666 0.10868945 -0.020309959 0.2045943
000130 ec 33 5a 3d c8 2c 2c 3e ff c5 06 3e dc 4d 78 3d
       0.053272173 0.16813958 0.13161467 0.060621127
000140 b6 0e 92 3d 26 c1 a0 bd fa 74 8f 3d 84 ce 7a 3d
       0.07131712 -0.0784934 0.070047334 0.061232105
000150 69 41 03 3e 5d 3e c9 3d ac 58 c2 3d 41 1f 3f 3d
       0.1281792 0.09826348 0.09489569 0.046660665
000160 2e 16 22 3d 1d 35 52 3d 31 ac 7f 3d 7f 09 58 3d
       0.039571933 0.051320184 0.062420074 0.05274343
000170 cc b9 10 3e 2b 67 8c 3c 86 1a 34 3d 23 d5 a2 3c
       0.14133376 0.017139038 0.043970607 0.019877022
000180 f9 85 f5 3d af 66 88 3d 1d 67 1c 3d a5 f4 64 3d
       0.11988444 0.0666021 0.038184274 0.055897374
