complete_verifier/models/eran/mnist_conv_small_nat.pth (torch, 361600 bytes, 6 tensors)

0.bias f4 [16]
7.020274e-06 2.4249684e-06 8.138261e-06 -2.1986602e-07 -8.922064e-09 1.5419233e-05 -2.1078322e-06 -1.9842941e-10
-1.8804627e-09 -2.2331425e-07 -2.793896e-09 3.9781214e-09 1.561045e-06 -7.364909e-05 5.9544677e-06 -4.825293e-06
00000000: b28f eb36 a4bc 2236 9189 0837 5014 6cb4
00000010: a747 19b2 8d58 8137 4874 0db6 ea2c 5aaf
00000020: 7339 01b1 27c8 6fb4 bdfe 3fb1 edaf 8831
00000030: 1985 d135 0e74 9ab8 7dcc c736 f4e8 a1b6

2.bias f4 [32]
-5.848219e-06 1.797506e-05 3.4934086e-08 3.7328723e-06 3.7890717e-05 7.5909884e-05 -1.1656699e-07 -8.689813e-05
-4.1429223e-05 6.9980335e-05 9.376207e-05 -1.7138759e-06 -3.125779e-05 3.2413144e-08 -1.04206606e-07 -8.6807034e-07
0.00010072691 -7.6020484e-07 4.09073e-06 1.0494815e-06 -2.8709968e-09 0.00017368793 -5.1031584e-06 -0.00012187088
-1.075863e-07 4.822124e-05 -4.79507e-06 -2.6488905e-07 3.9830193e-05 -3.5506603e-10 4.4518403e-10 -3.9388146e-07
00000000: d23b c4b6 26c9 9637 6f0a 1633 4282 7a36
00000010: d9ec 1e38 cf31 9f38 6153 fab3 143d b6b8
00000020: 4ac4 2db8 68c2 9238 21a2 c438 5408 e6b5
00000030: cc1a 03b8 a136 0b33 30c8 dfb3 5705 69b5
00000040: 593d d338 e110 4cb5 1a43 8936 e9db 8c35
00000050: 1c4b 45b1 0020 3639 cc3b abb6 ee94 ffb8
00000060: 320a e7b3 2a41 4a38 56e5 a0b6 1336 8eb4
00000070: 580f 2738 1a33 c3af 15be f42f a876 d3b4

5.weight f4 [100, 800]
1.1710738e-05 -1.1939127e-06 -3.2874713e-08 7.420325e-08 1.0157297e-06 -2.0762493e-06 -1.0800538e-07 -2.4907294e-08
-2.1933715e-07 5.505363e-06 -4.3462246e-06 -1.6329322e-07 -1.7591573e-07 1.0824039e-06 2.1963708e-05 -6.4958726e-06
-6.3136866e-07 -7.4535365e-09 3.5134992e-06 1.2954996e-05 -3.8866915e-06 2.0536436e-07 1.675383e-06 8.6505825e-06
-3.0347728e-05 0.000636175 -0.008535141 -0.0066565983 0.015777666 0.0066276137 -0.0022134911 -0.007903677
-0.015492051 -0.0040393895 -0.00085395784 -0.0073244967 -0.022188142 -0.028152866 -0.024691977 -0.017327923
-0.004582512 0.0028950972 -0.008147214 -0.015475231 -0.017140133 -0.0052453363 0.0018753392 -0.00049257034
-0.0026053996 -0.007625925 -1.5417256e-06 3.9441727e-07 4.4162043e-09 2.7652078e-09 -2.4502386e-08 -9.79451e-07
6.0719685e-08 -9.569477e-09 -3.7462627e-08 5.024653e-08 -4.848221e-07 4.973181e-08 -1.8831976e-07 -1.1742717e-07
5.577623e-08 -3.9537056e-08 -4.128899e-09 -4.1621647e-07 -1.2355892e-07 3.6454875e-08 -1.9243957e-07 -6.578333e-08
-2.4134351e-08 -1.606697e-12 -5.876835e-07 -2.5287503e-05 3.2916807e-06 3.0367838e-07 1.4780917e-07 9.089518e-07
-2.0357926e-05 -1.637651e-06 8.077994e-07 -5.3716303e-07 1.4084666e-06 -1.0733746e-05 1.9622894e-06 1.7460996e-05
5.6391195e-07 1.7349345e-06 -5.5812643e-06 1.2656203e-06 1.0060498e-05 -3.604087e-06 1.1543959e-07 -7.660403e-06
1.734606e-06 6.427267e-07 -3.4520363e-06 -6.0511097e-06 -9.7300246e-05 -0.04344207 -0.0069445875 0.03314782
0.0045799892 -0.012707043 -0.037796542 0.026948815 0.028917048 -0.0073780958 -0.0130820125 0.03827128
0.017005272 0.039188195 0.042326156 0.008674235 0.0061801285 0.017332725 0.02156725 0.0023165129
0.01985118 -0.0086957915 0.015027031 -0.01896013 -0.003736453 -1.2678921e-05 3.3253753e-05 -0.00035314748
0.0061748214 0.00010702595 -0.00042898685 -0.00871486 0.009639356 0.017740829 -0.010075435 -0.0015156704
-0.0099756615 0.003665396 0.02560026 -0.007176625 -0.0047252034 -0.0015794203 0.019588046 0.015885776
0.05028957 -0.005546712 -0.004618423 0.02699356 0.043111585 -0.037703037 4.4233832e-07 1.0133451e-07
1.8350205e-08 1.7738986e-07 9.682213e-08 4.0989555e-08 -1.4198112e-08 -8.288802e-08 -2.8164342e-07 -6.7302267e-07
-3.6033006e-07 -2.0104501e-08 5.882252e-07 -2.9547492e-08 -1.155121e-07 3.3776664e-07 -1.7836818e-07 2.5053126e-08
-1.4978511e-07 -2.608179e-07 1.5770341e-07 -9.1330185e-07 -2.5239333e-07 7.5204485e-07 -4.792672e-07 0.0013069981
-0.010418763 -0.030110063 0.007792333 0.0039507486 -0.0018544229 -0.0034519613 -0.029772796 -0.02132241
0.023237292 -0.007791062 -0.022063248 -0.016265262 -0.002574402 0.012341259 -0.002572515 -0.006316722
-0.03219052 -0.031156378 -0.04035939 -0.00051321404 0.003457552 -0.004056031 -0.03230116 -0.022829575
-2.561128e-06 -1.2959235e-07 9.4635226e-08 4.518287e-08 -8.226006e-09 -1.844728e-06 -1.5903979e-08 -3.121665e-07
-1.2710076e-07 1.6677073e-07 -7.713637e-07 -2.5188612e-07 -5.752583e-06 -4.4906986e-07 -8.3304904e-08 4.3204355e-07
-9.767483e-07 -1.6399495e-06 -8.734142e-08 -3.106782e-07 -7.588203e-07 1.1337697e-06 -4.8540794e-08 1.0359947e-07
-8.0872286e-07 -0.00037276026 0.0037873948 -0.0069009657 -0.0028678854 -0.0012535488 0.00086387835 -0.0045579495
-0.008045306 -0.010615101 -0.014073484 0.0004810801 0.009667646 0.020509278 0.011246734 0.031928573
-0.00047126165 0.012518989 0.015402321 0.03591922 0.017280288 -0.00723586 0.0063949414 0.020840516
-0.013813396 -0.013083488 -0.0009520307 -0.014081035 -0.019035634 0.0010919841 -0.0018075147 6.507423e-05
00000000: 3d79 4437 873e a0b5 2132 0db3 ab59 9f33
00000010: 3554 8835 b155 0bb6 96f0 e7b3 b8f3 d5b2
00000020: f082 6bb4 b5ba b836 c9d5 91b6 b355 2fb4
00000030: 59e3 3cb4 1d47 9135 b43e b837 1ff7 d9b6
00000040: 537b 29b5 000d 00b2 75c9 6b36 4959 5937
00000050: 6d6a 82b6 2082 5c34 b9dd e035 f821 1137
00000060: 4093 feb7 fbc4 263a fad6 0bbc 981f dabb
00000070: 2a40 813c 742c d93b 3810 11bb 6d7e 01bc
00000080: 5fd2 7dbc db5c 84bb 24dc 5fba 5502 f0bb
00000090: e8c3 b5bc d7a0 e6bc d446 cabc 4af3 8dbc
000000a0: e628 96bb acbb 3d3b e47b 05bc d38b 7dbc
000000b0: 7769 8cbc 12e1 abbb f1cd f53a d61f 01ba
000000c0: 5abf 2abb e5e2 f9bb 4aed ceb5 4cc0 d334
000000d0: 58bd 9731 0d06 3e31 5179 d2b2 ae75 83b5
000000e0: 0065 8233 0167 24b2 98e6 20b3 a5ce 5733
000000f0: b924 02b5 b498 5533 f134 4ab4 452c fcb3
00000100: 9d8e 6f33 74cf 29b3 2ede 8db1 5b74 dfb4
00000110: 9eab 04b4 8f92 1c33 63a1 4eb4 c544 8db3
00000120: 0050 cfb2 5c1f e2ab 4dc1 1db5 8020 d4b7
00000130: a5e6 5c36 3d09 a334 7ab5 1e34 b1fe 7335
00000140: 50c6 aab7 43cd dbb5 8dd7 5835 9031 10b5
00000150: 8b0a bd35 1715 34b7 e0af 0336 3479 9237
00000160: bc5f 1735 e5db e835 b246 bbb6 62de a935
00000170: 83c9 2837 bedd 71b6 96e7 f733 2e85 00b7
00000180: 9cd0 e835 d887 2c35 88a9 67b6 a30a cbb6
00000190: ac0d ccb8 50f0 31bd 6c8f e3bb 02c6 073d
000001a0: bc13 963b 3431 50bc 8cd0 1abd c3c3 dc3c
000001b0: 72e3 ec3c f4c3 f1bb f055 56bc 58c2 1c3d
000001c0: a44e 8b3c cd83 203d 315e 2d3d 611e 0e3c
000001d0: ad82 ca3b 5cfd 8d3c cdad b03c a3d0 173b
000001e0: f19e a23c cb78 0ebc f033 763c 4652 9bbc
000001f0: 47df 74bb 8db7 54b7 f279 0b38 a726 b9b9
00000200: 2856 ca3b 1f73 e038 a4e9 e0b9 c6c8 0ebc
00000210: 64ee 1d3c 3755 913c 7013 25bc 76a9 c6ba
00000220: f570 23bc 2437 703b a3b7 d13c e529 ebbb
00000230: e1d5 9abb 8d04 cfba 1c77 a03c e322 823c
00000240: 70fc 4d3d 31c1 b5bb 2456 97bb 9921 dd3c
00000250: c695 303d 806e 1abd 847a ed34 3c9d d933
00000260: 87a0 9d32 8e78 3e34 87ec cf33 7e0c 3033
00000270: f5eb 73b2 2c00 b2b3 c734 97b4 c4a9 34b5
00000280: 6373 c1b4 44b2 acb2 87e6 1d35 9fcf fdb2
00000290: 730f f8b3 4b56 b534 7985 3fb4 6834 d732
000002a0: 9ed4 20b4 8a06 8cb4 2f55 2934 a029 75b5
000002b0: ad80 87b4 21e0 4935 fea6 00b5 944f ab3a
000002c0: 76b3 2abc 61a9 f6bc d456 ff3b 4875 813b
000002d0: 1b10 f3ba 4d3a 62bb 14e6 f3bc 56ac aebc
000002e0: 225c be3c 2a4c ffbb fcbd b4bc ba3e 85bc
000002f0: 4cb7 28bb fe32 4a3c a497 28bb 81fc cebb
00000300: 35da 03bd a93b ffbc e34f 25bd 3689 06ba
00000310: 1998 623b 74e8 84bb 394e 04bd 1705 bbbc
00000320: d8df 2bb6 1326 0bb4 443a cb33 170f 4233
00000330: 5b52 0db2 5f98 f7b5 389d 88b2 d697 a7b4
00000340: 3179 08b4 9711 3334 b60f 4fb5 f73a 87b4
00000350: 5006 c1b6 b117 f1b4 5be5 b2b3 9df3 e734
00000360: d118 83b5 3c1c dcb5 7490 bbb3 49cb a6b4
00000370: bcb1 4bb5 082c 9835 2b7b 50b3 697a de33
00000380: 0317 59b5 096f c3b9 f135 783b 7f21 e2bb
00000390: 22f3 3bbb 1e4e a4ba e575 623a da5a 95bb
000003a0: 76d0 03bc f6ea 2dbc 7894 66bc 7a39 fc39
000003b0: 0c65 1e3c 1303 a83c 3944 383c 89c7 023d
000003c0: ab13 f7b9 721c 4d3c 045a 7c3c 0820 133d
000003d0: 648f 8d3c cb1a edbb a88c d13b bbb9 aa3c
000003e0: 9551 62bc 205c 56bc b391 79ba 24b4 66bc
000003f0: 9ef0 9bbc e820 8f3a 21ea ecba 7678 8838

5.bias f4 [100]
-3.3250646e-05 -2.8458171e-05 -3.1954973e-11 2.3053046e-08 -3.6397638e-10 6.4993474e-05 0.00019408391 -0.00017915569
2.674806e-05 -0.000109452645 -0.000115745046 3.6109683e-05 4.6394634e-05 -4.848959e-06 9.317911e-05 -9.573407e-05
2.6176535e-08 -8.868694e-06 9.427917e-11 4.5545035e-05 1.2767005e-07 7.25912e-11 -2.3471951e-12 2.9390318e-12
-4.197763e-10 0.00010610102 1.3389847e-12 8.7024804e-05 2.7517109e-14 3.885543e-17 0.00012020546 -1.226412e-09
0.00014898153 2.9623836e-05 -1.2418698e-13 -1.5454796e-07 9.597941e-05 5.4339434e-05 5.325742e-06 2.1799733e-09
1.1588017e-08 5.7084522e-05 6.666362e-14 4.257593e-17 -9.468218e-16 3.763235e-05 2.2916011e-07 -3.1536238e-05
1.1846992e-05 1.9751331e-13 0.00010016741 0.00017529412 -6.227818e-05 2.8286433e-06 -2.8800938e-05 -8.820275e-06
-5.9768167e-06 -1.2487548e-10 5.947854e-05 -4.8869468e-05 8.947128e-05 3.3423632e-08 1.7718873e-11 1.6656228e-05
-2.7630853e-09 -2.1215104e-05 3.991277e-32 1.3474658e-10 -3.2729817e-13 -1.6809153e-09 8.648929e-05 -5.0099546e-13
3.5446963e-06 -3.9748615e-05 6.4714564e-05 -8.946664e-14 -7.0697007e-16 3.4367256e-09 2.7493107e-11 -2.175688e-09
5.534508e-05 3.712647e-05 -8.000902e-10 2.189201e-06 4.3121385e-05 -1.4399554e-10 -6.891572e-06 3.9078186e-06
-4.727145e-13 -1.4508376e-05 4.0352643e-05 1.562416e-08 -5.1079132e-05 -2.8957396e-11 -5.981485e-09 -3.9927607e-05
-0.00015681579 -9.269578e-05 7.886919e-10 2.4302476e-06
00000000: 9c76 0bb8 75b9 eeb7 1a8a 0cae 2f06 c632
00000010: 1f19 c8af 1b4d 8838 0183 4b39 bddb 3bb9
00000020: 0561 e037 f189 e5b8 26bc f2b8 7a74 1738
00000030: dc97 4238 3eb4 a2b6 2769 c338 d6c4 c8b8
00000040: cfda e032 c0ca 14b7 7452 cf2e 9c07 3f38
00000050: ad15 0934 36a1 9f2e 4f2b 25ac e4d0 4e2c
00000060: 43c6 e6af 8d82 de38 0272 bc2b 1681 b638
00000070: 22da f728 6530 3324 d116 fc38 898e a8b0
00000080: ed37 1c39 b480 f837 76d2 0baa d2f1 25b4
00000090: 8e48 c938 86ea 6338 c7b3 b236 7fce 1531
000000a0: a314 4732 0a6e 6f38 f61c 9629 c958 4424
000000b0: 8f73 88a6 6ed7 1d38 0d0f 7634 c745 04b8
000000c0: 71c2 4637 5661 5e2a f810 d238 28cf 3739
000000d0: 589b 82b8 b9d3 3d36 8b99 f1b7 cbfa 13b7
000000e0: 778c c8b6 534d 09af 9978 7938 31f9 4cb8
000000f0: 87a2 bb38 ac8d 0f33 5bdb 9b2d fab8 8b37
00000100: b6e0 3db1 17f7 b1b7 2c3d 4f0b ca27 142f
00000110: a340 b8aa f305 e7b0 9661 b538 8704 0dab
00000120: 6be1 6d36 c0b7 26b8 5eb7 8738 0276 c9a9
00000130: 2fc5 4ba6 842b 6c31 f9d4 f12d 1c83 15b1
00000140: 5422 6838 3eb8 1b38 58ed 5bb0 30ea 1236
00000150: 3cdd 3438 2453 1eaf 273e e7b6 e81f 8336
00000160: ab0e 05ab 0069 73b7 5240 2938 e435 8632
00000170: cd3d 56b8 42b6 fead b385 cdb1 f177 27b8
00000180: eb6e 24b9 ab65 c2b8 42cb 5830 5617 2336

7.weight f4 [10, 100]
0.1330882 -0.03699137 -1.0597184e-09 3.0425355e-07 -5.0124418e-05 0.0017214863 -0.11068359 -0.0049937437
0.035628505 -0.08496316 -0.11337165 -0.12730755 0.13293494 -0.031766 -0.06213025 -0.056357082
2.3223104e-06 -0.07043551 -1.1746049e-06 -0.06302177 0.037902817 4.935619e-08 -9.73e-12 4.4460577e-10
-1.1860942e-09 -0.0012732937 -5.2120214e-10 -0.13218796 2.0403117e-09 4.0650786e-13 -0.023617731 4.2597998e-07
-0.06696966 -0.083777845 2.475737e-24 -0.004228069 0.019087387 0.009185152 -0.0030005213 -1.667829e-15
1.4849404e-08 0.24225055 -4.6440304e-10 -1.4378481e-36 1.5274866e-10 -0.061875 -0.022283996 -0.050194666
0.10048601 -2.4593645e-11 -0.09090776 0.10761602 0.010672058 2.0882522e-05 1.3784093e-11 -0.011097997
0.015213137 2.54742e-14 -0.07037207 0.10227053 0.27397093 -3.799209e-07 -1.915487e-09 0.19686435
-4.507529e-08 0.14896566 -3.1463043e-13 1.0303427e-06 7.988757e-09 2.6728839e-07 0.0021776182 -2.0355892e-10
0.001957572 -0.024738964 0.0017988405 -8.488826e-12 -4.1531732e-15 -5.925737e-09 5.953324e-07 5.7336656e-06
-0.07244491 -0.02332325 -7.23964e-28 1.0520407e-09 -0.07193317 6.41158e-10 0.028526707 -0.00023182352
-8.2893816e-19 0.23802555 -0.041742675 2.1023045e-05 -0.106718354 -3.6181394e-12 9.1519885e-09 -0.13325572
-0.10152653 -0.10888397 -2.4623598e-06 0.18284489 0.07261813 -0.019827228 -1.6332211e-09 2.1376736e-07
-7.177155e-13 0.06120404 -0.031100174 -0.022013467 0.05008555 -0.09384239 0.27508914 0.019574692
-0.10938853 0.11732576 -0.054067295 -0.056675095 -1.5089482e-07 -0.06885756 -5.6194877e-10 -0.062219217
0.0018111441 -8.278837e-07 5.680438e-13 -2.0943593e-13 -1.5662039e-08 -0.12461612 -1.2793646e-06 -0.041887566
2.0327145e-18 2.176901e-12 0.15162958 -1.3297888e-07 -0.14988977 0.025385013 6.2641406e-23 0.006394353
0.21634887 0.16586065 -4.2238018e-05 2.2285043e-17 -3.2930604e-08 -0.014000321 -1.0881425e-12 -3.8160948e-08
-7.1568024e-15 0.25664538 0.011999596 0.1705922 -0.22623397 2.23374e-14 0.053062446 -0.00034243136
0.18923718 0.00013571962 -3.432e-42 -0.00039633148 -0.052417647 6.9884263e-16 0.10398145 -0.16697901
-0.10071927 -4.4304336e-08 -2.6763406e-11 0.012488567 -1.8589935e-08 0.002731294 7.8482e-40 -4.941355e-08
-7.305422e-11 -4.169935e-07 0.21479307 2.6424216e-09 -0.0042208494 0.041155897 -0.005048472 -1.1525323e-12
-3.7699605e-12 -1.6360464e-06 -4.7073184e-10 -7.537934e-09 -0.0058031725 -0.04755447 2.1819877e-19 -1.9733746e-11
-0.08023016 1.3101426e-10 -0.00933309 -9.933433e-05 -3.4132248e-13 0.110502176 -0.11765747 -1.02837775e-25
-0.012230453 -4.443794e-11 -2.1265219e-17 0.031373784 0.24676137 -0.25658703 -2.2671303e-09 -0.049077064
-0.16244584 0.116456814 -3.3251175e-07 3.7745528e-07 -6.112549e-05 -0.13751318 -0.13896699 -0.026771413
0.0023787958 -0.29265592 -0.15338545 -0.1016053 0.05917142 -0.03156745 0.080361 -0.07463965
2.8388465e-07 0.28429428 -3.7863458e-07 -0.07319733 -0.019682854 -1.1828621e-06 -5.511893e-13 -6.7006706e-11
-5.0076787e-09 0.20601262 -0.0003531468 0.17913757 -1.2636273e-09 6.25071e-10 -0.022683822 4.2026263e-06
0.13257772 0.21033682 -1.1940085e-22 0.010116559 0.12381946 -0.12259789 0.0121202525 2.7712268e-16
-1.2326755e-07 0.29734018 -2.7004047e-11 -1.9973113e-08 -6.784442e-13 0.20827073 -0.022180896 -0.19148682
-0.013662303 -4.7901605e-12 0.17156579 0.0780181 -0.079716064 -9.086829e-05 -4.9396615e-12 -0.0075611738
00000000: 4648 083e 4384 17bd 87a5 91b0 4a58 a334
00000010: af3c 52b8 7fa3 e13a 14ae e2bd 8fa2 a3bb
00000020: 32ef 113d 2a01 aebd 652f e8bd e95c 02be
00000030: 1920 083e 111d 02bd 4a7c 7ebd afd6 66bd
00000040: fdd8 1b36 7e40 90bd 1ea7 9db5 8f11 81bd
00000050: fc3f 1b3d b4fb 5333 062c 2bad b36c f42f
00000060: fb03 a3b0 a6e4 a6ba 5744 0fb0 485c 07be
00000070: 8b35 0c31 f5d7 e42a f979 c1bc 3eb2 e434
00000080: 6427 89bd b893 abbd 068d 3f18 9d8b 8abb
00000090: 275d 9c3c 527d 163c 65a4 44bb 085c f0a6
000000a0: 5f1c 7f32 8710 783e eb4e ffaf 1ea3 f483
000000b0: edf2 272f a470 7dbd ed8c b6bc ec98 4dbd
000000c0: 9ccb cd3d f753 d8ad d92d babd ca65 dc3d
000000d0: dbd9 2e3c e02c af37 097e 722d 60d4 35bc
000000e0: 8540 793c 8273 e528 3b1f 90bd 3673 d13d
000000f0: eb45 8c3e eef7 cbb4 9ba1 03b1 cf96 493e
00000100: ce98 41b3 748a 183e 061f b1aa 4e4a 8a35
00000110: ed3e 0932 d67f 8f34 5fb6 0e3b bed0 5faf
00000120: 9c4a 003b 5ea9 cabc 12c7 eb3a 4656 15ad
00000130: 43a2 95a7 559b cbb1 eece 1f35 d063 c036
00000140: ff5d 94bd 6610 bfbc f06e 6592 6497 9030
00000150: b351 93bd 7c3d 3030 d7b0 e93c a715 73b9
00000160: cca8 74a1 f8bc 733e 5efa 2abd a55a b037
00000170: 278f dabd 9b9a 7eac df3a 1d32 3074 08be
00000180: 24ed cfbd 8ffe debd 053f 25b6 b13b 3b3e
00000190: d0b8 943d b66c a2bc dc77 e0b0 ed87 6534
000001a0: da04 4aab 16b1 7a3d cbc5 febc 9655 b4bc
000001b0: 8126 4d3d 7030 c0bd 7cd8 8c3e 1b5b a03c
000001c0: 1807 e0bd 7d48 f03d ab75 5dbd 2524 68bd
000001d0: a705 22b4 3105 8dbd a177 1ab0 94d9 7ebd
000001e0: e963 ed3a bc3b 5eb5 dfe3 1f2b cccd 6baa
000001f0: 3089 86b2 bc36 ffbd a2b6 abb5 4c92 2bbd
00000200: e4fc 1522 902f 192c c944 1b3e f5c8 0eb4
00000210: b47c 19be 3bf4 cf3c 2775 971a b987 d13b
00000220: 8f8a 5d3e 60d7 293e ba28 31b8 128b cd23
00000230: 956f 0db3 9a61 65bc 7724 99ab 68e6 23b3
00000240: edec 00a8 0667 833e f499 443c b9af 2e3e
00000250: e1a9 67be 8a32 c928 0258 593d 5c88 b3b9
00000260: 64c7 413e f54f 0e39 9109 0080 b6ca cfb9
00000270: e3b3 56bd 7c6d 4926 3af4 d43d 8cfc 2abe
00000280: e845 cebd 2249 3eb3 d569 ebad d99c 4c3c
00000290: b3af 9fb2 82ff 323b c28b 0800 c63a 54b3
000002a0: dfa5 a0ae 26df dfb4 b7f2 5b3e f995 3531
000002b0: 0d4f 8abb 1693 283d a76d a5bb 5a34 a2ab
000002c0: c9a4 84ac 2096 dbb5 cf64 01b0 2f80 01b2
000002d0: 8a28 bebb 7ac8 42bd 44cd 8020 7294 adad
000002e0: b64f a4bd 3c0d 102f d1e9 18bc b651 d0b8
000002f0: c125 c0aa f74e e23d 66f6 f0bd 2f9d fe95
00000300: 3d62 48bc ac70 43ae 1423 c4a3 cc81 003d
00000310: 03af 7c3e 605f 83be c7cb 1bb1 0805 49bd
00000320: 3458 26be e980 ee3d 1184 b2b4 0fa5 ca34
00000330: 7f30 80b8 41d0 0cbe 5d4d 0ebe b94f dbbc
00000340: 92e5 1b3b ffd6 95be 1311 1dbe 7116 d0bd
00000350: bb5d 723d df4c 01bd 4f94 a43d acdc 98bd
00000360: cf68 9834 058f 913e 2447 cbb4 7be8 95bd
00000370: f03d a1bc d5c2 9eb5 6025 1bab 6c59 93ae
00000380: 0210 acb1 f9f4 523e 9026 b9b9 d76f 373e
00000390: efab adb0 76d1 2b30 6cd3 b9bc 4904 8d36
000003a0: 74c2 073e 8962 573e c658 109b edbf 253c
000003b0: 0f95 fd3d 9a14 fbbd 0694 463c 17c0 9f25
000003c0: 875b 04b4 f93c 983e b587 edad 5791 abb2
000003d0: 0ff7 3eab ec44 553e b6b4 b5bc 1f15 44be
000003e0: dad7 5fbc ee89 a8ac f1ae 2f3e f4c7 9f3d
000003f0: 2d42 a3bd 8b90 beb8 84cc adac b9c3 f7bb

7.bias f4 [10]
-5.6779067e-05 -5.202132e-05 -5.237914e-06 4.4032245e-06 -0.00013222612 -0.00018830542 0.00014569423 0.00017550938
-3.1567834e-05 0.00012194276
00000000: 0f26 6eb8 7831 5ab8 57c1 afb6 69bf 9336
00000010: 2ea6 0ab9 da73 45b9 7fc5 1839 f108 3839
00000020: b467 04b8 85bb ff38
